train1.pt (torch_old, 13284 bytes, 12 tensors)

linear1.weight f4 [32, 7]
00000000: c537 ebc0 13c5 74c0 d57d 9fbf 30c1 20c2
00000010: 2298 d9bf c97c b2c0 ec57 06c0 0b08 dcbe
00000020: 2ef0 9dc0 d326 a1c1 7ca0 5bc2 5bbf 7e3d
00000030: e08d 2540 22cf 7bbc d0f8 2c3b 3b68 963d
00000040: 1e38 ae3d e8f2 76be aef9 9d3e a3c6 813e
00000050: a065 d2be 8e35 333e 8183 85be e026 f03c
00000060: d830 f4bd d788 b0be 6dcc bd3e 3618 37be
00000070: 62ff 333e 7d24 5abe 9b35 3abe 2094 7c3c
00000080: 5037 183d 126a 003f d494 4abd 5560 9640
00000090: 8286 d6c0 9b5f 5841 b04b cc40 4249 3240
000000a0: b02c 1941 ec6d 51c0 b45c c3bf 5684 cd3f
000000b0: 964f ddc1 508c bcc1 fcf2 953e 8c27 aabe
000000c0: 7933 83bd 97f2 99bd 6a51 18bf 208e 58bc
000000d0: d40c 28be e206 fb3d 6e75 00be c7ad e4bd
000000e0: 1131 4c3e 9c73 ca3c 4f7d a4be 8dc6 bebd
000000f0: c5c0 f4be 6a7b c23e 2ddf 60be 2740 e8be
00000100: 68dc 90be 0848 30bd 143a c3bd c0c6 27bc
00000110: 3836 a5bc 2ebd f0bd dc98 3bbd dba7 f4be
00000120: fb93 5bbe 7559 cebe 3395 0a3e 771c e13e
00000130: c316 41be e6d0 21be a296 24be 75bb 16be
00000140: d513 60be 18de 113d bc25 aa3e 3030 25bd
00000150: 4882 4140 ea27 d33f 5053 dc40 f166 08c2
00000160: 1d57 28bf 04de 4440 f1bd 83be e2f1 70bf
00000170: 8788 983e 5960 9dc1 6155 8bc1 a691 84bf
00000180: 9a94 9ec0 68d0 91c0 9de2 b13d b297 aebe
00000190: 95e6 abbd 9397 df3d 182c 063d 4652 d03e
000001a0: c413 7abd 03d9 2140 fa2d cc3e 254a b2c1
000001b0: b619 bf40 79da 46c0 125f 33bf 6f66 0cc0
000001c0: 298c 9cbe 3f07 0c3e 4066 ab3e 7451 473d
000001d0: c66e 533e deb8 99be 7aa5 6bbe 3698 ffbc
000001e0: 3c9b e03f 3408 74c2 5ea8 9e40 d2bc 6c3e
000001f0: 30c8 19c0 cf1b f2bd ae5d 87c0 05e0 50c0
00000200: 4ae4 1dc0 7979 54c2 05d7 b3bd c08a 48c1
00000210: 1304 49bd 60b9 8bc0 176e 453f b39b 47c2
00000220: fe44 3a41 a962 2bbe 9bb9 b5bf 00d3 19be
00000230: d5ac dac0 ac31 983d 2988 7a3f cac3 acbf
00000240: ca73 86bf f31f 243f 3201 a7be 1021 afbf
00000250: d9c5 c6bf eed6 03c1 a2b8 09c2 b1dc 94be
00000260: e5ec 96bf d8e3 90bd 47dc d2bf 5780 c63e
00000270: 3041 b23d 0e30 dcbf 999b 14bf a7b7 bb3e
00000280: acde 65be 010f e43e 27cf fc3f 43a8 e740
00000290: e856 4842 9281 c0be aa89 c6be eeaf e9bd
000002a0: 62b2 5abf 0fae b13f 5617 acc0 b870 3c40
000002b0: e6c2 81c0 2296 ed40 c28e 47c0 c561 0bbe
000002c0: 70d8 cb3c b813 e23d d902 88be 887e 9abe
000002d0: 9294 2f3e 08c3 62bd bff7 bb3f eb92 30c0
000002e0: 6973 aa41 69d4 67c2 d4fe 1b3e 8c76 9fbf
000002f0: 1548 7abe 5065 f13f 3023 4a3f 3d9c 1542
00000300: fe5a 4242 5432 793c caed 053e 8c23 b23d
00000310: 9302 be3f d62e 1cc0 4001 c942 bb2c dac0
00000320: 77b9 8b3e aeea 1140 5a94 2dbd 00d4 2a3b
00000330: 9237 03be 0062 a3bc 30d9 643d 9123 76be
00000340: d0c1 863d 2477 8abd 2c51 6a40 8008 703d
00000350: 82a9 8042 b540 79c1 956d 7fbe 49d9 4ebe
00000360: c9a6 653e 9c60 13c0 17a4 96bf 3b12 c13d
00000370: 6e09 bbbe 2dba d93e c567 4dbf 7e6e 9abf
-7.350558 -3.8245285 -1.2460276 -40.18866 -1.6999552 -5.5777326 -2.0991163 -0.42974886
-4.935569 -20.143957 -54.906723 0.06219421 2.5867844 -0.0153692085 0.002639342 0.07344099
0.08506797 -0.24116099 0.30854553 0.2534686 -0.4109316 0.17500898 -0.26076892 0.029315412
-0.11923379 -0.344794 0.37070027 -0.1788033 0.1757789 -0.21302982 -0.18184511 0.015416175
0.037162125 0.5016185 -0.04945834 4.6992593 -6.7039194 13.523341 6.384239 2.7857213
9.57341 -3.272334 -1.5262666 1.6056011 -27.66386 -23.568512 0.29286945 -0.33233297
-0.06406302 -0.075169735 -0.5949923 -0.013217479 -0.16411144 0.12257172 -0.12544796 -0.11165958
0.19940592 0.02471333 -0.32126853 -0.09315214 -0.4780332 0.37984782 -0.21960135 -0.45361444
-0.28293157 -0.043037444 -0.09532562 -0.010240257 -0.020167455 -0.11754833 -0.045800075 -0.47784314
-0.21443169 -0.40302625 0.13533477 0.4396703 -0.18856339 -0.15802345 -0.16073087 -0.14719947
-0.21882565 0.035612196 0.33231914 -0.04032916 3.0235767 1.6496556 6.88517 -34.10053
-0.65757924 3.0760508 -0.2573085 -0.94119084 0.29791662 -19.672045 -17.416689 -1.0356948
-4.95564 -4.55669 0.08685801 -0.3410011 -0.083935894 0.10917582 0.032756895 0.4068777
-0.061054006 2.5288703 0.39878827 -22.286203 5.9718885 -3.1070845 -0.7006694 -2.193752
-0.30575684 0.13674639 0.33476448 0.048661664 0.20647725 -0.30023855 -0.23012343 -0.03120051
1.7547374 -61.00801 4.9580526 0.23118904 -2.4028435 -0.1182171 -4.2301855 -3.263673
-2.4670587 -53.118626 -0.08781246 -12.5338745 -0.04907615 -4.366379 0.7712111 -49.90205
11.641844 -0.16736855 -1.4197267 -0.15021896 -6.8335977 0.07431349 0.97864014 -1.349725
-1.0504086 0.6411125 -0.326181 -1.3681965 -1.5529128 -8.239973 -34.430305 -0.29074624
-1.1791044 -0.07074708 -1.6473473 0.3876979 0.0870384 -1.7202165 -0.58049923 0.36663553
-0.22448224 0.44542697 1.9750718 7.2392898 50.08487 -0.37598854 -0.38776904 -0.11410509
-0.8542844 1.3881243 -5.3778486 2.9443798 -4.0550413 7.4245768 -3.1180882 -0.13611515
0.024883479 0.11038917 -0.26564673 -0.3017466 0.17146519 -0.055361778 1.4684981 -2.7589672
21.306353 -57.95743 0.15233928 -1.2458053 -0.2444156 1.8859043 0.7895994 37.402576
48.58886 0.015209753 0.1307899 0.08698186 1.4844536 -2.4403586 100.50244 -6.8179603
0.27289936 2.2799487 -0.042377807 0.0026066303 -0.12814167 -0.019944191 0.05587119 -0.24037005
0.065799356 -0.067610055 3.6612043 0.058601856 64.33107 -15.578298 -0.24944146 -0.20200075
0.22426905 -2.3027716 -1.1768826 0.09427305 -0.36530632 0.42524853 -0.80236465 -1.206497

linear1.bias f4 [32]
00000000: 8640 6ebf d3c0 a43f 24ed d9be 2991 b4be
00000010: 7bcc babe dc18 bbc0 669b dbbf be41 2cbe
00000020: 53cf bdbe 80be 04be 42db 86be 3e9b 22be
00000030: 07d3 eabf 8c15 303f 13a2 49be 11e8 a6c0
00000040: 49cc c8be 528f 36c0 705a 023f b158 5140
00000050: 1400 a2be 4864 c43f f076 f4be 5dd8 22c0
00000060: 945e 03c0 9e14 08be a179 9a3f 11f6 13c0
00000070: 0f22 d33f ac87 babe 6c30 05c0 18f7 02bf
-0.93067205 1.2871345 -0.42563736 -0.35266998 -0.3648413 -5.8467846 -1.7156799 -0.16821954
-0.37072238 -0.12963295 -0.26339155 -0.15879533 -1.834565 0.6878288 -0.19690733 -5.2158284
-0.39218357 -2.8524976 0.50919247 3.2710383 -0.31640685 1.5343103 -0.47746992 -2.5444558
-2.0526476 -0.13289115 1.2068368 -2.3118937 1.6494769 -0.36431634 -2.0810804 -0.51158285

linear2.weight f4 [32, 32]
00000000: 5eae 28be 4e41 4bbe 5d15 11be fa9f e13d
00000010: 6426 43bd f91f 41be 1bb3 e6bd 1adf 07bd
00000020: 247a 9e3c 7309 13be 33b9 933d c7d4 2dbe
00000030: 1e22 62bd 80cd 65bd 840a 29bd 5027 d8bd
00000040: c8b6 813c 44cf eabc 82b0 4fbe 2646 87be
00000050: 0178 85bd cd75 e9bd 16a9 34bd dc9c 91bc
00000060: ac39 6d3d 24f9 50bd a508 cfbd d401 0abe
00000070: 20cb 083b 3a5c cc3d c068 ca3b 11f7 fabd
00000080: fcfb 79be 0a56 86bd 1733 cbbd 9ec6 ed3d
00000090: 6345 c6bd 3cd6 45be aa8f 8ebe bec8 14be
000000a0: c08e a3ba 3883 72bd 6094 8abc 62dc 6b3d
000000b0: d20d 69bd 9252 47bd 40f2 d93c e2c7 1ebd
000000c0: 7244 69bd 7a01 a4bd 7a82 f3bd 4783 acbd
000000d0: 22cb 2cbd 4d98 38be 507e 673c ad42 84be
000000e0: 0c8c 963c 11f3 133e 56e9 67be e4b7 c3bd
000000f0: e096 7abe 942c 5dbd 70ba ea3b b4ce d9bc
00000100: fb5a e2bf aafb 3dc0 850f 293e fedf 9bbd
00000110: ddd8 bdbd a764 f6bf f982 2cc0 2069 f33c
00000120: a61c f43d fcf3 07be 303a efbd 5616 be3d
00000130: fd04 fcbf dfae bfc0 0c1d 89bd 33a3 ebbf
00000140: 2cd6 f7bd 1ce1 0040 e561 0ac0 c243 40c1
00000150: 2865 63be 74cf e4be bc1f 703d 3997 a9be
00000160: b792 6bc0 268a 8f3d 34b8 0cbe 0d01 e2be
00000170: d452 d3be a0ea 453d 51ac 7ec0 26aa b73d
00000180: d5b9 a43f 793b 1cc1 2f4c 09be c8b0 28bd
00000190: 3daa 203e 9fe7 dcbf d063 dfbf fee6 45bd
000001a0: de2b 533d 008c 85bd 2d4f 88bd 00e3 32ba
000001b0: b4eb 5f3f 77fb a23f 4e39 c93d 8ee5 cb3f
000001c0: 8079 cdbc 54f6 9b3e fed5 623f bcf7 36bf
000001d0: 6295 15be 164b ffbe f027 8dbe f9c5 71be
000001e0: a8b7 903f 60f8 9d3b aebb 00c1 d67b b0bf
000001f0: bce5 a4c0 9576 d7bd 1a76 b9be ad8c 77c0
00000200: 3840 afbe d103 d4c1 76f0 043f 6315 a7bd
00000210: 5e03 0e3e f67b 7fc0 bf77 2dc0 110d ed3d
00000220: ad6e 263e 8c2f e73c 287c e03d 4008 323d
00000230: e33e 91bf a1a0 8ac0 c255 373e 721a 2a40
00000240: b77b 21be c4bc 0c3f c612 69c1 ee34 b1bf
00000250: 8b77 b73e b015 983f 9c95 913c d2f2 87bf
00000260: 354c dcc0 42b3 fa3d d9c7 a23f 72cb 43c0
00000270: 632f aac0 45aa 2b3e 8abf 36c1 71d1 973f
00000280: 4f0e d3c0 1ee5 57c1 905b 343e 542a 3bbd
00000290: a023 a63d ae1c 9bbe 24e7 cc3f 5b0d 103e
000002a0: 4612 2f3e 28c3 ac3c 8c2c a2bc df58 463e
000002b0: bb16 debd 92c2 6f3e da35 473e 1329 eb3f
000002c0: 6d11 1d3e 8f33 b23f ceac dac0 a2a2 7f3f
000002d0: f7d4 113e 5349 2e40 9711 17bd 94d6 b5c0
000002e0: ff08 b43f 118d 293e cbd7 4f3d e2bc 14bf
000002f0: 864d 7bc1 0f69 0d3e 8ebb 4ec1 6adc 8e3e
00000300: 9860 9d3b a363 36c0 bf3b 37be 5e1a 14be
00000310: ce68 b13d 4f1d c3be 201f e63d a66b 243e
00000320: b4b4 a43c 45f2 9a3d 2a3c 0dbe c8f2 863e
00000330: ef60 9cbf 5259 8cbf a0c4 efbc c077 a4c0
00000340: dd12 dcbd 713a bdc0 afe6 f73e 270f a2bf
00000350: 7c53 04bd e5fe 1740 7c53 56be fc25 60c0
00000360: f474 12be c0f2 f6bb cfc0 b73e ed00 dec0
00000370: e05e 2dc0 5328 1c3e 42db 73c0 dfef 943f
00000380: 26cc 5540 2fde 77c0 00e5 5abc d0ee 4bbc
00000390: 655a 8e3c acfe 23c1 6000 00c1 fdb6 fc3d
000003a0: 0032 193c 00be f53d aa80 f43d 8458 913d
000003b0: 8a54 e83e bfbc c3bf 16d9 9cbd c362 91bf
000003c0: e3e0 0d3e 965c 75c0 26ee 183f 7285 9cc1
000003d0: d805 83bc 8c0b d13f 3cc9 fa3d c59b dcbf
000003e0: 8751 95c0 a060 cebc 4c01 a93f 0533 2cc1
000003f0: 8405 d9c0 6021 b5bc a4ca 21be fae0 19bd
-0.16472766 -0.1984913 -0.14168306 0.11016841 -0.047644034 -0.18859853 -0.112646304 -0.03317175
0.01934535 -0.14359073 0.07213058 -0.169757 -0.055208318 -0.056104183 -0.041269794 -0.10554373
0.015834227 -0.028663285 -0.20282176 -0.26420707 -0.065170296 -0.11399422 -0.044106565 -0.017774992
0.05791633 -0.05101885 -0.10109071 -0.1347726 0.0020873025 0.09978528 0.006177038 -0.122541554
-0.2441253 -0.065593794 -0.09921854 0.11610149 -0.09681203 -0.19320005 -0.27843982 -0.14529702
-0.0012478456 -0.05920717 -0.016916454 0.05758322 -0.056897946 -0.04866273 0.026604772 -0.03876484
-0.05695004 -0.08008094 -0.11890121 -0.08423477 -0.04218591 -0.18026848 0.014129236 -0.2583212
0.018377326 0.14448191 -0.22647604 -0.09556559 -0.24471617 -0.05399759 0.0071633384 -0.026587822
-1.7684015 -2.9684854 0.16509826 -0.076110825 -0.09269879 -1.9249467 -2.695494 0.029713213
0.11919527 -0.13276666 -0.1168102 0.09281604 -1.9689022 -5.9900966 -0.066949934 -1.840918
-0.12101397 2.0137396 -2.162225 -12.016542 -0.22206557 -0.44689524 0.058624014 -0.33123186
-3.6808298 0.070087716 -0.13742143 -0.44141427 -0.4127413 0.04831946 -3.9792674 0.08968
1.2869211 -9.76452 -0.13407968 -0.041184217 0.15689941 -1.7258185 -1.7452335 -0.048315994
0.051555507 -0.065208435 -0.066557266 -0.0006823987 0.8746903 1.2732991 0.09825383 1.592943
-0.02508235 0.3046137 0.88607776 -0.7147176 -0.14607766 -0.49861974 -0.27569532 -0.23610677
1.1306047 0.0048208684 -8.04582 -1.3787792 -5.1530437 -0.105206646 -0.36222917 -3.8679612
-0.34228683 -26.501863 0.51929414 -0.08158376 0.13868472 -3.991941 -2.7104337 0.11574758
0.16253157 0.028220914 0.10961181 0.0434649 -1.1347317 -4.332108 0.17903808 2.657864
-0.1576985 0.54975533 -14.567083 -1.3844278 0.35833392 1.1881618 0.017771535 -1.0620978
-6.8843026 0.12241222 1.2717239 -3.0592923 -5.3182845 0.16764171 -11.421762 1.1860791
-6.5954967 -13.493437 0.17613053 -0.045694664 0.08112264 -0.30295318 1.6008039 0.14067595
0.17096815 0.021089152 -0.019796632 0.19369839 -0.10844179 0.23414066 0.19454136 1.837191
0.15338679 1.3921984 -6.8335943 0.9985753 0.14241396 2.7232254 -0.03688201 -5.6824436
1.4065245 0.16557719 0.050742906 -0.5810071 -15.706427 0.13809608 -12.92079 0.27902538
0.0048027746 -2.8498313 -0.17893885 -0.14463183 0.08662568 -0.38108298 0.112364054 0.1605669
0.020105697 0.075657405 -0.13792482 0.26357102 -1.2217082 -1.0964758 -0.029268563 -5.139618
-0.107457854 -5.913384 0.48418185 -1.2660874 -0.03230618 2.3749325 -0.20930284 -3.5023184
-0.14302427 -0.0075362623 0.3588929 -6.937613 -2.7089157 0.15249757 -3.8102574 1.1635703
3.3405852 -3.872936 -0.013360262 -0.012447074 0.017377088 -10.249676 -8.000092 0.1233959
0.0093503 0.1199913 0.11938603 0.07096961 0.45376998 -1.5291976 -0.07658593 -1.1358265
0.13855319 -3.833776 0.59738386 -19.565159 -0.015993997 1.6331649 0.12245414 -1.7235037
-4.666202 -0.025192559 1.3203521 -10.762456 -6.7819233 -0.022110641 -0.15799958 -0.03756807

linear2.bias f4 [32]
00000000: 3ec6 3bbe 1e4f 10be c138 79c0 0569 6540
00000010: 2fdd 6fc0 11c5 dec0 62aa 3340 8034 4cc0
00000020: e9ea c7be e7f4 9fbe ff31 8ebd 3ed5 2dbf
00000030: 5371 90c0 e35a c340 881e 86be c535 373f
00000040: 7378 03c1 4c4c 34c0 0a83 01c0 06e8 3240
00000050: 14da 8ac0 d4b8 3dc0 0c52 9bbe 7fad 31c0
00000060: 772f adc0 2357 38bf 6b69 95bd d267 babe
00000070: 8657 10c0 6235 a3be e738 39bf 906e ac3e
-0.18337342 -0.14092681 -3.894089 3.584535 -3.747875 -6.961556 2.8072743 -3.1907043
-0.3904641 -0.31241533 -0.0694313 -0.67903507 -4.5138335 6.1048446 -0.26195168 0.7156642
-8.216907 -2.8171568 -2.023623 2.7954116 -4.339121 -2.964406 -0.30336034 -2.7762144
-5.412044 -0.7200796 -0.072954975 -0.36407334 -2.255342 -0.31876665 -0.7235245 0.33678102

output.weight f4 [3, 32]
00000000: 5674 143d b2cb 233d 4f0f 0c3e 19df 3ebf
00000010: 965a fb3e a52b c33e 8d4a 1b3f 14a4 f63c
00000020: 30c8 7bbd 7a3a ad3d 14a8 93bc 72cb 4d3f
00000030: 74b2 333f c98d e7be ccf0 61ba 6030 d43e
00000040: 43ea c4be 6e64 5e3e c08f 7c3e 0d2e 443e
00000050: d45f 4e40 e817 bcbe 733a 123d f82b 623f
00000060: a98d 2b40 80a9 cebc ec03 6b3d e806 f03c
00000070: 185e 03bf 80b9 673c 1768 e0bd 5b56 efbe
00000080: 946a d2bc 7fad 87bd 1ce1 5b3e 7940 2bbf
00000090: 256f 4bbe 6ba5 b93e dbca 313f 3aba 2d3e
000000a0: 9ef3 adbd 2865 2a3d 9e89 4ebe 2b76 453f
000000b0: e2c6 333f c80c e8be 9ebe 843d 6e7a b73e
000000c0: 272d b6be 231d c33e 20ab 0e3e f2f5 d03c
000000d0: eced a1bf e881 82bc 39db f53d de01 49be
000000e0: 7ef0 5c3f a365 393e 84c8 f9bd c028 2c3e
000000f0: 03fb 05bf 67af 1e3e 3acb 553d d73a febe
00000100: 08a6 eb3c ab94 06be b975 5f3e 7a0e 3fbf
00000110: ef6a 29be 1292 ba3e 5712 9bbe ed8b 1c3e
00000120: beb7 493d 50d3 53bd 04c0 7dbd 45eb 0ebd
00000130: a481 393f ca5f e1be 601a 683b caf5 d63e
00000140: f824 c3be 0250 49be 7061 863b cf12 b73f
00000150: aaff bcbe ae7a 39bd 9611 233d 3702 ea3d
00000160: dfab 9b3e 8010 7fbb e332 923d 74c6 bc3d
00000170: 3e17 403e 9391 abbd 5731 ec3d b819 5bbf
0.03624376 0.03998918 0.13677715 -0.7455917 0.4909255 0.38119236 0.6066063 0.030107535
-0.06147021 0.08458419 -0.018024482 0.8038856 0.7019417 -0.4522536 -0.00086189504 0.41443157
-0.38459978 0.21717998 0.24664211 0.19158192 3.224599 -0.3673699 0.035700273 0.8834834
2.6805212 -0.025227308 0.057376787 0.029300168 -0.5131545 0.014143348 -0.109573536 -0.46745571
-0.025685586 -0.06624889 0.21472591 -0.6689525 -0.19866617 0.36259016 0.6945016 0.16965571
-0.08493732 0.041600376 -0.20169684 0.77133435 0.70225346 -0.4532225 0.0648167 0.35835594
-0.35581324 0.38108167 0.13932467 0.0255079 -1.2650733 -0.015931085 0.12004704 -0.19629619
0.8630446 0.18105178 -0.121964484 0.1681242 -0.5233614 0.15496598 0.052195765 -0.49654266
0.028765693 -0.1314265 0.21822251 -0.74631464 -0.16544698 0.36439568 -0.3028743 0.15287752
0.049247496 -0.051715195 -0.0619507 -0.03489234 0.7246344 -0.44018394 0.0035416111 0.41984397
-0.38114142 -0.19659427 0.004100971 1.4302615 -0.36913806 -0.045283012 0.039811693 0.11426204
0.30404565 -0.0038919747 0.07138612 0.092175394 0.18758866 -0.083773755 0.11532848 -0.8558612

output.bias f4 [3]
00000000: 309a 86bd 2a7b c3bd 1631 85bd
-0.06572378 -0.09544976 -0.06503503

square_avg f4 [32, 7]
00000000: 3200 0000 3200 0000 3200 0000 3200 0000
00000010: 3200 0000 3200 0000 3200 0000 0a7b bc38
00000020: f0f7 9c39 fc30 8f36 f1bc d035 f667 7338
00000030: eee0 d036 c280 0d3c 3200 0000 3200 0000
00000040: 3200 0000 3200 0000 3200 0000 3200 0000
00000050: 3200 0000 0000 0000 0000 0000 0000 0000
00000060: 0000 0000 0000 0000 0000 0000 0000 0000
00000070: 3200 0000 3200 0000 3200 0000 3200 0000
00000080: 3200 0000 3200 0000 3200 0000 3200 0000
00000090: 3200 0000 3200 0000 3200 0000 3200 0000
000000a0: 3200 0000 3200 0000 0f3f 093a 066c 823a
000000b0: 7927 ef37 4804 ef37 24e3 a338 3c6f 3638
000000c0: 21cf 9b3d 3200 0000 3200 0000 3200 0000
000000d0: 3200 0000 3200 0000 3200 0000 3200 0000
000000e0: 3200 0000 3200 0000 3200 0000 3200 0000
000000f0: 3200 0000 3200 0000 3200 0000 3200 0000
00000100: 3200 0000 3200 0000 3200 0000 3200 0000
00000110: 3200 0000 3200 0000 3200 0000 3200 0000
00000120: 3200 0000 3200 0000 3200 0000 3200 0000
00000130: 0000 0000 3200 0000 3200 0000 3200 0000
00000140: 3200 0000 0000 0000 3200 0000 3200 0000
00000150: 993e 963a a8ce ec3a 2595 3738 d818 2e38
00000160: ec77 8137 091a 8538 d478 dd3d de55 dc37
00000170: a796 9938 0534 2635 de64 1835 aaa0 0637
00000180: 6c4b e435 61ee 5b36 3200 0000 3200 0000
00000190: 3200 0000 3200 0000 3200 0000 3200 0000
000001a0: 3200 0000 3200 0000 3200 0000 3200 0000
000001b0: 3200 0000 3200 0000 3200 0000 3200 0000
000001c0: 3200 0000 3200 0000 3200 0000 3200 0000
000001d0: 3200 0000 0000 0000 3200 0000 edef 8239
000001e0: 5c9a c339 7c5b 3837 c360 2337 4b89 3237
000001f0: f033 8837 9068 e13c f1b9 1d39 48ce 9339
00000200: 8047 ab35 4641 3836 3271 8438 6a42 d136
00000210: 43e8 133c e562 1e3a be02 873a 249b c937
00000220: 7fd6 ab37 5fa7 8538 fe29 1538 f3b9 913d
00000230: 3200 0000 3200 0000 3200 0000 3200 0000
00000240: 3200 0000 3200 0000 3200 0000 7606 7339
00000250: b387 c939 8976 3f37 55cc 3437 b6c4 cc37
00000260: b3ed a537 3fc5 083d 3200 0000 3200 0000
00000270: 3200 0000 3200 0000 3200 0000 3200 0000
00000280: 3200 0000 02a3 2839 f8c3 8139 c14d 9135
00000290: 4d47 8535 b362 9f37 b8fd 2536 75a6 a33b
000002a0: 3200 0000 3200 0000 3200 0000 3200 0000
000002b0: 3200 0000 3200 0000 3200 0000 0000 0000
000002c0: 0000 0000 0000 0000 0000 0000 0000 0000
000002d0: 0000 0000 0000 0000 6cfe 9a3b ed99 073c
000002e0: def9 9439 20b0 9139 295b 6938 b333 ea39
000002f0: 450d fd3e ef4c 8739 5a9a af39 09b0 9b35
00000300: 664f ec35 a471 1f38 a35c 9036 26a2 7c3c
00000310: 1aab e537 85f8 8f35 5b40 e332 303e 2b34
00000320: 33e4 7737 5d96 c734 c8ed 143a 0000 0000
00000330: 0000 0000 0000 0000 0000 0000 0000 0000
00000340: 0000 0000 0000 0000 4efb 8a38 564e 5038
00000350: 9422 ad33 c20b c834 2111 8037 c74b 6535
00000360: 96b2 033b 3200 0000 3200 0000 3200 0000
00000370: 3200 0000 3200 0000 3200 0000 3200 0000
7e-44 7e-44 7e-44 7e-44 7e-44 7e-44 7e-44 8.9874564e-05
0.00029939367 4.2674346e-06 1.5552197e-06 5.8032536e-05 6.2250683e-06 0.008636655 7e-44 7e-44
7e-44 7e-44 7e-44 7e-44 7e-44 0.0 0.0 0.0
0.0 0.0 0.0 0.0 7e-44 7e-44 7e-44 7e-44
7e-44 7e-44 7e-44 7e-44 7e-44 7e-44 7e-44 7e-44
7e-44 7e-44 0.0005235532 0.0009950406 2.8509401e-05 2.8493014e-05 7.814754e-05 4.3495776e-05
0.07607866 7e-44 7e-44 7e-44 7e-44 7e-44 7e-44 7e-44
7e-44 7e-44 7e-44 7e-44 7e-44 7e-44 7e-44 7e-44
7e-44 7e-44 7e-44 7e-44 7e-44 7e-44 7e-44 7e-44
7e-44 7e-44 7e-44 7e-44 0.0 7e-44 7e-44 7e-44
7e-44 0.0 7e-44 7e-44 0.0011462747 0.001806696 4.37695e-05 4.150797e-05
1.5433841e-05 6.3467836e-05 0.10814062 2.6266029e-05 7.32367e-05 6.191552e-07 5.6771194e-07 8.02443e-06
1.7009274e-06 3.2772298e-06 7e-44 7e-44 7e-44 7e-44 7e-44 7e-44
7e-44 7e-44 7e-44 7e-44 7e-44 7e-44 7e-44 7e-44
7e-44 7e-44 7e-44 7e-44 7e-44 0.0 7e-44 0.0002497429
0.00037308305 1.0988555e-05 9.738086e-06 1.0641593e-05 1.6236649e-05 0.02751568 0.00015041955 0.00028191716
1.2761302e-06 2.745613e-06 6.315335e-05 6.236417e-06 0.0090275435 0.0006041958 0.00103005 2.403331e-05
2.0484671e-05 6.3731095e-05 3.5563477e-05 0.07115545 7e-44 7e-44 7e-44 7e-44
7e-44 7e-44 7e-44 0.00023176693 0.0003843881 1.1412086e-05 1.0776411e-05 2.4410296e-05
1.978022e-05 0.033391234 7e-44 7e-44 7e-44 7e-44 7e-44 7e-44
7e-44 0.00016082454 0.00024750805 1.0825971e-06 9.930023e-07 1.9000237e-05 2.47346e-06 0.0049942085
7e-44 7e-44 7e-44 7e-44 7e-44 7e-44 7e-44 0.0
0.0 0.0 0.0 0.0 0.0 0.0 0.0047300365 0.008276445
0.00028414925 0.00027787779 5.563643e-05 0.00044670477 0.49424186 0.00025806527 0.00033493602 1.1599633e-06
1.7606478e-06 3.801439e-05 4.3023188e-06 0.015419519 2.7378603e-05 1.0726659e-06 2.6455544e-08 1.594824e-07
1.4775479e-05 3.7176042e-07 0.0005681184 0.0 0.0 0.0 0.0 0.0
0.0 0.0 6.627162e-05 4.966402e-05 8.06223e-08 3.7261458e-07 1.5266765e-05 8.541942e-07
0.002009546 7e-44 7e-44 7e-44 7e-44 7e-44 7e-44 7e-44

square_avg f4 [32]
00000000: 6000 0000 6dbf 3e3a 3200 0000 0000 0000
00000010: 3200 0000 3200 0000 82f6 a03b 3200 0000
00000020: 3200 0000 3200 0000 3200 0000 3200 0000
00000030: 99ad e43b f60c 4039 3200 0000 3200 0000
00000040: 3200 0000 9c1d ec3a 650d 463a 6f16 9d3b
00000050: 3200 0000 f759 063b 3200 0000 3a3c b939
00000060: 3200 0000 0000 0000 8a01 413d 96ce 313a
00000070: 07fd 2438 0000 0000 04b5 f838 3200 0000
1.35e-43 0.00072764495 7e-44 0.0 7e-44 7e-44 0.0049121985 7e-44
7e-44 7e-44 7e-44 7e-44 0.0069787023 0.00018315375 7e-44 7e-44
7e-44 0.0018014195 0.00075550965 0.004793934 7e-44 0.00205004 7e-44 0.00035330822
7e-44 0.0 0.04712061 0.0006782798 3.9336297e-05 0.0 0.00011859278 7e-44

square_avg f4 [32, 32]
00000000: 3200 0000 3200 0000 3200 0000 0000 0000
00000010: 3200 0000 3200 0000 3200 0000 3200 0000
00000020: 3200 0000 0000 0000 3200 0000 0000 0000
00000030: 3200 0000 3200 0000 0000 0000 3200 0000
00000040: 0000 0000 3200 0000 3200 0000 3200 0000
00000050: 3200 0000 3200 0000 3200 0000 3200 0000
00000060: 3200 0000 0000 0000 3200 0000 3200 0000
00000070: 3200 0000 0000 0000 3200 0000 3200 0000
00000080: 3200 0000 3200 0000 3200 0000 0000 0000
00000090: 3200 0000 3200 0000 3200 0000 3200 0000
000000a0: 3200 0000 3200 0000 3200 0000 3200 0000
000000b0: 3200 0000 3200 0000 3200 0000 3200 0000
000000c0: 0000 0000 3200 0000 3200 0000 3200 0000
000000d0: 3200 0000 3200 0000 3200 0000 3200 0000
000000e0: 3200 0000 0000 0000 3200 0000 3200 0000
000000f0: 3200 0000 0000 0000 3200 0000 3200 0000
00000100: 3200 0000 3200 0000 0000 0000 0000 0000
00000110: 0000 0000 3200 0000 3200 0000 0000 0000
00000120: 0000 0000 0000 0000 0000 0000 0000 0000
00000130: 3200 0000 3200 0000 0000 0000 3200 0000
00000140: 0000 0000 3200 0000 3200 0000 3200 0000
00000150: 3200 0000 3200 0000 0000 0000 3200 0000
00000160: 3200 0000 0000 0000 3200 0000 3200 0000
00000170: 3200 0000 0000 0000 3200 0000 0000 0000
00000180: 3200 0000 d540 1432 3200 0000 0000 0000
00000190: 3200 0000 3200 0000 d904 6535 3200 0000
000001a0: 3200 0000 3200 0000 3200 0000 3200 0000
000001b0: 98b8 0537 da91 6437 3200 0000 3200 0000
000001c0: 3200 0000 f8ee 5239 6004 5933 9232 483a
000001d0: 3200 0000 1ad5 e536 3200 0000 ebe6 c737
000001e0: 3200 0000 0000 0000 ac25 3934 753a 0637
000001f0: 49fe 8b2f 0000 0000 ca6b 1d36 3200 0000
00000200: 3200 0000 3200 0000 3200 0000 0000 0000
00000210: 3200 0000 3200 0000 3200 0000 3200 0000
00000220: 3200 0000 3200 0000 3200 0000 3200 0000
00000230: 3200 0000 3200 0000 3200 0000 3200 0000
00000240: 0000 0000 3200 0000 3200 0000 3200 0000
00000250: 3200 0000 3200 0000 3200 0000 3200 0000
00000260: 3200 0000 0000 0000 3200 0000 3200 0000
00000270: 3200 0000 0000 0000 3200 0000 3200 0000
00000280: 3200 0000 c654 9734 3200 0000 0000 0000
00000290: 3200 0000 3200 0000 80a9 ae37 3200 0000
000002a0: 3200 0000 3200 0000 3200 0000 3200 0000
000002b0: 00d2 8c36 61e5 4337 3200 0000 3200 0000
000002c0: 0000 0000 57a7 e638 fbb3 7134 11f4 e339
000002d0: 3200 0000 8e99 2f37 3200 0000 75e8 8d34
000002e0: 3200 0000 0000 0000 7e05 7a35 3200 0000
000002f0: 3200 0000 0000 0000 9d11 c426 3200 0000
00000300: 3200 0000 5b04 9f37 3200 0000 0000 0000
00000310: 3200 0000 3200 0000 8415 2d37 3200 0000
00000320: 3200 0000 3200 0000 0000 0000 3200 0000
00000330: 93b5 bd36 3200 0000 3200 0000 3200 0000
00000340: 0000 0000 be71 b02c 8705 0b38 fb0e 3b39
00000350: 3200 0000 db49 8638 3200 0000 8b9e 4720
00000360: 3200 0000 0000 0000 a4a7 ee37 c5ae 622e
00000370: 3200 0000 0000 0000 a523 1232 3200 0000
00000380: 3200 0000 27f8 8d2a 0000 0000 0000 0000
00000390: 3200 0000 3200 0000 234b e812 3200 0000
000003a0: 3200 0000 3200 0000 0000 0000 3200 0000
000003b0: c101 832b 3200 0000 3200 0000 3200 0000
000003c0: 0000 0000 3200 0000 3200 0000 3200 0000
000003d0: 3200 0000 1567 a22a 3200 0000 3200 0000
000003e0: 3200 0000 0000 0000 43c2 ec2b 3200 0000
000003f0: 3200 0000 0000 0000 fad2 ad29 3200 0000
7e-44 7e-44 7e-44 0.0 7e-44 7e-44 7e-44 7e-44
7e-44 0.0 7e-44 0.0 7e-44 7e-44 0.0 7e-44
0.0 7e-44 7e-44 7e-44 7e-44 7e-44 7e-44 7e-44
7e-44 0.0 7e-44 7e-44 7e-44 0.0 7e-44 7e-44
7e-44 7e-44 7e-44 0.0 7e-44 7e-44 7e-44 7e-44
7e-44 7e-44 7e-44 7e-44 7e-44 7e-44 7e-44 7e-44
0.0 7e-44 7e-44 7e-44 7e-44 7e-44 7e-44 7e-44
7e-44 0.0 7e-44 7e-44 7e-44 0.0 7e-44 7e-44
7e-44 7e-44 0.0 0.0 0.0 7e-44 7e-44 0.0
0.0 0.0 0.0 0.0 7e-44 7e-44 0.0 7e-44
0.0 7e-44 7e-44 7e-44 7e-44 7e-44 0.0 7e-44
7e-44 0.0 7e-44 7e-44 7e-44 0.0 7e-44 0.0
7e-44 8.629475e-09 7e-44 0.0 7e-44 7e-44 8.53162e-07 7e-44
7e-44 7e-44 7e-44 7e-44 7.970397e-06 1.3623818e-05 7e-44 7e-44
7e-44 0.00020116183 5.052823e-08 0.000763693 7e-44 6.84954e-06 7e-44 2.3830178e-05
7e-44 0.0 1.7243173e-07 8.000633e-06 2.5464633e-10 0.0 2.3457565e-06 7e-44
7e-44 7e-44 7e-44 0.0 7e-44 7e-44 7e-44 7e-44
7e-44 7e-44 7e-44 7e-44 7e-44 7e-44 7e-44 7e-44
0.0 7e-44 7e-44 7e-44 7e-44 7e-44 7e-44 7e-44
7e-44 0.0 7e-44 7e-44 7e-44 0.0 7e-44 7e-44
7e-44 2.8187623e-07 7e-44 0.0 7e-44 7e-44 2.0821346e-05 7e-44
7e-44 7e-44 7e-44 7e-44 4.1967724e-06 1.1676312e-05 7e-44 7e-44
0.0 0.00010998424 2.251035e-07 0.00043478658 7e-44 1.0466565e-05 7e-44 2.643243e-07
7e-44 0.0 9.314025e-07 7e-44 7e-44 0.0 1.3605006e-15 7e-44
7e-44 1.8956305e-05 7e-44 0.0 7e-44 7e-44 1.0316613e-05 7e-44
7e-44 7e-44 0.0 7e-44 5.653777e-06 7e-44 7e-44 7e-44
0.0 5.0148488e-12 3.314533e-05 0.0001783929 7e-44 6.4033746e-05 7e-44 1.6908413e-19
7e-44 0.0 2.8449875e-05 5.1541677e-11 7e-44 0.0 8.506423e-09 7e-44
7e-44 2.5218822e-13 0.0 0.0 7e-44 7e-44 1.4659781e-27 7e-44
7e-44 7e-44 0.0 7e-44 9.308597e-13 7e-44 7e-44 7e-44
0.0 7e-44 7e-44 7e-44 7e-44 2.8848508e-13 7e-44 7e-44
7e-44 0.0 1.6822727e-12 7e-44 7e-44 0.0 7.719342e-14 7e-44

square_avg f4 [32]
00000000: 3200 0000 3200 0000 3200 0000 02a6 8a38
00000010: 3200 0000 04b6 3e37 70a1 b237 ae5e 1f2a
00000020: 3200 0000 3200 0000 3200 0000 aedd 8a26
00000030: da86 9f37 8bba 9b3a 3200 0000 ef96 5336
00000040: ab10 3f37 861a af2d 3200 0000 12b5 3233
00000050: b852 dc37 3200 0000 3200 0000 3200 0000
00000060: 3200 0000 3200 0000 3200 0000 3200 0000
00000070: 3200 0000 3200 0000 3200 0000 676a 1338
7e-44 7e-44 7e-44 6.611274e-05 7e-44 1.1367261e-05 2.1294429e-05 1.4154885e-13
7e-44 7e-44 7e-44 9.63576e-16 1.9017072e-05 0.0011881156 7e-44 3.1529305e-06
1.1388368e-05 1.9906975e-11 7e-44 4.1608537e-08 2.6264563e-05 7e-44 7e-44 7e-44
7e-44 7e-44 7e-44 7e-44 7e-44 7e-44 7e-44 3.5146626e-05

square_avg f4 [3, 32]
00000000: 3200 0000 3200 0000 3200 0000 b7a0 f538
00000010: 3200 0000 32fe 823a 119a c838 973e ca29
00000020: 3200 0000 3200 0000 3200 0000 e362 8625
00000030: d5ed 6c39 e7e4 ba3d 3200 0000 8996 bb37
00000040: 167f 9239 320c 0000 3200 0000 eb27 b632
00000050: fbab cd36 3200 0000 3200 0000 3200 0000
00000060: 3200 0000 3200 0000 3200 0000 3200 0000
00000070: 3200 0000 0000 0000 3200 0000 b229 d63a
00000080: 3200 0000 3200 0000 3200 0000 f907 cd38
00000090: 3200 0000 e366 903a 4200 6138 70a5 ac2a
000000a0: 3200 0000 3200 0000 3200 0000 9670 0c23
000000b0: 6297 ff39 11bc 013d 3200 0000 59f7 4e37
000000c0: eff0 9d3a 3200 0000 3200 0000 b22f 2d35
000000d0: 4925 a335 3200 0000 3200 0000 3200 0000
000000e0: 3200 0000 3200 0000 3200 0000 3200 0000
000000f0: 3200 0000 0000 0000 3200 0000 a24b f83a
00000100: 0000 0000 0000 0000 3200 0000 7bf1 6538
00000110: 3200 0000 8584 273a a16e 8636 3200 0000
00000120: 3200 0000 3200 0000 3200 0000 3200 0000
00000130: 9f2d e732 7f33 2d3d 3200 0000 2dd3 0e39
00000140: 6ec7 ad3a da73 012a 3200 0000 5b0f ab31
00000150: c75c 9e34 3200 0000 3200 0000 3200 0000
00000160: 3200 0000 3200 0000 3200 0000 3200 0000
00000170: 3200 0000 3200 0000 3200 0000 0908 1b37
7e-44 7e-44 7e-44 0.00011712446 7e-44 0.0009993969 9.56544e-05 8.9814596e-14
7e-44 7e-44 7e-44 2.3312303e-16 0.00022595313 0.09125691 7e-44 2.2362236e-05
0.00027941976 4.375e-42 7e-44 2.1205741e-08 6.1294973e-06 7e-44 7e-44 7e-44
7e-44 7e-44 7e-44 7e-44 7e-44 0.0 7e-44 0.001633933
7e-44 7e-44 7e-44 9.776647e-05 7e-44 0.0011016991 5.364442e-05 3.0668133e-13
7e-44 7e-44 7e-44 7.613256e-18 0.0004875018 0.031673495 7e-44 1.2336147e-05
0.0012049953 7e-44 7e-44 6.451693e-07 1.2155298e-06 7e-44 7e-44 7e-44
7e-44 7e-44 7e-44 7e-44 7e-44 0.0 7e-44 0.0018943439
0.0 0.0 7e-44 5.482275e-05 7e-44 0.00063902914 4.00639e-06 7e-44
7e-44 7e-44 7e-44 7e-44 2.6912685e-08 0.04228544 7e-44 0.00013620844
0.0013258287 1.1497696e-13 7e-44 4.9785007e-09 2.9497298e-07 7e-44 7e-44 7e-44
7e-44 7e-44 7e-44 7e-44 7e-44 7e-44 7e-44 9.240591e-06

square_avg f4 [3]
00000000: 608d 6c3b 2464 063a ddae 2839
0.0036095008 0.00051266165 0.0001608687
