train1t.pt (torch_old, 13284 bytes, 12 tensors)

linear1.weight f4 [32, 7]
00000000: 416c 9abf a8e3 2fbf a6cb 64c1 cb1f 3dc2
00000010: a9e4 5d3e a901 4bbf 6445 f3bd f9bc 45c1
00000020: 469d a7c0 486d dac1 1ef7 58c2 fb3e 4ac0
00000030: bc39 e9be 4864 e7bc d0f8 2c3b 3b68 963d
00000040: 1e38 ae3d e8f2 76be aef9 9d3e a3c6 813e
00000050: a065 d2be 8e35 333e 8183 85be e026 f03c
00000060: d830 f4bd d788 b0be 6dcc bd3e 3618 37be
00000070: 62ff 333e 7d24 5abe 9b35 3abe 2094 7c3c
00000080: 5037 183d 126a 003f d494 4abd af61 8340
00000090: cd6d eac0 0288 6441 5057 c740 c7bc 0740
000000a0: 36b2 0c41 ec6d 51c0 30f2 5940 a154 84c0
000000b0: 156f ccc1 c4ed bec1 bb0f 0dbf 98f6 fa3e
000000c0: f9bc bfbf 97f2 99bd 6a51 18bf 208e 58bc
000000d0: d40c 28be e206 fb3d 6e75 00be c7ad e4bd
000000e0: 1131 4c3e 9c73 ca3c 4f7d a4be 8dc6 bebd
000000f0: c5c0 f4be 6a7b c23e 2ddf 60be 2740 e8be
00000100: 68dc 90be 0848 30bd 143a c3bd c0c6 27bc
00000110: 3836 a5bc 2ebd f0bd dc98 3bbd dba7 f4be
00000120: fb93 5bbe 7559 cebe 3395 0a3e 771c e13e
00000130: c316 41be e6d0 21be a296 24be 75bb 16be
00000140: d513 60be 18de 113d bc25 aa3e 3030 25bd
00000150: f932 1140 7225 1040 1008 3c42 72de ef3f
00000160: 8cad 69bf 7bfd f23e 89ab 23bf 0df0 ae3f
00000170: 5ba8 863e 2766 a03f 7c7f 5441 d2a3 a33e
00000180: f83c 263f 3802 95c0 9de2 b13d b297 aebe
00000190: 95e6 abbd 9397 df3d 182c 063d 4652 d03e
000001a0: c413 7abd 29d9 2b40 ec5b 333e 679c b0c1
000001b0: ba62 b840 79da 46c0 724e fbbe 6f66 0cc0
000001c0: 298c 9cbe 3f07 0c3e 4066 ab3e 7451 473d
000001d0: c66e 533e deb8 99be 7aa5 6bbe 7dbf 1f3f
000001e0: 93a1 c13f fc97 55c2 6f18 3942 46d2 38be
000001f0: eae4 38bf f738 ddbe 2865 483c 6258 29c0
00000200: e525 85c1 dbd2 74c2 f863 013d 4663 c23f
00000210: 2f02 353e 6e28 27c0 8c67 8f3d d31d 6dc2
00000220: db21 3941 3407 06be e391 85bd 14dd 27be
00000230: d5ac dac0 ac31 983d 2988 7a3f cac3 acbf
00000240: ca73 86bf f31f 243f 3201 a7be c7d3 96c0
00000250: f6cf cd3e df9c 11c2 3e6f afc0 4046 6dbe
00000260: 00f0 babf 833b 08be 47dc d2bf c150 933e
00000270: 3eb1 3e3e 666b cfbf 999b 14bf 65ca ee3e
00000280: acde 65be 7d20 1a40 1a9e ab3e 4bbc 0042
00000290: 0394 4642 850e dc3c 75b3 573f 022d c8be
000002a0: 62b2 5abf 0fae b13f 5617 acc0 b870 3c40
000002b0: e6c2 81c0 2296 ed40 c28e 47c0 c561 0bbe
000002c0: 70d8 cb3c b813 e23d d902 88be 887e 9abe
000002d0: 9294 2f3e 08c3 62bd 95ed e63f ab28 cabf
000002e0: 0c57 2a42 b091 65c2 f3e3 dabd a734 88bf
000002f0: d960 a8bc 6b4e ef3f 5cf6 783f 8e14 3842
00000300: 3ed6 6042 b8cf 983b 0387 3f3e 4d96 e93d
00000310: 4989 203f 3c24 263f 7753 e242 f961 f0c0
00000320: c56c 07bf 5458 2f40 8ac5 17bd 00d4 2a3b
00000330: 9237 03be 0062 a3bc 30d9 643d 9123 76be
00000340: d0c1 863d 2477 8abd 2ddd 1d40 491e 6bc0
00000350: b964 8242 0b86 f3c1 cecf ca3f 7fcd 5d3f
00000360: ac68 fa3b 9c60 13c0 17a4 96bf 3b12 c13d
00000370: 6e09 bbbe 2dba d93e c567 4dbf 7e6e 9abf
-1.2064286 -0.6870675 -14.299719 -47.281048 0.21669258 -0.7929941 -0.118784696 -12.358636
-5.2379484 -27.30336 -54.241325 -3.160094 -0.4555186 -0.02824606 0.002639342 0.07344099
0.08506797 -0.24116099 0.30854553 0.2534686 -0.4109316 0.17500898 -0.26076892 0.029315412
-0.11923379 -0.344794 0.37070027 -0.1788033 0.1757789 -0.21302982 -0.18184511 0.015416175
0.037162125 0.5016185 -0.04945834 4.1056743 -7.3259034 14.283205 6.2294083 2.120897
8.793509 -3.272334 3.405407 -4.1353307 -25.55424 -23.866096 -0.5510213 0.4901626
-1.4979545 -0.075169735 -0.5949923 -0.013217479 -0.16411144 0.12257172 -0.12544796 -0.11165958
0.19940592 0.02471333 -0.32126853 -0.09315214 -0.4780332 0.37984782 -0.21960135 -0.45361444
-0.28293157 -0.043037444 -0.09532562 -0.010240257 -0.020167455 -0.11754833 -0.045800075 -0.47784314
-0.21443169 -0.40302625 0.13533477 0.4396703 -0.18856339 -0.15802345 -0.16073087 -0.14719947
-0.21882565 0.035612196 0.33231914 -0.04032916 2.2687361 2.2522855 47.007874 1.873976
-0.91280437 0.47459015 -0.63933617 1.3667008 0.2630032 1.2531174 13.281124 0.31960922
0.6493678 -4.656521 0.08685801 -0.3410011 -0.083935894 0.10917582 0.032756895 0.4068777
-0.061054006 2.6851294 0.17515534 -22.076368 5.7620516 -3.1070845 -0.49083287 -2.193752
-0.30575684 0.13674639 0.33476448 0.048661664 0.20647725 -0.30023855 -0.23012343 0.6240156
1.5127434 -53.398422 46.27386 -0.18048963 -0.72224295 -0.43207523 0.012231149 -2.6460195
-16.643503 -61.205914 0.03158948 1.5186546 0.17676614 -2.6118426 0.07002172 -59.279125
11.5707655 -0.13088685 -0.06521966 -0.16392928 -6.8335977 0.07431349 0.97864014 -1.349725
-1.0504086 0.6411125 -0.326181 -4.7133517 0.40197724 -36.403194 -5.4823294 -0.2317133
-1.4604492 -0.13303952 -1.6473473 0.28772548 0.186223 -1.620465 -0.58049923 0.4663879
-0.22448224 2.408233 0.3351906 32.18388 49.644543 0.026862392 0.84258205 -0.39096838
-0.8542844 1.3881243 -5.3778486 2.9443798 -4.0550413 7.4245768 -3.1180882 -0.13611515
0.024883479 0.11038917 -0.26564673 -0.3017466 0.17146519 -0.055361778 1.8041254 -1.5793661
42.585007 -57.392273 -0.10688009 -1.0641068 -0.020553993 1.8695806 0.97250915 46.020073
56.20922 0.004663434 0.18703847 0.11405621 0.6270948 0.6489904 113.16302 -7.5119596
-0.52900344 2.7397661 -0.037053622 0.0026066303 -0.12814167 -0.019944191 0.05587119 -0.24037005
0.065799356 -0.067610055 2.4666245 -3.6737235 65.196724 -30.44045 1.5844667 0.8664169
0.0076418724 -2.3027716 -1.1768826 0.09427305 -0.36530632 0.42524853 -0.80236465 -1.206497

linear1.bias f4 [32]
00000000: 5d95 53be d868 0ac0 24ed d9be 2991 b4be
00000010: 7bcc babe 145f d0c0 4066 3bc0 be41 2cbe
00000020: 53cf bdbe 80be 04be 42db 86be 3e9b 22be
00000030: 8b83 9fbf 6438 c7bd 13a2 49be 0d9f adc0
00000040: 49cc c8be b4ff 15c0 8333 7e3f 0178 1540
00000050: 1400 a2be a779 c73e 71d3 13bf 3baa 19c0
00000060: 945e 03c0 9e14 08be 4342 e13e d328 20c0
00000070: 406c 563f ac87 babe e923 febf 18f7 02bf
-0.20662446 -2.1626492 -0.42563736 -0.35266998 -0.3648413 -6.511606 -2.9281158 -0.16821954
-0.37072238 -0.12963295 -0.26339155 -0.15879533 -1.2462019 -0.097275525 -0.19690733 -5.4256654
-0.39218357 -2.3437319 0.9929735 2.3354495 -0.31640685 0.3896 -0.5774451 -2.401015
-2.0526476 -0.13289115 0.43995866 -2.5024917 0.83758926 -0.36431634 -1.9854709 -0.51158285

linear2.weight f4 [32, 32]
00000000: 5eae 28be 4e41 4bbe 5d15 11be fa9f e13d
00000010: 6426 43bd f91f 41be 1bb3 e6bd 1adf 07bd
00000020: 247a 9e3c 7309 13be 33b9 933d c7d4 2dbe
00000030: 1e22 62bd 80cd 65bd 840a 29bd 5027 d8bd
00000040: c8b6 813c 44cf eabc 82b0 4fbe 2646 87be
00000050: 0178 85bd cd75 e9bd 16a9 34bd dc9c 91bc
00000060: ac39 6d3d 24f9 50bd a508 cfbd d401 0abe
00000070: 20cb 083b 3a5c cc3d c068 ca3b 11f7 fabd
00000080: fcfb 79be 0a56 86bd 1733 cbbd 9ec6 ed3d
00000090: 6345 c6bd 3cd6 45be aa8f 8ebe bec8 14be
000000a0: c08e a3ba 3883 72bd 6094 8abc 62dc 6b3d
000000b0: d20d 69bd 9252 47bd 40f2 d93c e2c7 1ebd
000000c0: 7244 69bd 7a01 a4bd 7a82 f3bd 4783 acbd
000000d0: 22cb 2cbd 4d98 38be 507e 673c ad42 84be
000000e0: 0c8c 963c 11f3 133e 56e9 67be e4b7 c3bd
000000f0: e096 7abe 942c 5dbd 70ba ea3b b4ce d9bc
00000100: fb5a e2bf aafb 3dc0 850f 293e fedf 9bbd
00000110: ddd8 bdbd a764 f6bf f982 2cc0 2069 f33c
00000120: a61c f43d fcf3 07be 303a efbd 5616 be3d
00000130: fd04 fcbf dfae bfc0 0c1d 89bd 33a3 ebbf
00000140: 2cd6 f7bd 1ce1 0040 e561 0ac0 c243 40c1
00000150: 2865 63be 74cf e4be bc1f 703d 3997 a9be
00000160: b792 6bc0 268a 8f3d 34b8 0cbe 0d01 e2be
00000170: d452 d3be a0ea 453d 51ac 7ec0 26aa b73d
00000180: d5b9 a43f b142 21c0 2f4c 09be c8b0 28bd
00000190: 3daa 203e 6770 dcbf cc72 9a40 fee6 45bd
000001a0: de2b 533d 008c 85bd 2d4f 88bd 00e3 32ba
000001b0: d6e6 debe 49ab b3bf 4e39 c93d d651 4140
000001c0: 8079 cdbc c634 a9bf 337f 36c1 1640 6bbe
000001d0: 6295 15be 0421 62c0 f027 8dbe fb9c d53f
000001e0: a8b7 903f 60f8 9d3b 0745 04bf 2bfc 53bf
000001f0: 8813 c3bf 9576 d7bd a0cf 983f ad8c 77c0
00000200: 3840 afbe ff37 d3c1 76f0 043f 6315 a7bd
00000210: 5e03 0e3e f67b 7fc0 bf77 2dc0 110d ed3d
00000220: ad6e 263e 8c2f e73c 287c e03d 4008 323d
00000230: 6635 e7be a1a0 8ac0 c255 373e 721a 2a40
00000240: b77b 21be c4bc 0c3f b893 72c1 44b0 a2bf
00000250: 8b77 b73e 9213 5c3f 9c95 913c d2f2 87bf
00000260: 354c dcc0 42b3 fa3d f075 443f 72cb 43c0
00000270: 632f aac0 45aa 2b3e 8abf 36c1 71d1 973f
00000280: a740 37c0 9d33 15c1 905b 343e 542a 3bbd
00000290: a023 a63d ae1c 9bbe b6c4 f6be 5b0d 103e
000002a0: 4612 2f3e 28c3 ac3c 8c2c a2bc df58 463e
000002b0: 059e e7bf 87b2 953e da35 473e 1329 eb3f
000002c0: 6d11 1d3e ffce 0840 3a6f 2fc0 f1d7 f43f
000002d0: f7d4 113e 14e6 08c1 9711 17bd 6d68 cec0
000002e0: ff08 b43f 118d 293e 86b6 6fc0 a6d3 b6c1
000002f0: 864d 7bc1 0f69 0d3e a41f 50c1 6adc 8e3e
00000300: 563c b8be 3816 bec0 bf3b 37be 5e1a 14be
00000310: ce68 b13d 4f1d c3be 96f9 41bf a66b 243e
00000320: b4b4 a43c 45f2 9a3d 2a3c 0dbe c8f2 863e
00000330: bbde 40c0 1492 aec0 a0c4 efbc c077 a4c0
00000340: dd12 dcbd f05b eac0 e18e adbf ca59 01c0
00000350: 7c53 04bd 5af5 5f40 7c53 56be 2e34 2cc0
00000360: f474 12be c0f2 f6bb d3b9 02c0 4b3d c5c0
00000370: 85d6 07c1 5328 1c3e 1f56 93c0 dfef 943f
00000380: 440c fcc0 7da7 10c0 00e5 5abc d0ee 4bbc
00000390: 655a 8e3c acfe 23c1 38ea 03c1 fdb6 fc3d
000003a0: 0032 193c 00be f53d aa80 f43d 8458 913d
000003b0: f0a5 b7c0 bfbc c3bf 16d9 9cbd c362 91bf
000003c0: e3e0 0d3e 965c 75c0 91e9 cc3e b942 97c1
000003d0: d805 83bc bb75 fdbf 3cc9 fa3d c59b dcbf
000003e0: 8751 95c0 a060 cebc a838 3940 0533 2cc1
000003f0: b437 7ec0 6021 b5bc 9443 d7bf fae0 19bd
-0.16472766 -0.1984913 -0.14168306 0.11016841 -0.047644034 -0.18859853 -0.112646304 -0.03317175
0.01934535 -0.14359073 0.07213058 -0.169757 -0.055208318 -0.056104183 -0.041269794 -0.10554373
0.015834227 -0.028663285 -0.20282176 -0.26420707 -0.065170296 -0.11399422 -0.044106565 -0.017774992
0.05791633 -0.05101885 -0.10109071 -0.1347726 0.0020873025 0.09978528 0.006177038 -0.122541554
-0.2441253 -0.065593794 -0.09921854 0.11610149 -0.09681203 -0.19320005 -0.27843982 -0.14529702
-0.0012478456 -0.05920717 -0.016916454 0.05758322 -0.056897946 -0.04866273 0.026604772 -0.03876484
-0.05695004 -0.08008094 -0.11890121 -0.08423477 -0.04218591 -0.18026848 0.014129236 -0.2583212
0.018377326 0.14448191 -0.22647604 -0.09556559 -0.24471617 -0.05399759 0.0071633384 -0.026587822
-1.7684015 -2.9684854 0.16509826 -0.076110825 -0.09269879 -1.9249467 -2.695494 0.029713213
0.11919527 -0.13276666 -0.1168102 0.09281604 -1.9689022 -5.9900966 -0.066949934 -1.840918
-0.12101397 2.0137396 -2.162225 -12.016542 -0.22206557 -0.44689524 0.058624014 -0.33123186
-3.6808298 0.070087716 -0.13742143 -0.44141427 -0.4127413 0.04831946 -3.9792674 0.08968
1.2869211 -2.5196955 -0.13407968 -0.041184217 0.15689941 -1.7221802 4.8265133 -0.048315994
0.051555507 -0.065208435 -0.066557266 -0.0006823987 -0.4353549 -1.4036647 0.09825383 3.0206199
-0.02508235 -1.321923 -11.4060545 -0.22973666 -0.14607766 -3.533265 -0.27569532 1.6688532
1.1306047 0.0048208684 -0.5166783 -0.8280665 -1.5240335 -0.105206646 1.1938362 -3.8679612
-0.34228683 -26.402342 0.51929414 -0.08158376 0.13868472 -3.991941 -2.7104337 0.11574758
0.16253157 0.028220914 0.10961181 0.0434649 -0.45157927 -4.332108 0.17903808 2.657864
-0.1576985 0.54975533 -15.161064 -1.2710042 0.35833392 0.8596736 0.017771535 -1.0620978
-6.8843026 0.12241222 0.7674246 -3.0592923 -5.3182845 0.16764171 -11.421762 1.1860791
-2.863321 -9.325101 0.17613053 -0.045694664 0.08112264 -0.30295318 -0.48196954 0.14067595
0.17096815 0.021089152 -0.019796632 0.19369839 -1.8095099 0.29237768 0.19454136 1.837191
0.15338679 2.137634 -2.7411637 1.91284 0.14241396 -8.556171 -0.03688201 -6.4502473
1.4065245 0.16557719 -3.7455153 -22.853344 -15.706427 0.13809608 -13.007725 0.27902538
-0.35983533 -5.9402122 -0.17893885 -0.14463183 0.08662568 -0.38108298 -0.7577146 0.1605669
0.020105697 0.075657405 -0.13792482 0.26357102 -3.0135944 -5.455332 -0.029268563 -5.139618
-0.107457854 -7.323723 -1.3559228 -2.0211053 -0.03230618 3.49935 -0.20930284 -2.6906848
-0.14302427 -0.0075362623 -2.0425918 -6.163732 -8.489873 0.15249757 -4.604263 1.1635703
-7.8764973 -2.2602227 -0.013360262 -0.012447074 0.017377088 -10.249676 -8.244682 0.1233959
0.0093503 0.1199913 0.11938603 0.07096961 -5.739006 -1.5291976 -0.07658593 -1.1358265
0.13855319 -3.833776 0.40021947 -18.90758 -0.015993997 -1.9801553 0.12245414 -1.7235037
-4.666202 -0.025192559 2.894083 -10.762456 -3.9721498 -0.022110641 -1.6817498 -0.03756807

linear2.bias f4 [32]
00000000: 3ec6 3bbe 1e4f 10be c138 79c0 29fd ff3f
00000010: a945 88c0 f012 a7c0 a977 0dc0 8268 9ac0
00000020: e9ea c7be 772e c5be ff31 8ebd 92e2 35c0
00000030: 441e e9bf 146e 5c40 881e 86be ce40 55bf
00000040: ca20 8bc0 a4c3 41c0 0a83 01c0 3383 0540
00000050: 9775 a1c0 e6da 55c0 5d80 cebe 7fad 31c0
00000060: a962 b0c0 32e7 51bf 6b69 95bd d267 babe
00000070: 8657 10c0 6235 a3be bdd1 52bf 3ef6 1e3e
-0.18337342 -0.14092681 -3.894089 1.9999133 -4.2585034 -5.2210617 -2.2104285 -4.8252573
-0.3904641 -0.38512012 -0.0694313 -2.8419538 -1.8212361 3.4442186 -0.26195168 -0.8330201
-4.3477526 -3.027566 -2.023623 2.0861328 -5.045604 -3.3414855 -0.40332308 -2.7762144
-5.5120435 -0.819934 -0.072954975 -0.36407334 -2.255342 -0.31876665 -0.82351285 0.15523621

output.weight f4 [3, 32]
00000000: 5674 143d b2cb 233d 4f0f 0c3e c521 a6be
00000010: d1d6 e6be 0fb9 da3f e020 073e 647b 273e
00000020: 30c8 7bbd 440d 683d 14a8 93bc 626d 8fbe
00000030: 7487 48be 12ed 3dbf ccf0 61ba b625 a6be
00000040: 535f 13bf 3024 b13c c08f 7c3e 696a 3f3e
00000050: 2d94 2a40 8c0e 89be 733a 123d f82b 623f
00000060: 6127 2540 80a9 cebc ec03 6b3d e806 f03c
00000070: 185e 03bf 80b9 673c e02b 30bc a66d a5bd
00000080: 946a d2bc 7fad 87bd 1ce1 5b3e 28c4 bbbe
00000090: aef2 c7bd a4ce d73f b0fb 293d 0c26 4b3e
000000a0: 9ef3 adbd 3ac0 77bd 9e89 4ebe 3036 8a3c
000000b0: 7400 893c 24f7 39bf 9ebe 843d 5e4a 55be
000000c0: 9def 14bf 231d c33e 20ab 0e3e d470 283e
000000d0: 6000 8bbf e2dc 623d b8ea bb3c de01 49be
000000e0: 7ef0 5c3f e12f a63d 84c8 f9bd c028 2c3e
000000f0: 03fb 05bf 67af 1e3e 3acb 553d 10ad 19bc
00000100: 08a6 eb3c ab94 06be b975 5f3e d4d4 c9be
00000110: 8e46 7abe 93eb da3f b328 f03d ab17 3e3e
00000120: beb7 493d 4f5d 143e 04c0 7dbd 8c19 c8bd
00000130: 167a 323f affb 3bbf 601a 683b d944 9b3e
00000140: 9872 16bf 4227 9abd 7061 863b 34fb 5f3e
00000150: aaff bcbe d2a0 d6bc 9611 233d 3702 ea3d
00000160: dfab 9b3e 8010 7fbb e332 923d 74c6 bc3d
00000170: 3e17 403e 9391 abbd 5731 ec3d 90e3 c03c
0.03624376 0.03998918 0.13677715 -0.3244764 -0.45085767 1.7087725 0.13196135 0.16355664
-0.06147021 0.056653276 -0.018024482 -0.2801314 -0.19582921 -0.74189866 -0.00086189504 -0.32450646
-0.5756733 0.0216237 0.24664211 0.18692936 2.665294 -0.2676891 0.035700273 0.8834834
2.5805285 -0.025227308 0.057376787 0.029300168 -0.5131545 0.014143348 -0.010752648 -0.080775544
-0.025685586 -0.06624889 0.21472591 -0.36673093 -0.09763084 1.6859937 0.041499794 0.19838732
-0.08493732 -0.060486056 -0.20169684 0.016871542 0.016723849 -0.7264273 0.0648167 -0.2082915
-0.5817812 0.38108167 0.13932467 0.1644929 -1.085949 0.05538643 0.022939071 -0.19629619
0.8630446 0.08114601 -0.121964484 0.1681242 -0.5233614 0.15496598 0.052195765 -0.00937964
0.028765693 -0.1314265 0.21822251 -0.39420187 -0.24440977 1.7103142 0.11726513 0.18563716
0.049247496 0.1448872 -0.0619507 -0.09770498 0.6971754 -0.73430914 0.0035416111 0.30325964
-0.58768606 -0.07527019 0.004100971 0.2187317 -0.36913806 -0.026199732 0.039811693 0.11426204
0.30404565 -0.0038919747 0.07138612 0.092175394 0.18758866 -0.083773755 0.11532848 0.02354601

output.bias f4 [3]
00000000: 6481 12bf 9a85 15bf 32cb 19bf
-0.57228684 -0.58406985 -0.60075676

square_avg f4 [32, 7]
00000000: cba1 2e3b 0f3d 4d3b ec96 3838 0bd8 7338
00000010: 615a 713a f3c9 f037 89bc 0b3e 148f 1338
00000020: 5ca1 9838 1798 3737 f227 4637 92be 0139
00000030: 3d90 4f37 bee1 c93c 3200 0000 3200 0000
00000040: 3200 0000 3200 0000 3200 0000 3200 0000
00000050: 3200 0000 0000 0000 0000 0000 0000 0000
00000060: 0000 0000 0000 0000 0000 0000 0000 0000
00000070: 3200 0000 3200 0000 3200 0000 3200 0000
00000080: 3200 0000 3200 0000 3200 0000 3200 0000
00000090: 3200 0000 3200 0000 3200 0000 3200 0000
000000a0: 3200 0000 3200 0000 4683 0e38 1e6b 6c37
000000b0: 02dc 1a35 4264 7535 4776 a437 23ba 7735
000000c0: 1731 4837 3200 0000 3200 0000 3200 0000
000000d0: 3200 0000 3200 0000 3200 0000 3200 0000
000000e0: 3200 0000 3200 0000 3200 0000 3200 0000
000000f0: 3200 0000 3200 0000 3200 0000 3200 0000
00000100: 3200 0000 3200 0000 3200 0000 3200 0000
00000110: 3200 0000 3200 0000 3200 0000 3200 0000
00000120: 3200 0000 3200 0000 3200 0000 3200 0000
00000130: 0000 0000 3200 0000 3200 0000 3200 0000
00000140: 3200 0000 0000 0000 3200 0000 3200 0000
00000150: da6f d137 d50a 0b38 122d 8b33 e068 0733
00000160: f407 2636 02d9 7234 7d71 6937 0302 6838
00000170: 92e5 0739 9c1c 3b35 3614 b634 6e8d 6c38
00000180: 651f 9135 3200 0000 3200 0000 3200 0000
00000190: 3200 0000 3200 0000 3200 0000 3200 0000
000001a0: 3200 0000 3200 0000 3200 0000 3200 0000
000001b0: 3200 0000 3200 0000 3200 0000 3200 0000
000001c0: 3200 0000 3200 0000 3200 0000 3200 0000
000001d0: 3200 0000 0000 0000 3200 0000 4974 fb3a
000001e0: a152 323b c588 bb37 d5e5 d436 8e03 613a
000001f0: d0bf 8237 5ac9 4f3d e63a fe39 d117 cb39
00000200: b854 9f36 b577 ea35 9739 2639 5c84 9536
00000210: 31fd 4f3c 2715 933b cd94 ea3b 7c53 9738
00000220: 5df6 5138 ad64 253b 5a14 0c38 3e35 813e
00000230: 3200 0000 3200 0000 3200 0000 3200 0000
00000240: 3200 0000 3200 0000 3200 0000 aa68 f03b
00000250: 1ce7 903c 659d 4f39 d89f 5f38 846e 7e3b
00000260: f3eb 4839 f214 6f3e 3200 0000 3200 0000
00000270: 3200 0000 3200 0000 3200 0000 3200 0000
00000280: 3200 0000 8905 db39 7d84 083a 28c3 8236
00000290: 1d66 a336 f1b2 0a3a abe8 db36 0575 cb3a
000002a0: 3200 0000 3200 0000 3200 0000 3200 0000
000002b0: 3200 0000 3200 0000 3200 0000 0000 0000
000002c0: 0000 0000 0000 0000 0000 0000 0000 0000
000002d0: 0000 0000 0000 0000 7789 403a 2756 593a
000002e0: 550b 2637 258d 5b37 f220 9c39 e562 d036
000002f0: 1168 113d dde5 323c d63b 813c 2194 0939
00000300: 97ba 3639 2f24 453c 7a23 5739 50ad 383e
00000310: 3723 b936 1469 2f37 8d0c 2a32 ebc3 c533
00000320: eece 9536 2257 1e34 fd51 c139 0000 0000
00000330: 0000 0000 0000 0000 0000 0000 0000 0000
00000340: 0000 0000 0000 0000 f84a 6638 cf30 f835
00000350: b7fc b634 9983 ff35 97bc 5b39 8131 8235
00000360: 70ed 223b 3200 0000 3200 0000 3200 0000
00000370: 3200 0000 3200 0000 3200 0000 3200 0000
0.002664673 0.0031316911 4.4009576e-05 5.813692e-05 0.0009206888 2.870427e-05 0.13646139 3.5180783e-05
7.27798e-05 1.0943061e-05 1.181102e-05 0.00012373392 1.2371745e-05 0.024643775 7e-44 7e-44
7e-44 7e-44 7e-44 7e-44 7e-44 0.0 0.0 0.0
0.0 0.0 0.0 0.0 7e-44 7e-44 7e-44 7e-44
7e-44 7e-44 7e-44 7e-44 7e-44 7e-44 7e-44 7e-44
7e-44 7e-44 3.3977696e-05 1.4091636e-05 5.7689624e-07 9.1415507e-07 1.96054e-05 9.2285535e-07
1.1932359e-05 7e-44 7e-44 7e-44 7e-44 7e-44 7e-44 7e-44
7e-44 7e-44 7e-44 7e-44 7e-44 7e-44 7e-44 7e-44
7e-44 7e-44 7e-44 7e-44 7e-44 7e-44 7e-44 7e-44
7e-44 7e-44 7e-44 7e-44 0.0 7e-44 7e-44 7e-44
7e-44 0.0 7e-44 7e-44 2.4966826e-05 3.315027e-05 6.48089e-08 3.152752e-08
2.4740557e-06 2.2616953e-07 1.3914306e-05 5.5314984e-05 0.00012960125 6.970456e-07 3.3914847e-07 5.63985e-05
1.0812479e-06 7e-44 7e-44 7e-44 7e-44 7e-44 7e-44 7e-44
7e-44 7e-44 7e-44 7e-44 7e-44 7e-44 7e-44 7e-44
7e-44 7e-44 7e-44 7e-44 7e-44 0.0 7e-44 0.0019184436
0.0027209895 2.2355825e-05 6.3448483e-06 0.00085835985 1.5586527e-05 0.050729133 0.00048490538 0.00038736922
4.748432e-06 1.7469198e-06 0.00015852448 4.4559547e-06 0.012694643 0.0044886055 0.0071588517 7.215791e-05
5.0058927e-05 0.002523701 3.3397555e-05 0.25235933 7e-44 7e-44 7e-44 7e-44
7e-44 7e-44 7e-44 0.0073366957 0.017688327 0.00019799692 5.331621e-05 0.0038823197
0.00019161384 0.23347834 7e-44 7e-44 7e-44 7e-44 7e-44 7e-44
7e-44 0.0004177506 0.00052077306 3.897021e-06 4.869666e-06 0.00052909466 6.5537947e-06 0.0015522545
7e-44 7e-44 7e-44 7e-44 7e-44 7e-44 7e-44 0.0
0.0 0.0 0.0 0.0 0.0 0.0 0.00073447026 0.0008290731
9.8970095e-06 1.308628e-05 0.00029779185 6.210396e-06 0.035499636 0.0109190615 0.015775602 0.0001312052
0.00017426383 0.012032553 0.00020517214 0.18034863 5.517529e-06 1.0455278e-05 9.898156e-09 9.2091646e-08
4.464636e-06 1.4746595e-07 0.00036872915 0.0 0.0 0.0 0.0 0.0
0.0 0.0 5.4906093e-05 1.8491645e-06 3.4084016e-07 1.903728e-06 0.00020955723 9.700162e-07
0.0024860762 7e-44 7e-44 7e-44 7e-44 7e-44 7e-44 7e-44

square_avg f4 [32]
00000000: 4a45 493c 45d5 fd3a 3200 0000 0000 0000
00000010: 3200 0000 3200 0000 6fb0 0039 3200 0000
00000020: 3200 0000 3200 0000 3200 0000 3200 0000
00000030: 8512 2c38 3fe1 7339 3200 0000 3200 0000
00000040: 3200 0000 461f c73b 7a0c 883a f400 bd3c
00000050: 3200 0000 0a37 193d 3200 0000 6036 8a3a
00000060: 3200 0000 0000 0000 0b30 513b 5c3d 343d
00000070: f07d 7737 0000 0000 c10d 8b39 3200 0000
0.012284586 0.0019365927 7e-44 0.0 7e-44 7e-44 0.00012272758 7e-44
7e-44 7e-44 7e-44 7e-44 4.1025243e-05 0.00023258197 7e-44 7e-44
7e-44 0.006076726 0.0010379695 0.023071744 7e-44 0.037406005 7e-44 0.001054477
7e-44 0.0 0.0031919505 0.04400383 1.4751669e-05 0.0 0.00026522393 7e-44

square_avg f4 [32, 32]
00000000: 3200 0000 3200 0000 3200 0000 0000 0000
00000010: 3200 0000 3200 0000 3200 0000 3200 0000
00000020: 3200 0000 0000 0000 3200 0000 0000 0000
00000030: 3200 0000 3200 0000 0000 0000 3200 0000
00000040: 0000 0000 3200 0000 3200 0000 3200 0000
00000050: 3200 0000 3200 0000 3200 0000 3200 0000
00000060: 3200 0000 0000 0000 3200 0000 3200 0000
00000070: 3200 0000 0000 0000 3200 0000 3200 0000
00000080: 3200 0000 3200 0000 3200 0000 0000 0000
00000090: 3200 0000 3200 0000 3200 0000 3200 0000
000000a0: 3200 0000 3200 0000 3200 0000 3200 0000
000000b0: 3200 0000 3200 0000 3200 0000 3200 0000
000000c0: 0000 0000 3200 0000 3200 0000 3200 0000
000000d0: 3200 0000 3200 0000 3200 0000 3200 0000
000000e0: 3200 0000 0000 0000 3200 0000 3200 0000
000000f0: 3200 0000 0000 0000 3200 0000 3200 0000
00000100: 3200 0000 3200 0000 0000 0000 0000 0000
00000110: 0000 0000 3200 0000 3200 0000 0000 0000
00000120: 0000 0000 0000 0000 0000 0000 0000 0000
00000130: 3200 0000 3200 0000 0000 0000 3200 0000
00000140: 0000 0000 3200 0000 3200 0000 3200 0000
00000150: 3200 0000 3200 0000 0000 0000 3200 0000
00000160: 3200 0000 0000 0000 3200 0000 3200 0000
00000170: 3200 0000 0000 0000 3200 0000 0000 0000
00000180: 3200 0000 3200 0000 3200 0000 0000 0000
00000190: 3200 0000 3200 0000 3200 0000 3200 0000
000001a0: 3200 0000 3200 0000 3200 0000 3200 0000
000001b0: 35bd 2732 3200 0000 3200 0000 3200 0000
000001c0: 3200 0000 3b2e 3235 39c9 b430 98f0 2238
000001d0: 3200 0000 1ec7 2732 3200 0000 b231 ca33
000001e0: 3200 0000 0000 0000 e35a 7c31 5d0c 5035
000001f0: cc11 ac32 0000 0000 3028 bb2f 3200 0000
00000200: 3200 0000 3200 0000 3200 0000 0000 0000
00000210: 3200 0000 3200 0000 3200 0000 3200 0000
00000220: 3200 0000 3200 0000 3200 0000 3200 0000
00000230: 3200 0000 3200 0000 3200 0000 3200 0000
00000240: 0000 0000 3200 0000 3200 0000 3200 0000
00000250: 3200 0000 3200 0000 3200 0000 3200 0000
00000260: 3200 0000 0000 0000 3200 0000 3200 0000
00000270: 3200 0000 0000 0000 3200 0000 3200 0000
00000280: 2a33 cc2f 3200 0000 3200 0000 0000 0000
00000290: 3200 0000 3200 0000 3200 0000 3200 0000
000002a0: 3200 0000 3200 0000 3200 0000 3200 0000
000002b0: e970 c036 c29c 4739 3200 0000 3200 0000
000002c0: 0000 0000 eac9 143c a179 6a38 9931 cb3c
000002d0: 3200 0000 2252 9c39 3200 0000 4123 ae36
000002e0: 3200 0000 0000 0000 3200 0000 0347 3136
000002f0: 3200 0000 0000 0000 3200 0000 3200 0000
00000300: 3200 0000 3200 0000 3200 0000 0000 0000
00000310: 3200 0000 3200 0000 3200 0000 3200 0000
00000320: 3200 0000 3200 0000 0000 0000 3200 0000
00000330: 3200 0000 3200 0000 3200 0000 3200 0000
00000340: 0000 0000 3200 0000 3200 0000 3200 0000
00000350: 3200 0000 3200 0000 3200 0000 3200 0000
00000360: 3200 0000 0000 0000 3200 0000 3200 0000
00000370: 3200 0000 0000 0000 3200 0000 3200 0000
00000380: 5418 5030 3200 0000 0000 0000 0000 0000
00000390: 3200 0000 3200 0000 3200 0000 3200 0000
000003a0: 3200 0000 3200 0000 0000 0000 3200 0000
000003b0: 3200 0000 3200 0000 3200 0000 3200 0000
000003c0: 0000 0000 3200 0000 e26d b933 dd30 0d2e
000003d0: 3200 0000 3200 0000 3200 0000 3200 0000
000003e0: 3200 0000 0000 0000 7ca9 5833 3200 0000
000003f0: 3200 0000 0000 0000 8686 102b 3200 0000
7e-44 7e-44 7e-44 0.0 7e-44 7e-44 7e-44 7e-44
7e-44 0.0 7e-44 0.0 7e-44 7e-44 0.0 7e-44
0.0 7e-44 7e-44 7e-44 7e-44 7e-44 7e-44 7e-44
7e-44 0.0 7e-44 7e-44 7e-44 0.0 7e-44 7e-44
7e-44 7e-44 7e-44 0.0 7e-44 7e-44 7e-44 7e-44
7e-44 7e-44 7e-44 7e-44 7e-44 7e-44 7e-44 7e-44
0.0 7e-44 7e-44 7e-44 7e-44 7e-44 7e-44 7e-44
7e-44 0.0 7e-44 7e-44 7e-44 0.0 7e-44 7e-44
7e-44 7e-44 0.0 0.0 0.0 7e-44 7e-44 0.0
0.0 0.0 0.0 0.0 7e-44 7e-44 0.0 7e-44
0.0 7e-44 7e-44 7e-44 7e-44 7e-44 0.0 7e-44
7e-44 0.0 7e-44 7e-44 7e-44 0.0 7e-44 0.0
7e-44 7e-44 7e-44 0.0 7e-44 7e-44 7e-44 7e-44
7e-44 7e-44 7e-44 7e-44 9.7637e-09 7e-44 7e-44 7e-44
7e-44 6.637744e-07 1.3153915e-09 3.884788e-05 7e-44 9.765953e-09 7e-44 9.4153975e-08
7e-44 0.0 3.672249e-09 7.750403e-07 2.0031528e-08 0.0 3.4043657e-10 7e-44
7e-44 7e-44 7e-44 0.0 7e-44 7e-44 7e-44 7e-44
7e-44 7e-44 7e-44 7e-44 7e-44 7e-44 7e-44 7e-44
0.0 7e-44 7e-44 7e-44 7e-44 7e-44 7e-44 7e-44
7e-44 0.0 7e-44 7e-44 7e-44 0.0 7e-44 7e-44
3.7143738e-10 7e-44 7e-44 0.0 7e-44 7e-44 7e-44 7e-44
7e-44 7e-44 7e-44 7e-44 5.7351904e-06 0.00019036516 7e-44 7e-44
0.0 0.009081343 5.5903223e-05 0.024803923 7e-44 0.00029815832 7e-44 5.189708e-06
7e-44 0.0 7e-44 2.641639e-06 7e-44 0.0 7e-44 7e-44
7e-44 7e-44 7e-44 0.0 7e-44 7e-44 7e-44 7e-44
7e-44 7e-44 0.0 7e-44 7e-44 7e-44 7e-44 7e-44
0.0 7e-44 7e-44 7e-44 7e-44 7e-44 7e-44 7e-44
7e-44 0.0 7e-44 7e-44 7e-44 0.0 7e-44 7e-44
7.570453e-10 7e-44 0.0 0.0 7e-44 7e-44 7e-44 7e-44
7e-44 7e-44 0.0 7e-44 7e-44 7e-44 7e-44 7e-44
0.0 7e-44 8.6347214e-08 3.2103088e-11 7e-44 7e-44 7e-44 7e-44
7e-44 0.0 5.0445564e-08 7e-44 7e-44 0.0 5.1345766e-13 7e-44

square_avg f4 [32]
00000000: 3200 0000 3200 0000 3200 0000 7ec5 d836
00000010: 3200 0000 1662 9a3a 3200 0000 7981 ec31
00000020: 3200 0000 3200 0000 3200 0000 3200 0000
00000030: 3200 0000 b299 123a 3200 0000 3200 0000
00000040: dd14 d13a 3200 0000 3200 0000 63c6 c634
00000050: 3200 0000 3200 0000 3200 0000 3200 0000
00000060: 3200 0000 3200 0000 3200 0000 3200 0000
00000070: 3200 0000 3200 0000 3200 0000 3200 0000
7e-44 7e-44 7e-44 6.4602928e-06 7e-44 0.00117785 7e-44 6.8832233e-09
7e-44 7e-44 7e-44 7e-44 7e-44 0.00055923604 7e-44 7e-44
0.0015951652 7e-44 7e-44 3.702472e-07 7e-44 7e-44 7e-44 7e-44
7e-44 7e-44 7e-44 7e-44 7e-44 7e-44 7e-44 7e-44

square_avg f4 [3, 32]
00000000: 3200 0000 3200 0000 3200 0000 fb79 2637
00000010: 3200 0000 625c 9a3b 3200 0000 facf 1f35
00000020: 3200 0000 3200 0000 3200 0000 3200 0000
00000030: 3200 0000 0fd3 823c 3200 0000 3200 0000
00000040: 51a1 023e 3200 0000 3200 0000 d007 2e34
00000050: 3200 0000 3200 0000 3200 0000 3200 0000
00000060: 3200 0000 3200 0000 3200 0000 3200 0000
00000070: 3200 0000 0000 0000 3200 0000 3200 0000
00000080: 3200 0000 3200 0000 3200 0000 a5e2 a837
00000090: 3200 0000 420b 923b 3200 0000 2636 cb34
000000a0: 3200 0000 3200 0000 3200 0000 3200 0000
000000b0: 3200 0000 0489 bd3c 3200 0000 3200 0000
000000c0: 6c2c da3d 3200 0000 3200 0000 a456 fd35
000000d0: 3200 0000 3200 0000 3200 0000 3200 0000
000000e0: 3200 0000 3200 0000 3200 0000 3200 0000
000000f0: 3200 0000 0000 0000 3200 0000 3200 0000
00000100: 0000 0000 0000 0000 3200 0000 ed9d 1c37
00000110: 3200 0000 ba23 cf3a 3200 0000 457c 3835
00000120: 3200 0000 3200 0000 3200 0000 3200 0000
00000130: 3200 0000 ad0f 853c 3200 0000 3200 0000
00000140: 562d 0f3d 3200 0000 3200 0000 8fc8 d835
00000150: 3200 0000 3200 0000 3200 0000 3200 0000
00000160: 3200 0000 3200 0000 3200 0000 3200 0000
00000170: 3200 0000 3200 0000 3200 0000 3200 0000
7e-44 7e-44 7e-44 9.922772e-06 7e-44 0.00471072 7e-44 5.953476e-07
7e-44 7e-44 7e-44 7e-44 7e-44 0.015969781 7e-44 7e-44
0.1275685 7e-44 7e-44 1.6207855e-07 7e-44 7e-44 7e-44 7e-44
7e-44 7e-44 7e-44 7e-44 7e-44 0.0 7e-44 7e-44
7e-44 7e-44 7e-44 2.01327e-05 7e-44 0.0044569084 7e-44 3.7851095e-07
7e-44 7e-44 7e-44 7e-44 7e-44 0.023136623 7e-44 7e-44
0.10653004 7e-44 7e-44 1.8875185e-06 7e-44 7e-44 7e-44 7e-44
7e-44 7e-44 7e-44 7e-44 7e-44 0.0 7e-44 7e-44
0.0 0.0 7e-44 9.335095e-06 7e-44 0.0015803494 7e-44 6.872618e-07
7e-44 7e-44 7e-44 7e-44 7e-44 0.016242826 7e-44 7e-44
0.034955345 7e-44 7e-44 1.6151624e-06 7e-44 7e-44 7e-44 7e-44
7e-44 7e-44 7e-44 7e-44 7e-44 7e-44 7e-44 7e-44

square_avg f4 [3]
00000000: 645c 9b3a 207b 933a a400 053a
0.0011853096 0.0011251904 0.0005073643
