train1t.pt (torch_old, 13284 bytes, 12 tensors)

linear1.weight f4 [32, 7]
000000 ce ec 13 c0 99 9a 11 c0 e4 c2 2f c1 9e fa 3b c2
       -2.3113284 -2.275061 -10.985081 -46.994743
000010 0f 02 42 3e 83 4b aa bf 86 6f cd bd 88 86 16 bf
       0.18946098 -1.3304294 -0.10031037 -0.5879903
000020 2d 99 c0 bf a1 3a 73 c1 f9 34 73 c2 9b 21 c8 bf
       -1.5046746 -15.201814 -60.80173 -1.5635256
000030 17 85 57 40 ba d8 d8 be d0 f8 2c 3b 3b 68 96 3d
       3.3674982 -0.4235285 0.002639342 0.07344099
000040 1e 38 ae 3d e8 f2 76 be ae f9 9d 3e a3 c6 81 3e
       0.08506797 -0.24116099 0.30854553 0.2534686
000050 a0 65 d2 be 8e 35 33 3e 81 83 85 be e0 26 f0 3c
       -0.4109316 0.17500898 -0.26076892 0.029315412
000060 d8 30 f4 bd d7 88 b0 be 6d cc bd 3e 36 18 37 be
       -0.11923379 -0.344794 0.37070027 -0.1788033
000070 62 ff 33 3e 7d 24 5a be 9b 35 3a be 20 94 7c 3c
       0.1757789 -0.21302982 -0.18184511 0.015416175
000080 50 37 18 3d 12 6a 00 3f d4 94 4a bd b6 c8 8f 40
       0.037162125 0.5016185 -0.04945834 4.493251
000090 07 71 db c0 78 41 5e 41 85 e8 d3 40 4d f4 20 40
       -6.8575473 13.890984 6.6221337 2.514911
0000a0 62 fe 12 41 ec 6d 51 c0 a0 f5 22 40 80 d4 ee bf
       9.187105 -3.272334 2.5462418 -1.86586
0000b0 56 b7 eb c1 8a d7 a5 c1 19 2f 96 be 09 4b c2 3f
       -29.46452 -20.730244 -0.29332808 1.5179149
0000c0 a4 a3 a8 bf 97 f2 99 bd 6a 51 18 bf 20 8e 58 bc
       -1.3174939 -0.075169735 -0.5949923 -0.013217479
0000d0 d4 0c 28 be e2 06 fb 3d 6e 75 00 be c7 ad e4 bd
       -0.16411144 0.12257172 -0.12544796 -0.11165958
0000e0 11 31 4c 3e 9c 73 ca 3c 4f 7d a4 be 8d c6 be bd
       0.19940592 0.02471333 -0.32126853 -0.09315214
0000f0 c5 c0 f4 be 6a 7b c2 3e 2d df 60 be 27 40 e8 be
       -0.4780332 0.37984782 -0.21960135 -0.45361444
000100 68 dc 90 be 08 48 30 bd 14 3a c3 bd c0 c6 27 bc
       -0.28293157 -0.043037444 -0.09532562 -0.010240257
000110 38 36 a5 bc 2e bd f0 bd dc 98 3b bd db a7 f4 be
       -0.020167455 -0.11754833 -0.045800075 -0.47784314
000120 fb 93 5b be 75 59 ce be 33 95 0a 3e 77 1c e1 3e
       -0.21443169 -0.40302625 0.13533477 0.4396703
000130 c3 16 41 be e6 d0 21 be a2 96 24 be 75 bb 16 be
       -0.18856339 -0.15802345 -0.16073087 -0.14719947
000140 d5 13 60 be 18 de 11 3d bc 25 aa 3e 30 30 25 bd
       -0.21882565 0.035612196 0.33231914 -0.04032916
000150 8d ce 49 40 cb d6 de 3f 0a a4 32 42 67 6e 8a c0
       3.1532319 1.74093 44.660194 -4.325977
000160 fe bf 4a bd a4 e1 4a 3f 4d 08 8b bf d3 5d b7 3f
       -0.049499504 0.7925055 -1.0861908 1.4325508
000170 47 38 84 3f f8 c8 74 bf de 2d 24 41 2d 78 92 3e
       1.0329674 -0.95619154 10.261198 0.28607312
000180 b3 18 b9 3f 38 02 95 c0 9d e2 b1 3d b2 97 ae be
       1.4460663 -4.656521 0.08685801 -0.3410011
000190 95 e6 ab bd 93 97 df 3d 18 2c 06 3d 46 52 d0 3e
       -0.083935894 0.10917582 0.032756895 0.4068777
0001a0 c4 13 7a bd 29 d9 2b 40 ec 5b 33 3e 67 9c b0 c1
       -0.061054006 2.6851294 0.17515534 -22.076368
0001b0 ba 62 b8 40 79 da 46 c0 72 4e fb be 6f 66 0c c0
       5.7620516 -3.1070845 -0.49083287 -2.193752
0001c0 29 8c 9c be 3f 07 0c 3e 40 66 ab 3e 74 51 47 3d
       -0.30575684 0.13674639 0.33476448 0.048661664
0001d0 c6 6e 53 3e de b8 99 be 7a a5 6b be 73 9c 98 be
       0.20647725 -0.30023855 -0.23012343 -0.2980686
0001e0 07 56 01 40 64 0f 57 c2 39 8e 20 42 48 0d c0 3d
       2.0208757 -53.76503 40.13889 0.09377533
0001f0 87 bf 54 3f 61 d8 a6 be 34 e7 74 bf 37 69 29 c0
       0.8310475 -0.3258696 -0.9566529 -2.6470468
000200 cf 59 5d c1 aa e7 76 c2 07 a4 28 3e 4a e9 fa be
       -13.834426 -61.726234 0.16468821 -0.4900611
000210 cb 5f 3a 3e 43 98 41 c0 cf 6f 24 3f c1 e3 66 c2
       0.18200605 -3.0249183 0.64233106 -57.722416
000220 43 4e 5f 41 f4 da 20 bd 21 15 85 3e ec 12 70 be
       13.956607 -0.03927131 0.25992683 -0.23444718
000230 d5 ac da c0 ac 31 98 3d 29 88 7a 3f ca c3 ac bf
       -6.8335977 0.07431349 0.97864014 -1.349725
000240 ca 73 86 bf f3 1f 24 3f 32 01 a7 be c4 3f 58 bf
       -1.0504086 0.6411125 -0.326181 -0.844723
000250 08 36 b9 3e 50 04 76 c1 31 63 fd c1 83 15 af 3e
       0.36174035 -15.376053 -31.673433 0.341961
000260 36 a0 82 3f 45 3e 05 be 47 dc d2 bf c1 50 93 3e
       1.0205142 -0.13012035 -1.6473473 0.28772548
000270 3e b1 3e 3e 66 6b cf bf 99 9b 14 bf 65 ca ee 3e
       0.186223 -1.620465 -0.58049923 0.4663879
000280 ac de 65 be f0 49 00 40 71 c9 f7 3f ca 6a 85 41
       -0.22448224 2.0045128 1.935835 16.677143
000290 83 a6 55 42 df 3f 2b be ea 83 d4 3e 33 7e 2c be
       53.41261 -0.16723584 0.41506892 -0.16845016
0002a0 62 b2 5a bf 0f ae b1 3f 56 17 ac c0 b8 70 3c 40
       -0.8542844 1.3881243 -5.3778486 2.9443798
0002b0 e6 c2 81 c0 22 96 ed 40 c2 8e 47 c0 c5 61 0b be
       -4.0550413 7.4245768 -3.1180882 -0.13611515
0002c0 70 d8 cb 3c b8 13 e2 3d d9 02 88 be 88 7e 9a be
       0.024883479 0.11038917 -0.26564673 -0.3017466
0002d0 92 94 2f 3e 08 c3 62 bd ca 1e d0 3f db 7e eb bf
       0.17146519 -0.055361778 1.6259396 -1.8398088
0002e0 21 df 15 42 d3 b9 6b c2 83 51 18 3e 40 25 7d be
       37.4679 -58.93147 0.14874844 -0.24721241
0002f0 89 4b 3e 3d fd d2 0a 40 7a 85 7a 3f dd fb 32 42
       0.046458755 2.1691277 0.9785992 44.74596
000300 76 1a 5b 42 c2 df 6e 3d fe a9 53 3e 60 7b 02 3d
       54.77584 0.05831886 0.20670316 0.03185594
000310 5d 1c 45 3f 4c 0d 64 3f 44 93 e0 42 d1 5d 06 c1
       0.76996404 0.8908279 112.28763 -8.397904
000320 d6 e0 07 bf ce a9 4e 40 88 10 18 ba 00 d4 2a 3b
       -0.5307745 3.229114 -0.0005800803 0.0026066303
000330 92 37 03 be 00 62 a3 bc 30 d9 64 3d 91 23 76 be
       -0.12814167 -0.019944191 0.05587119 -0.24037005
000340 d0 c1 86 3d 24 77 8a bd 16 de 2f 40 b5 e1 dc c0
       0.065799356 -0.067610055 2.74793 -6.902552
000350 bd 0f 84 42 21 2d af c1 8e 88 2d 40 df 11 75 c0
       66.03074 -21.897036 2.7114596 -3.8292158
000360 89 75 3c be 9c 60 13 c0 17 a4 96 bf 3b 12 c1 3d
       -0.18404211 -2.3027716 -1.1768826 0.09427305
000370 6e 09 bb be 2d ba d9 3e c5 67 4d bf 7e 6e 9a bf
       -0.36530632 0.42524853 -0.80236465 -1.206497

linear1.bias f4 [32]
000000 74 2e 1d 3e a6 78 d1 3e 24 ed d9 be 29 91 b4 be
       0.15349752 0.4091236 -0.42563736 -0.35266998
000010 7b cc ba be 53 c3 c3 c0 7e 98 67 c0 be 41 2c be
       -0.3648413 -6.1175933 -3.6186824 -0.16821954
000020 53 cf bd be 80 be 04 be 42 db 86 be 3e 9b 22 be
       -0.37072238 -0.12963295 -0.26339155 -0.15879533
000030 82 e3 06 c0 c5 7d 65 3e 13 a2 49 be 0d 9f ad c0
       -2.107636 0.22411259 -0.19690733 -5.4256654
000040 49 cc c8 be 1d 2f 1c c0 36 a4 9c 3f 4f e0 e9 3f
       -0.39218357 -2.4403756 1.2237613 1.8271579
000050 14 00 a2 be 3f 16 f9 bc 71 d3 13 bf ca 5c 38 c0
       -0.31640685 -0.030406116 -0.5774451 -2.8806634
000060 94 5e 03 c0 9e 14 08 be b2 00 e7 3e e3 f0 0d c0
       -2.0526476 -0.13289115 0.45117718 -2.2178276
000070 96 04 7b 3f ac 87 ba be 62 8e 22 c0 18 f7 02 bf
       0.9805387 -0.36431634 -2.5399404 -0.51158285

linear2.weight f4 [32, 32]
000000 5e ae 28 be 4e 41 4b be 5d 15 11 be fa 9f e1 3d
       -0.16472766 -0.1984913 -0.14168306 0.11016841
000010 64 26 43 bd f9 1f 41 be 1b b3 e6 bd 1a df 07 bd
       -0.047644034 -0.18859853 -0.112646304 -0.03317175
000020 24 7a 9e 3c 73 09 13 be 33 b9 93 3d c7 d4 2d be
       0.01934535 -0.14359073 0.07213058 -0.169757
000030 1e 22 62 bd 80 cd 65 bd 84 0a 29 bd 50 27 d8 bd
       -0.055208318 -0.056104183 -0.041269794 -0.10554373
000040 c8 b6 81 3c 44 cf ea bc 82 b0 4f be 26 46 87 be
       0.015834227 -0.028663285 -0.20282176 -0.26420707
000050 01 78 85 bd cd 75 e9 bd 16 a9 34 bd dc 9c 91 bc
       -0.065170296 -0.11399422 -0.044106565 -0.017774992
000060 ac 39 6d 3d 24 f9 50 bd a5 08 cf bd d4 01 0a be
       0.05791633 -0.05101885 -0.10109071 -0.1347726
000070 20 cb 08 3b 3a 5c cc 3d c0 68 ca 3b 11 f7 fa bd
       0.0020873025 0.09978528 0.006177038 -0.122541554
000080 fc fb 79 be 0a 56 86 bd 17 33 cb bd 9e c6 ed 3d
       -0.2441253 -0.065593794 -0.09921854 0.11610149
000090 63 45 c6 bd 3c d6 45 be aa 8f 8e be be c8 14 be
       -0.09681203 -0.19320005 -0.27843982 -0.14529702
0000a0 c0 8e a3 ba 38 83 72 bd 60 94 8a bc 62 dc 6b 3d
       -0.0012478456 -0.05920717 -0.016916454 0.05758322
0000b0 d2 0d 69 bd 92 52 47 bd 40 f2 d9 3c e2 c7 1e bd
       -0.056897946 -0.04866273 0.026604772 -0.03876484
0000c0 72 44 69 bd 7a 01 a4 bd 7a 82 f3 bd 47 83 ac bd
       -0.05695004 -0.08008094 -0.11890121 -0.08423477
0000d0 22 cb 2c bd 4d 98 38 be 50 7e 67 3c ad 42 84 be
       -0.04218591 -0.18026848 0.014129236 -0.2583212
0000e0 0c 8c 96 3c 11 f3 13 3e 56 e9 67 be e4 b7 c3 bd
       0.018377326 0.14448191 -0.22647604 -0.09556559
0000f0 e0 96 7a be 94 2c 5d bd 70 ba ea 3b b4 ce d9 bc
       -0.24471617 -0.05399759 0.0071633384 -0.026587822
000100 fb 5a e2 bf aa fb 3d c0 85 0f 29 3e fe df 9b bd
       -1.7684015 -2.9684854 0.16509826 -0.076110825
000110 dd d8 bd bd a7 64 f6 bf f9 82 2c c0 20 69 f3 3c
       -0.09269879 -1.9249467 -2.695494 0.029713213
000120 a6 1c f4 3d fc f3 07 be 30 3a ef bd 56 16 be 3d
       0.11919527 -0.13276666 -0.1168102 0.09281604
000130 fd 04 fc bf df ae bf c0 0c 1d 89 bd 33 a3 eb bf
       -1.9689022 -5.9900966 -0.066949934 -1.840918
000140 2c d6 f7 bd 1c e1 00 40 e5 61 0a c0 c2 43 40 c1
       -0.12101397 2.0137396 -2.162225 -12.016542
000150 28 65 63 be 74 cf e4 be bc 1f 70 3d 39 97 a9 be
       -0.22206557 -0.44689524 0.058624014 -0.33123186
000160 b7 92 6b c0 26 8a 8f 3d 34 b8 0c be 0d 01 e2 be
       -3.6808298 0.070087716 -0.13742143 -0.44141427
000170 d4 52 d3 be a0 ea 45 3d 51 ac 7e c0 26 aa b7 3d
       -0.4127413 0.04831946 -3.9792674 0.08968
000180 d5 b9 a4 3f b1 42 21 c0 2f 4c 09 be c8 b0 28 bd
       1.2869211 -2.5196955 -0.13407968 -0.041184217
000190 3d aa 20 3e 67 70 dc bf cc 72 9a 40 fe e6 45 bd
       0.15689941 -1.7221802 4.8265133 -0.048315994
0001a0 de 2b 53 3d 00 8c 85 bd 2d 4f 88 bd 00 e3 32 ba
       0.051555507 -0.065208435 -0.066557266 -0.0006823987
0001b0 3c 70 22 c0 31 fd ce 3e 4e 39 c9 3d d6 51 41 40
       -2.5381002 0.40427545 0.09825383 3.0206199
0001c0 80 79 cd bc 1c a1 6f bf 29 0b a3 c0 69 70 17 3f
       -0.02508235 -0.9360521 -5.0951123 0.591559
0001d0 62 95 15 be b6 46 2d c0 f0 27 8d be 48 58 00 40
       -0.14607766 -2.7074409 -0.27569532 2.0053883
0001e0 a8 b7 90 3f 60 f8 9d 3b ca e2 81 c0 cd e4 86 c0
       1.1306047 0.0048208684 -4.058934 -4.21543
0001f0 a5 92 a9 bf 95 76 d7 bd 6f 3f b2 3f ad 8c 77 c0
       -1.3247877 -0.105206646 1.3925608 -3.8679612
000200 38 40 af be ff 37 d3 c1 76 f0 04 3f 63 15 a7 bd
       -0.34228683 -26.402342 0.51929414 -0.08158376
000210 5e 03 0e 3e f6 7b 7f c0 bf 77 2d c0 11 0d ed 3d
       0.13868472 -3.991941 -2.7104337 0.11574758
000220 ad 6e 26 3e 8c 2f e7 3c 28 7c e0 3d 40 08 32 3d
       0.16253157 0.028220914 0.10961181 0.0434649
000230 66 35 e7 be a1 a0 8a c0 c2 55 37 3e 72 1a 2a 40
       -0.45157927 -4.332108 0.17903808 2.657864
000240 b7 7b 21 be c4 bc 0c 3f b8 93 72 c1 44 b0 a2 bf
       -0.1576985 0.54975533 -15.161064 -1.2710042
000250 8b 77 b7 3e 92 13 5c 3f 9c 95 91 3c d2 f2 87 bf
       0.35833392 0.8596736 0.017771535 -1.0620978
000260 35 4c dc c0 42 b3 fa 3d f0 75 44 3f 72 cb 43 c0
       -6.8843026 0.12241222 0.7674246 -3.0592923
000270 63 2f aa c0 45 aa 2b 3e 8a bf 36 c1 71 d1 97 3f
       -5.3182845 0.16764171 -11.421762 1.1860791
000280 9d fc 25 40 b8 e5 1c c1 90 5b 34 3e 54 2a 3b bd
       2.5935433 -9.806084 0.17613053 -0.045694664
000290 a0 23 a6 3d ae 1c 9b be 88 87 90 be 5b 0d 10 3e
       0.08112264 -0.30295318 -0.28228402 0.14067595
0002a0 46 12 2f 3e 28 c3 ac 3c 8c 2c a2 bc df 58 46 3e
       0.17096815 0.021089152 -0.019796632 0.19369839
0002b0 c3 0b c0 bf 85 f6 aa bf da 35 47 3e 13 29 eb 3f
       -1.5003589 -1.3356482 0.19454136 1.837191
0002c0 6d 11 1d 3e 33 1f d7 3f 10 c8 f9 bf e2 2e c3 3f
       0.15338679 1.6806396 -1.9514179 1.5248682
0002d0 f7 d4 11 3e b6 2f 4e 3f 97 11 17 bd f2 35 fa bf
       0.14241396 0.8054155 -0.03688201 -1.9547713
0002e0 ff 08 b4 3f 11 8d 29 3e 86 b6 6f c0 5d 9e a3 c1
       1.4065245 0.16557719 -3.7455153 -20.452326
0002f0 86 4d 7b c1 0f 69 0d 3e a4 1f 50 c1 6a dc 8e 3e
       -15.706427 0.13809608 -13.007725 0.27902538
000300 56 3c b8 be 38 16 be c0 bf 3b 37 be 5e 1a 14 be
       -0.35983533 -5.9402122 -0.17893885 -0.14463183
000310 ce 68 b1 3d 4f 1d c3 be 96 f9 41 bf a6 6b 24 3e
       0.08662568 -0.38108298 -0.7577146 0.1605669
000320 b4 b4 a4 3c 45 f2 9a 3d 2a 3c 0d be c8 f2 86 3e
       0.020105697 0.075657405 -0.13792482 0.26357102
000330 bb de 40 c0 14 92 ae c0 a0 c4 ef bc c0 77 a4 c0
       -3.0135944 -5.455332 -0.029268563 -5.139618
000340 dd 12 dc bd f0 5b ea c0 c9 c2 a0 bf d6 e6 f5 bf
       -0.107457854 -7.323723 -1.2559444 -1.921107
000350 7c 53 04 bd b6 5b 66 40 7c 53 56 be 2e 34 2c c0
       -0.03230618 3.5993476 -0.20930284 -2.6906848
000360 f4 74 12 be c0 f2 f6 bb d3 b9 02 c0 4b 3d c5 c0
       -0.14302427 -0.0075362623 -2.0425918 -6.163732
000370 85 d6 07 c1 53 28 1c 3e 1f 56 93 c0 df ef 94 3f
       -8.489873 0.15249757 -4.604263 1.1635703
000380 3d 80 61 c0 9c c8 64 bf 00 e5 5a bc d0 ee 4b bc
       -3.523452 -0.89368606 -0.013360262 -0.012447074
000390 65 5a 8e 3c ac fe 23 c1 38 ea 03 c1 fd b6 fc 3d
       0.017377088 -10.249676 -8.244682 0.1233959
0003a0 00 32 19 3c 00 be f5 3d aa 80 f4 3d 84 58 91 3d
       0.0093503 0.1199913 0.11938603 0.07096961
0003b0 f0 a5 b7 c0 bf bc c3 bf 16 d9 9c bd c3 62 91 bf
       -5.739006 -1.5291976 -0.07658593 -1.1358265
0003c0 e3 e0 0d 3e 96 5c 75 c0 46 71 fb be 74 f3 e4 c1
       0.13855319 -3.833776 -0.49109858 -28.618874
0003d0 d8 05 83 bc d8 90 cc bf 3c c9 fa 3d c5 9b dc bf
       -0.015993997 -1.5981703 0.12245414 -1.7235037
0003e0 87 51 95 c0 a0 60 ce bc c8 6a 48 40 05 33 2c c1
       -4.666202 -0.025192559 3.1315174 -10.762456
0003f0 b4 37 7e c0 60 21 b5 bc df 71 1c 3e fa e0 19 bd
       -3.9721498 -0.022110641 0.15277813 -0.03756807

linear2.bias f4 [32]
000000 3e c6 3b be 1e 4f 10 be c1 38 79 c0 a5 b3 e4 3f
       -0.18337342 -0.14092681 -3.894089 1.7867323
000010 a9 45 88 c0 f2 4f e2 c0 5a 11 07 c0 d5 87 dd c0
       -4.2585034 -7.072259 -2.110434 -6.922831
000020 e9 ea c7 be 77 2e c5 be ff 31 8e bd 92 e2 35 c0
       -0.3904641 -0.38512012 -0.0694313 -2.8419538
000030 44 1e e9 bf 41 5a a2 40 88 1e 86 be 7f 5a e3 be
       -1.8212361 5.0735173 -0.26195168 -0.4440498
000040 06 22 b1 c0 6a 5d 3b c0 0a 83 01 c0 97 ea 1d 40
       -5.5354033 -2.9275765 -2.023623 2.4674432
000050 97 75 a1 c0 e6 da 55 c0 5d 80 ce be 7f ad 31 c0
       -5.045604 -3.3414855 -0.40332308 -2.7762144
000060 77 2f ad c0 32 e7 51 bf 6b 69 95 bd d2 67 ba be
       -5.412044 -0.819934 -0.072954975 -0.36407334
000070 86 57 10 c0 62 35 a3 be bd d1 52 bf a2 df 34 3f
       -2.255342 -0.31876665 -0.82351285 0.70653737

output.weight f4 [3, 32]
000000 56 74 14 3d b2 cb 23 3d 4f 0f 0c 3e dd 0a 82 be
       0.03624376 0.03998918 0.13677715 -0.25398913
000010 d1 d6 e6 be 73 df be 3e a1 82 6d 3e d9 30 ce 3e
       -0.45085767 0.37279853 0.23194362 0.40271643
000020 30 c8 7b bd 44 0d 68 3d 14 a8 93 bc 62 6d 8f be
       -0.06147021 0.056653276 -0.018024482 -0.2801314
000030 74 87 48 be 80 93 44 bf cc f0 61 ba b6 25 a6 be
       -0.19582921 -0.7678757 -0.00086189504 -0.32450646
000040 45 22 d4 be 2f 13 f9 3d c0 8f 7c 3e f0 bf b9 3e
       -0.41432396 0.12161862 0.24664211 0.3627925
000050 2d 94 2a 40 8c 0e 89 be 73 3a 12 3d f8 2b 62 3f
       2.665294 -0.2676891 0.035700273 0.8834834
000060 a9 8d 2b 40 80 a9 ce bc ec 03 6b 3d e8 06 f0 3c
       2.6805212 -0.025227308 0.057376787 0.029300168
000070 18 5e 03 bf 80 b9 67 3c e0 2b 30 bc 5f f8 1d be
       -0.5131545 0.014143348 -0.010752648 -0.15426777
000080 94 6a d2 bc 7f ad 87 bd 1c e1 5b 3e d4 b0 87 be
       -0.025685586 -0.06624889 0.21472591 -0.26502097
000090 ae f2 c7 bd 06 1c c2 3e b0 fb 29 3d 9d e8 d5 3e
       -0.09763084 0.37912005 0.041499794 0.41779032
0000a0 9e f3 ad bd 3a c0 77 bd 9e 89 4e be 30 36 8a 3c
       -0.08493732 -0.060486056 -0.20169684 0.016871542
0000b0 74 00 89 3c c7 3b 45 bf 9e be 84 3d be 3d 85 be
       0.016723849 -0.7704434 0.0648167 -0.26023668
0000c0 e1 d9 da be 23 1d c3 3e 20 ab 0e 3e 2c c3 ba 3e
       -0.42744353 0.38108167 0.13932467 0.3647703
0000d0 60 00 8b bf e2 dc 62 3d b8 ea bb 3c de 01 49 be
       -1.085949 0.05538643 0.022939071 -0.19629619
0000e0 7e f0 5c 3f e1 2f a6 3d 84 c8 f9 bd c0 28 2c 3e
       0.8630446 0.08114601 -0.121964484 0.1681242
0000f0 03 fb 05 bf 67 af 1e 3e 3a cb 55 3d 70 81 af be
       -0.5233614 0.15496598 0.052195765 -0.3427844
000100 08 a6 eb 3c ab 94 06 be b9 75 5f 3e 07 48 7e be
       0.028765693 -0.1314265 0.21822251 -0.24832164
000110 8e 46 7a be cf a0 b5 3e b3 28 f0 3d 6f 31 b4 3e
       -0.24440977 0.3547425 0.11726513 0.35193965
000120 be b7 49 3d 4f 5d 14 3e 04 c0 7d bd 8c 19 c8 bd
       0.049247496 0.1448872 -0.0619507 -0.09770498
000130 16 7a 32 3f 98 e8 46 bf 60 1a 68 3b f7 e3 33 3f
       0.6971754 -0.7769866 0.0035416111 0.7026972
000140 bf f2 d4 be 42 27 9a bd 70 61 86 3b 24 1f 9d 3e
       -0.4159145 -0.07527019 0.004100971 0.3068782
000150 aa ff bc be d2 a0 d6 bc 96 11 23 3d 37 02 ea 3d
       -0.36913806 -0.026199732 0.039811693 0.11426204
000160 df ab 9b 3e 80 10 7f bb e3 32 92 3d 74 c6 bc 3d
       0.30404565 -0.0038919747 0.07138612 0.092175394
000170 3e 17 40 3e 93 91 ab bd 57 31 ec 3d 9a 3d d9 bd
       0.18758866 -0.083773755 0.11532848 -0.10607453

output.bias f4 [3]
000000 77 2e fd be 07 ce f5 be 63 b9 f7 be
       -0.49449512 -0.4800875 -0.48383626

square_avg f4 [32, 7]
000000 35 d1 d0 39 01 f4 32 3a 14 3d 56 37 cd 85 b7 37
       0.00039828723 0.00068265205 1.2769615e-05 2.1877606e-05
000010 53 54 22 3b b7 92 9e 37 85 a5 2a 3d 72 16 22 36
       0.00247695 1.8903387e-05 0.041661758 2.4152946e-06
000020 fa 2e 54 36 d4 0c 8e 33 94 e1 f7 33 d5 75 5b 37
       3.1617806e-06 6.614724e-08 1.1542866e-07 1.3080852e-05
000030 22 7b ee 33 d3 4e 7d 39 32 00 00 00 32 00 00 00
       1.11051364e-07 0.00024157325 7e-44 7e-44
000040 32 00 00 00 32 00 00 00 32 00 00 00 32 00 00 00
       7e-44 7e-44 7e-44 7e-44
000050 32 00 00 00 00 00 00 00 00 00 00 00 00 00 00 00
       7e-44 0.0 0.0 0.0
000060 00 00 00 00 00 00 00 00 00 00 00 00 00 00 00 00
       0.0 0.0 0.0 0.0
000070 32 00 00 00 32 00 00 00 32 00 00 00 32 00 00 00
       7e-44 7e-44 7e-44 7e-44
000080 32 00 00 00 32 00 00 00 32 00 00 00 32 00 00 00
       7e-44 7e-44 7e-44 7e-44
000090 32 00 00 00 32 00 00 00 32 00 00 00 32 00 00 00
       7e-44 7e-44 7e-44 7e-44
0000a0 32 00 00 00 32 00 00 00 cf f6 70 38 58 80 2e 38
       7e-44 7e-44 5.7450317e-05 4.1604362e-05
0000b0 b0 1b 89 35 3a 4e a3 35 a4 64 ea 38 4b 74 96 35
       1.0215354e-06 1.2167213e-06 0.00011176735 1.1209717e-06
0000c0 89 4a 25 38 32 00 00 00 32 00 00 00 32 00 00 00
       3.9408482e-05 7e-44 7e-44 7e-44
0000d0 32 00 00 00 32 00 00 00 32 00 00 00 32 00 00 00
       7e-44 7e-44 7e-44 7e-44
0000e0 32 00 00 00 32 00 00 00 32 00 00 00 32 00 00 00
       7e-44 7e-44 7e-44 7e-44
0000f0 32 00 00 00 32 00 00 00 32 00 00 00 32 00 00 00
       7e-44 7e-44 7e-44 7e-44
000100 32 00 00 00 32 00 00 00 32 00 00 00 32 00 00 00
       7e-44 7e-44 7e-44 7e-44
000110 32 00 00 00 32 00 00 00 32 00 00 00 32 00 00 00
       7e-44 7e-44 7e-44 7e-44
000120 32 00 00 00 32 00 00 00 32 00 00 00 32 00 00 00
       7e-44 7e-44 7e-44 7e-44
000130 00 00 00 00 32 00 00 00 32 00 00 00 32 00 00 00
       0.0 7e-44 7e-44 7e-44
000140 32 00 00 00 00 00 00 00 32 00 00 00 32 00 00 00
       7e-44 0.0 7e-44 7e-44
000150 fb e5 4c 36 f4 33 33 36 04 5e 8a 31 e9 05 8c 30
       3.0532235e-06 2.670332e-06 4.027017e-09 1.018802e-09
000160 ea 07 8e 36 4f 6d 20 33 41 37 d9 33 86 10 8d 36
       4.232851e-06 3.735232e-08 1.01149006e-07 4.204051e-06
000170 ab 6b 85 37 35 c4 a7 33 f0 b4 05 33 4d 8f a3 37
       1.5904972e-05 7.812233e-08 3.1131037e-08 1.9497844e-05
000180 f5 bc d5 33 32 00 00 00 32 00 00 00 32 00 00 00
       9.9529565e-08 7e-44 7e-44 7e-44
000190 32 00 00 00 32 00 00 00 32 00 00 00 32 00 00 00
       7e-44 7e-44 7e-44 7e-44
0001a0 32 00 00 00 32 00 00 00 32 00 00 00 32 00 00 00
       7e-44 7e-44 7e-44 7e-44
0001b0 32 00 00 00 32 00 00 00 32 00 00 00 32 00 00 00
       7e-44 7e-44 7e-44 7e-44
0001c0 32 00 00 00 32 00 00 00 32 00 00 00 32 00 00 00
       7e-44 7e-44 7e-44 7e-44
0001d0 32 00 00 00 00 00 00 00 32 00 00 00 e8 6e 26 38
       7e-44 0.0 7e-44 3.9680774e-05
0001e0 6f 16 09 39 74 d7 c2 35 dd b5 65 35 01 28 36 39
       0.00013073695 1.4516831e-06 8.5573794e-07 0.00017371775
0001f0 ba 66 9c 35 55 7b 6e 3b c3 9c d9 37 19 dc af 38
       1.1652803e-06 0.003638943 2.5941414e-05 8.385647e-05
000200 97 b0 db 34 48 dd 02 35 55 01 88 38 c7 d2 86 35
       4.0920415e-07 4.875078e-07 6.4852335e-05 1.0045122e-06
000210 99 2e 5a 3b e2 6c 15 3a 7c 0b ec 3a 9e 54 7c 37
       0.0033291935 0.0005700124 0.0018008794 1.5040072e-05
000220 05 fc e1 36 e0 23 3c 3b 7a a3 29 37 4b b9 7e 3d
       6.7348615e-06 0.0028707907 1.0111247e-05 0.062188428
000230 32 00 00 00 32 00 00 00 32 00 00 00 32 00 00 00
       7e-44 7e-44 7e-44 7e-44
000240 32 00 00 00 32 00 00 00 32 00 00 00 dd 5e 94 36
       7e-44 7e-44 7e-44 4.4217873e-06
000250 63 69 42 37 9f 36 90 33 62 dc 91 32 dd 6e 41 37
       1.1587838e-05 6.715458e-08 1.698044e-08 1.1529509e-05
000260 2e df f1 33 d6 0e 55 39 32 00 00 00 32 00 00 00
       1.1263033e-07 0.0002031879 7e-44 7e-44
000270 32 00 00 00 32 00 00 00 32 00 00 00 32 00 00 00
       7e-44 7e-44 7e-44 7e-44
000280 32 00 00 00 37 2f 57 39 06 b5 00 3a 36 30 06 36
       7e-44 0.00020521587 0.0004909787 1.9995618e-06
000290 b0 a9 9a 36 ca 41 21 3a 4f 20 38 36 e6 a3 57 3c
       4.609312e-06 0.0006151466 2.7436943e-06 0.013161635
0002a0 32 00 00 00 32 00 00 00 32 00 00 00 32 00 00 00
       7e-44 7e-44 7e-44 7e-44
0002b0 32 00 00 00 32 00 00 00 32 00 00 00 00 00 00 00
       7e-44 7e-44 7e-44 0.0
0002c0 00 00 00 00 00 00 00 00 00 00 00 00 00 00 00 00
       0.0 0.0 0.0 0.0
0002d0 00 00 00 00 00 00 00 00 bd 13 ba 39 51 e0 22 3a
       0.0 0.0 0.0003549139 0.00062132353
0002e0 68 80 cf 36 4a 70 17 37 25 67 ae 3a d5 1f e7 36
       6.184029e-06 9.026446e-06 0.0013305886 6.888042e-06
0002f0 96 bb dc 3c a9 02 1e 3a 7f 10 b7 3a ad 9d c2 36
       0.026944917 0.0006027618 0.0013966708 5.8000064e-06
000300 50 74 4f 37 a0 81 df 3a 67 81 fa 36 c8 53 2c 3d
       1.2365243e-05 0.0017052181 7.465645e-06 0.042072088
000310 32 b0 aa 2d 1f a9 4f 31 d5 41 39 2c ee 20 62 2d
       1.9405009e-11 3.0218599e-09 2.6326625e-12 1.28539245e-11
000320 27 16 d7 30 92 fe 32 2e a2 4a b8 33 00 00 00 00
       1.5649605e-09 4.0698618e-11 8.581743e-08 0.0
000330 00 00 00 00 00 00 00 00 00 00 00 00 00 00 00 00
       0.0 0.0 0.0 0.0
000340 00 00 00 00 00 00 00 00 26 ff 1a 36 35 25 b3 32
       0.0 0.0 2.3096304e-06 2.0855262e-08
000350 ce 5b 36 32 46 c4 b9 33 c8 de 68 37 44 b0 b0 33
       1.0614668e-08 8.650436e-08 1.3880148e-05 8.227701e-08
000360 c9 5a fa 38 32 00 00 00 32 00 00 00 32 00 00 00
       0.00011937839 7e-44 7e-44 7e-44
000370 32 00 00 00 32 00 00 00 32 00 00 00 32 00 00 00
       7e-44 7e-44 7e-44 7e-44

square_avg f4 [32]
000000 ee 39 8e 3b 1c 59 bc 37 32 00 00 00 00 00 00 00
       0.004340402 2.2452841e-05 7e-44 0.0
000010 32 00 00 00 32 00 00 00 b0 a3 3b 39 32 00 00 00
       7e-44 7e-44 0.00017894688 7e-44
000020 32 00 00 00 32 00 00 00 32 00 00 00 32 00 00 00
       7e-44 7e-44 7e-44 7e-44
000030 89 1c 93 36 b0 73 00 38 32 00 00 00 32 00 00 00
       4.3842633e-06 3.062532e-05 7e-44 7e-44
000040 32 00 00 00 66 eb b3 39 da 79 38 39 86 49 ce 3b
       7e-44 0.00034316926 0.00017593 0.006295386
000050 32 00 00 00 eb ec b5 37 32 00 00 00 ad 92 95 3a
       7e-44 2.1687205e-05 7e-44 0.0011411511
000060 32 00 00 00 00 00 00 00 dd 6a 2e 3b 92 86 5c 3b
       7e-44 0.0 0.0026613988 0.0033649546
000070 49 cf 8d 31 00 00 00 00 dc 38 6b 37 32 00 00 00
       4.1272057e-09 0.0 1.402033e-05 7e-44

square_avg f4 [32, 32]
000000 32 00 00 00 32 00 00 00 32 00 00 00 00 00 00 00
       7e-44 7e-44 7e-44 0.0
000010 32 00 00 00 32 00 00 00 32 00 00 00 32 00 00 00
       7e-44 7e-44 7e-44 7e-44
000020 32 00 00 00 00 00 00 00 32 00 00 00 00 00 00 00
       7e-44 0.0 7e-44 0.0
000030 32 00 00 00 32 00 00 00 00 00 00 00 32 00 00 00
       7e-44 7e-44 0.0 7e-44
000040 00 00 00 00 32 00 00 00 32 00 00 00 32 00 00 00
       0.0 7e-44 7e-44 7e-44
000050 32 00 00 00 32 00 00 00 32 00 00 00 32 00 00 00
       7e-44 7e-44 7e-44 7e-44
000060 32 00 00 00 00 00 00 00 32 00 00 00 32 00 00 00
       7e-44 0.0 7e-44 7e-44
000070 32 00 00 00 00 00 00 00 32 00 00 00 32 00 00 00
       7e-44 0.0 7e-44 7e-44
000080 32 00 00 00 32 00 00 00 32 00 00 00 00 00 00 00
       7e-44 7e-44 7e-44 0.0
000090 32 00 00 00 32 00 00 00 32 00 00 00 32 00 00 00
       7e-44 7e-44 7e-44 7e-44
0000a0 32 00 00 00 32 00 00 00 32 00 00 00 32 00 00 00
       7e-44 7e-44 7e-44 7e-44
0000b0 32 00 00 00 32 00 00 00 32 00 00 00 32 00 00 00
       7e-44 7e-44 7e-44 7e-44
0000c0 00 00 00 00 32 00 00 00 32 00 00 00 32 00 00 00
       0.0 7e-44 7e-44 7e-44
0000d0 32 00 00 00 32 00 00 00 32 00 00 00 32 00 00 00
       7e-44 7e-44 7e-44 7e-44
0000e0 32 00 00 00 00 00 00 00 32 00 00 00 32 00 00 00
       7e-44 0.0 7e-44 7e-44
0000f0 32 00 00 00 00 00 00 00 32 00 00 00 32 00 00 00
       7e-44 0.0 7e-44 7e-44
000100 32 00 00 00 32 00 00 00 00 00 00 00 00 00 00 00
       7e-44 7e-44 0.0 0.0
000110 00 00 00 00 32 00 00 00 32 00 00 00 00 00 00 00
       0.0 7e-44 7e-44 0.0
000120 00 00 00 00 00 00 00 00 00 00 00 00 00 00 00 00
       0.0 0.0 0.0 0.0
000130 32 00 00 00 32 00 00 00 00 00 00 00 32 00 00 00
       7e-44 7e-44 0.0 7e-44
000140 00 00 00 00 32 00 00 00 32 00 00 00 32 00 00 00
       0.0 7e-44 7e-44 7e-44
000150 32 00 00 00 32 00 00 00 00 00 00 00 32 00 00 00
       7e-44 7e-44 0.0 7e-44
000160 32 00 00 00 00 00 00 00 32 00 00 00 32 00 00 00
       7e-44 0.0 7e-44 7e-44
000170 32 00 00 00 00 00 00 00 32 00 00 00 00 00 00 00
       7e-44 0.0 7e-44 0.0
000180 32 00 00 00 39 6f 4e 2d 32 00 00 00 00 00 00 00
       7e-44 1.1734441e-11 7e-44 0.0
000190 32 00 00 00 32 00 00 00 18 ee 72 2e 32 00 00 00
       7e-44 7e-44 5.52359e-11 7e-44
0001a0 32 00 00 00 32 00 00 00 32 00 00 00 32 00 00 00
       7e-44 7e-44 7e-44 7e-44
0001b0 8c 2c 36 33 f8 47 7c 37 32 00 00 00 32 00 00 00
       4.2415692e-08 1.5037127e-05 7e-44 7e-44
0001c0 32 00 00 00 bb 80 57 39 63 61 b9 33 3e e4 06 3a
       7e-44 0.00020551954 8.6324484e-08 0.0005145705
0001d0 32 00 00 00 3a 84 11 35 32 00 00 00 22 ec 88 37
       7e-44 5.4209124e-07 7e-44 1.6322421e-05
0001e0 32 00 00 00 00 00 00 00 74 1d aa 30 da d5 49 36
       7e-44 0.0 1.2377499e-09 3.0075812e-06
0001f0 d8 75 3a 27 00 00 00 00 32 00 00 00 32 00 00 00
       2.5876569e-15 0.0 7e-44 7e-44
000200 32 00 00 00 32 00 00 00 32 00 00 00 00 00 00 00
       7e-44 7e-44 7e-44 0.0
000210 32 00 00 00 32 00 00 00 32 00 00 00 32 00 00 00
       7e-44 7e-44 7e-44 7e-44
000220 32 00 00 00 32 00 00 00 32 00 00 00 32 00 00 00
       7e-44 7e-44 7e-44 7e-44
000230 32 00 00 00 32 00 00 00 32 00 00 00 32 00 00 00
       7e-44 7e-44 7e-44 7e-44
000240 00 00 00 00 32 00 00 00 32 00 00 00 32 00 00 00
       0.0 7e-44 7e-44 7e-44
000250 32 00 00 00 32 00 00 00 32 00 00 00 32 00 00 00
       7e-44 7e-44 7e-44 7e-44
000260 32 00 00 00 00 00 00 00 32 00 00 00 32 00 00 00
       7e-44 0.0 7e-44 7e-44
000270 32 00 00 00 00 00 00 00 32 00 00 00 32 00 00 00
       7e-44 0.0 7e-44 7e-44
000280 52 07 a9 33 ba 81 27 2c 32 00 00 00 00 00 00 00
       7.871007e-08 2.380414e-12 7e-44 0.0
000290 32 00 00 00 32 00 00 00 91 98 ec 2e 32 00 00 00
       7e-44 7e-44 1.0759139e-10 7e-44
0002a0 32 00 00 00 32 00 00 00 32 00 00 00 32 00 00 00
       7e-44 7e-44 7e-44 7e-44
0002b0 32 00 00 00 9b 57 5b 37 32 00 00 00 32 00 00 00
       7e-44 1.3073814e-05 7e-44 7e-44
0002c0 00 00 00 00 b2 ab 98 39 0f a8 9f 36 02 ff 3c 3a
       0.0 0.00029119622 4.758134e-06 0.000720963
0002d0 32 00 00 00 1b 42 01 37 32 00 00 00 73 7f d3 36
       7e-44 7.704391e-06 7e-44 6.303127e-06
0002e0 32 00 00 00 00 00 00 00 32 00 00 00 d0 13 a0 33
       7e-44 0.0 7e-44 7.4541845e-08
0002f0 32 00 00 00 00 00 00 00 32 00 00 00 32 00 00 00
       7e-44 0.0 7e-44 7e-44
000300 32 00 00 00 32 00 00 00 32 00 00 00 00 00 00 00
       7e-44 7e-44 7e-44 0.0
000310 32 00 00 00 32 00 00 00 32 00 00 00 32 00 00 00
       7e-44 7e-44 7e-44 7e-44
000320 32 00 00 00 32 00 00 00 00 00 00 00 32 00 00 00
       7e-44 7e-44 0.0 7e-44
000330 17 03 c4 05 32 00 00 00 32 00 00 00 32 00 00 00
       1.8432886e-35 7e-44 7e-44 7e-44
000340 00 00 00 00 62 88 0c 01 45 aa 16 0b 51 fe 37 0d
       0.0 2.581179e-38 2.9017046e-32 5.669735e-31
000350 32 00 00 00 8c 0b 73 0e 32 00 00 00 32 00 00 00
       7e-44 2.9957622e-30 7e-44 7e-44
000360 32 00 00 00 00 00 00 00 63 d0 cf 0d 32 00 00 00
       7e-44 0.0 1.2807527e-30 7e-44
000370 32 00 00 00 00 00 00 00 32 00 00 00 32 00 00 00
       7e-44 0.0 7e-44 7e-44
000380 79 fb 85 34 cd 08 ef 34 00 00 00 00 00 00 00 00
       2.495615e-07 4.4523622e-07 0.0 0.0
000390 32 00 00 00 32 00 00 00 32 00 00 00 32 00 00 00
       7e-44 7e-44 7e-44 7e-44
0003a0 32 00 00 00 32 00 00 00 00 00 00 00 32 00 00 00
       7e-44 7e-44 0.0 7e-44
0003b0 32 00 00 00 32 00 00 00 32 00 00 00 32 00 00 00
       7e-44 7e-44 7e-44 7e-44
0003c0 00 00 00 00 32 00 00 00 f7 9b c7 37 32 00 00 00
       0.0 7e-44 2.3795275e-05 7e-44
0003d0 32 00 00 00 92 f1 98 35 32 00 00 00 32 00 00 00
       7e-44 1.1395189e-06 7e-44 7e-44
0003e0 32 00 00 00 00 00 00 00 e3 b7 9d 37 32 00 00 00
       7e-44 0.0 1.8801487e-05 7e-44
0003f0 90 fb e9 27 00 00 00 00 7c 3f 7b 34 32 00 00 00
       6.4943236e-15 0.0 2.3399292e-07 7e-44

square_avg f4 [32]
000000 32 00 00 00 32 00 00 00 32 00 00 00 9b 71 1b 38
       7e-44 7e-44 7e-44 3.7060683e-05
000010 32 00 00 00 b3 fd dc 37 99 f9 d9 0d 64 35 85 35
       7e-44 2.6344182e-05 1.3433746e-30 9.924811e-07
000020 32 00 00 00 32 00 00 00 32 00 00 00 32 00 00 00
       7e-44 7e-44 7e-44 7e-44
000030 ed 7d 72 2a 77 7b 91 3a 32 00 00 00 e8 1c 86 34
       2.1537607e-13 0.0011099417 7e-44 2.4980477e-07
000040 79 cc ad 39 32 00 00 00 32 00 00 00 d6 7a 8a 34
       0.00033149475 7e-44 7e-44 2.5793878e-07
000050 32 00 00 00 a6 41 b7 0d 32 00 00 00 32 00 00 00
       7e-44 1.129405e-30 7e-44 7e-44
000060 32 00 00 00 32 00 00 00 32 00 00 00 32 00 00 00
       7e-44 7e-44 7e-44 7e-44
000070 32 00 00 00 32 00 00 00 32 00 00 00 c8 74 86 32
       7e-44 7e-44 7e-44 1.5652759e-08

square_avg f4 [3, 32]
000000 32 00 00 00 32 00 00 00 32 00 00 00 6a 64 cb 39
       7e-44 7e-44 7e-44 0.00038793992
000010 32 00 00 00 c8 8e a3 3a b6 3f e2 08 ec ef 20 36
       7e-44 0.0012478465 1.3616859e-33 2.398151e-06
000020 32 00 00 00 32 00 00 00 32 00 00 00 32 00 00 00
       7e-44 7e-44 7e-44 7e-44
000030 d5 d0 05 27 dd cb 6b 3c 32 00 00 00 dc 4b 13 30
       1.8570666e-15 0.0143918665 7e-44 5.358609e-10
000040 f5 b8 7b 3c 32 00 00 00 32 00 00 00 b5 37 a1 35
       0.015363921 7e-44 7e-44 1.2011648e-06
000050 32 00 00 00 d9 1c d1 0b 32 00 00 00 32 00 00 00
       7e-44 8.0547277e-32 7e-44 7e-44
000060 32 00 00 00 32 00 00 00 32 00 00 00 32 00 00 00
       7e-44 7e-44 7e-44 7e-44
000070 32 00 00 00 00 00 00 00 32 00 00 00 5a 5b ce 33
       7e-44 0.0 7e-44 9.609239e-08
000080 32 00 00 00 32 00 00 00 32 00 00 00 5f 8b bb 39
       7e-44 7e-44 7e-44 0.0003577126
000090 32 00 00 00 9d 5e c8 3a 57 6a 31 0f e2 bf bb 36
       7e-44 0.0015286986 8.747254e-30 5.5953724e-06
0000a0 32 00 00 00 32 00 00 00 32 00 00 00 32 00 00 00
       7e-44 7e-44 7e-44 7e-44
0000b0 60 64 ce 28 fb b5 61 3c 32 00 00 00 d0 9c 1e 32
       2.2914125e-14 0.013776298 7e-44 9.2324655e-09
0000c0 3a b3 01 3d 32 00 00 00 32 00 00 00 56 b2 e1 34
       0.031665064 7e-44 7e-44 4.2039272e-07
0000d0 32 00 00 00 a2 9b c8 0c 32 00 00 00 32 00 00 00
       7e-44 3.0908547e-31 7e-44 7e-44
0000e0 32 00 00 00 32 00 00 00 32 00 00 00 32 00 00 00
       7e-44 7e-44 7e-44 7e-44
0000f0 32 00 00 00 00 00 00 00 32 00 00 00 58 4c 85 30
       7e-44 0.0 7e-44 9.698722e-10
000100 00 00 00 00 00 00 00 00 32 00 00 00 b4 be f4 39
       0.0 0.0 7e-44 0.00046681392
000110 32 00 00 00 ac b1 c7 3a 18 d6 a7 0b 9f 31 8b 33
       7e-44 0.0015235445 6.464819e-32 6.481718e-08
000120 32 00 00 00 32 00 00 00 32 00 00 00 32 00 00 00
       7e-44 7e-44 7e-44 7e-44
000130 bc 2a 01 00 ee 58 8f 3c 32 00 00 00 23 14 91 34
       1.07166e-40 0.01749846 7e-44 2.7023006e-07
000140 c4 b0 aa 3d 32 00 00 00 32 00 00 00 77 da 6e 35
       0.083344966 7e-44 7e-44 8.897982e-07
000150 32 00 00 00 d8 2a a3 0d 32 00 00 00 32 00 00 00
       7e-44 1.0055965e-30 7e-44 7e-44
000160 32 00 00 00 32 00 00 00 32 00 00 00 32 00 00 00
       7e-44 7e-44 7e-44 7e-44
000170 32 00 00 00 32 00 00 00 32 00 00 00 53 d5 de 33
       7e-44 7e-44 7e-44 1.0376484e-07

square_avg f4 [3]
000000 6b d2 fb 39 3d 75 21 3a b5 73 8b 3a
       0.00048031224 0.00061591325 0.0010639342
