train1.pt (torch_old, 13254 bytes, 12 tensors)

linear1.weight f4 [32, 7]
0	0x402390cc	2.5557127
1	0xc0aa9d21	-5.331681
2	0x41942844	18.51966
3	0xbf7432d7	-0.95390075
4	0xc057a07c	-3.3691702
5	0xc02d8d1d	-2.7117379
6	0xbd6ca508	-0.057774574
7	0x3fd20672	1.6408217
8	0x3f390113	0.72267264
9	0x4017a602	2.3695073
10	0x40f78ccb	7.7359366
11	0xbe24e6b9	-0.16103639
12	0x40650d25	3.5789273
13	0xbfeede36	-1.8661563
14	0x3b2cf8d0	0.002639342
15	0x3d96683b	0.07344099
16	0x3dae381e	0.08506797
17	0xbe76f2e8	-0.24116099
18	0x3e9df9ae	0.30854553
19	0x3e81c6a3	0.2534686
20	0xbed265a0	-0.4109316
21	0x3e33358e	0.17500898
22	0xbe858381	-0.26076892
23	0x3cf026e0	0.029315412
24	0xbdf430d8	-0.11923379
25	0xbeb088d7	-0.344794
26	0x3ebdcc6d	0.37070027
27	0xbe371836	-0.1788033
28	0x3e33ff62	0.1757789
29	0xbe5a247d	-0.21302982
30	0xbe3a359b	-0.18184511
31	0x3c7c9420	0.015416175
32	0x3d183750	0.037162125
33	0x3f006a12	0.5016185
34	0xbd4a94d4	-0.04945834
35	0x40b9cf14	5.806528
36	0xbfc30e72	-1.5238783
37	0xc08eacac	-4.458578
38	0x4021ec0a	2.5300317
39	0xbf4f56ba	-0.8099171
40	0xbf84bab0	-1.0369473
41	0xbe96f274	-0.29481852
42	0x3f8440cf	1.0332278
43	0x3d4cb3cb	0.04997615
44	0xc18173bd	-16.181513
45	0x3e8b728a	0.27235824
46	0xbe04021b	-0.12891428
47	0x4000b410	2.0109901
48	0x3c84983d	0.016185874
49	0xbd99f297	-0.075169735
50	0xbf18516a	-0.5949923
51	0xbc588e20	-0.013217479
52	0xbe280cd4	-0.16411144
53	0x3dfb06e2	0.12257172
54	0xbe00756e	-0.12544796
55	0xbde4adc7	-0.11165958
56	0x3e4c3111	0.19940592
57	0x3cca739c	0.02471333
58	0xbea47d4f	-0.32126853
59	0xbdbec68d	-0.09315214
60	0xbef4c0c5	-0.4780332
61	0x3ec27b6a	0.37984782
62	0xbe60df2d	-0.21960135
63	0xbee84027	-0.45361444
64	0xbe90dc68	-0.28293157
65	0xbd304808	-0.043037444
66	0xbdc33a14	-0.09532562
67	0xbc27c6c0	-0.010240257
68	0xbca53638	-0.020167455
69	0xbdf0bd2e	-0.11754833
70	0xbd3b98dc	-0.045800075
71	0xbef4a7db	-0.47784314
72	0xbe5b93fb	-0.21443169
73	0xbece5975	-0.40302625
74	0x3e0a9533	0.13533477
75	0x3ee11c77	0.4396703
76	0xbe4116c3	-0.18856339
77	0xbe21d0e6	-0.15802345
78	0xbe2496a2	-0.16073087
79	0xbe16bb75	-0.14719947
80	0xbe6013d5	-0.21882565
81	0x3d11de18	0.035612196
82	0x3eaa25bc	0.33231914
83	0xbd253030	-0.04032916
84	0xbfb52906	-1.4153144
85	0xc048aff7	-3.13574
86	0xc0f9cee7	-7.8065066
87	0xc150af79	-13.04284
88	0x3e80f91f	0.25190064
89	0x40593c61	3.3943102
90	0xbe2f6968	-0.17130053
91	0xc130af4e	-11.042799
92	0x3fec2801	1.8449708
93	0x40cd15da	6.4089174
94	0x40da482a	6.821309
95	0x3fb4f213	1.4136375
96	0x4086e0e2	4.2149515
97	0xbf50a184	-0.81496453
98	0x3db1e29d	0.08685801
99	0xbeae97b2	-0.3410011
100	0xbdabe695	-0.083935894
101	0x3ddf9793	0.10917582
102	0x3d062c18	0.032756895
103	0x3ed05246	0.4068777
104	0xbd7a13c4	-0.061054006
105	0xc065bd13	-3.5896652
106	0x3e5cae18	0.21550786
107	0xc16de23f	-14.867736
108	0x40a9fe93	5.312326
109	0xc006eb4e	-2.1081119
110	0xc0e74421	-7.2270665
111	0xbcf614a6	-0.030039143
112	0xbe9c8c29	-0.30575684
113	0x3e0c073f	0.13674639
114	0x3eab6640	0.33476448
115	0x3d475174	0.048661664
116	0x3e536ec6	0.20647725
117	0xbe99b8de	-0.30023855
118	0xbe6ba57a	-0.23012343
119	0xc1298956	-10.596029
120	0xbedf697e	-0.43635172
121	0xc12d2d56	-10.823568
122	0xc096d35d	-4.713301
123	0x3e1b48cd	0.1516449
124	0x3fdbb9a5	1.7166029
125	0xbd83fa16	-0.064441845
126	0x400e683a	2.2251115
127	0xc07945a1	-3.8948748
128	0x3feae383	1.8350681
129	0xc17e55c5	-15.89594
130	0xc187fa18	-16.997116
131	0x3f1402e0	0.57816887
132	0x3c823a5b	0.015896967
133	0xc120b068	-10.043068
134	0xbf87a56e	-1.059736
135	0xc03af9ee	-2.9215045
136	0xbeacda7a	-0.33760434
137	0xbef7ab57	-0.4837291
138	0x3f5f39d4	0.87197614
139	0xbe35f21a	-0.17768136
140	0xc0daacd5	-6.8335977
141	0x3e327e10	0.17430902
142	0x3f60f802	0.8787843
143	0xbfb98f5e	-1.4496877
144	0xbf8673ca	-1.0504086
145	0x3f241ff3	0.6411125
146	0xbea70132	-0.326181
147	0x4072c4ee	3.7932696
148	0xbe6e11df	-0.23249005
149	0x413989e9	11.596169
150	0xc0b43658	-5.6316338
151	0x3fe7b075	1.8100725
152	0x40ccaa1a	6.3957644
153	0x3c9f22cd	0.019425774
154	0xbfc6138d	-1.5474716
155	0x3eca420c	0.39503515
156	0x3dad5138	0.08462757
157	0xbfdbf720	-1.7184792
158	0xbf149b99	-0.58049923
159	0x3e651c20	0.2237401
160	0xbdfef1b8	-0.12448448
161	0x40394f33	2.895459
162	0xbf81c59a	-1.0138428
163	0xbfb7087b	-1.4299463
164	0x3fa74b4b	1.3069853
165	0xbff249c7	-1.8928765
166	0x3ec8fe6e	0.39256614
167	0xbe826b9a	-0.25472718
168	0xbf01aca0	-0.5065403
169	0xbf130cf4	-0.5744164
170	0x3f2d6d4f	0.67744917
171	0x3f15cc8f	0.58515257
172	0x3d97228f	0.073796384
173	0x3d6517da	0.05593095
174	0xbc395078	-0.011310689
175	0xbe0b61c5	-0.13611515
176	0x3ccbd870	0.024883479
177	0x3de213b8	0.11038917
178	0xbe8802d9	-0.26564673
179	0xbe9a7e88	-0.3017466
180	0x3e2f9492	0.17146519
181	0xbd62c308	-0.055361778
182	0x4073c393	3.808812
183	0xc00a1c45	-2.1579754
184	0x41b4e713	22.61283
185	0xc100568c	-8.02113
186	0xbe253f77	-0.16137491
187	0x3e27a69d	0.16372152
188	0x3e7a7066	0.24456939
189	0x405d12d8	3.4542751
190	0x3ea46910	0.32111406
191	0x41d26bee	26.3027
192	0x40c31d60	6.097336
193	0xbf5b2e5f	-0.8561763
194	0xc0063d25	-2.097482
195	0xbdcb39fa	-0.099231675
196	0x4099dc0b	4.8081107
197	0xbce79cda	-0.028273035
198	0x420ab8c0	34.68042
199	0x3ee3201d	0.44360438
200	0xbd919cfe	-0.07110022
201	0x3e0c06b3	0.1367443
202	0xbc9f240f	-0.019426374
203	0x3b2ad400	0.0026066303
204	0xbe033792	-0.12814167
205	0xbca36200	-0.019944191
206	0x3d64d930	0.05587119
207	0xbe762391	-0.24037005
208	0x3d86c1d0	0.065799356
209	0xbd8a7724	-0.067610055
210	0x400b3527	2.1751192
211	0xbffb372e	-1.9626215
212	0x415185b7	13.095145
213	0xc17668bc	-15.40057
214	0xbfbaf263	-1.460522
215	0xbfecd695	-1.8502985
216	0x3d29780c	0.04137425
217	0xc013609c	-2.3027716
218	0xbf96a417	-1.1768826
219	0x3dc1123b	0.09427305
220	0xbebb096e	-0.36530632
221	0x3ed9ba2d	0.42524853
222	0xbf4d67c5	-0.80236465
223	0xbf9a6e7e	-1.206497

linear1.bias f4 [32]
0	0x3ecd558e	0.40104336
1	0xbeda7834	-0.42669833
2	0xbed9ed24	-0.42563736
3	0xbeb49129	-0.35266998
4	0xbebacc7b	-0.3648413
5	0xbe4ba56b	-0.1988732
6	0xbf4ac954	-0.7921345
7	0xbe2c41be	-0.16821954
8	0xbebdcf53	-0.37072238
9	0xbe04be80	-0.12963295
10	0xbe86db42	-0.26339155
11	0xbe229b3e	-0.15879533
12	0x3fe7ab87	1.8099221
13	0xbf230b71	-0.63689333
14	0xbe49a213	-0.19690733
15	0x3f7bcc57	0.9835867
16	0xbec8cc49	-0.39218357
17	0x3fc51a2e	1.5398614
18	0x3e87c47a	0.26517087
19	0xbe99bdb4	-0.30027544
20	0xbe5d9ab5	-0.21641047
21	0xbf7f5fbe	-0.99755466
22	0xbef34d57	-0.47519943
23	0xbfde1f59	-1.7353317
24	0xbd47dab8	-0.04879257
25	0xbe08149e	-0.13289115
26	0xbf82b6f0	-1.0212078
27	0xbe6c76ac	-0.23092145
28	0xbd403796	-0.04692801
29	0xbeba87ac	-0.36431634
30	0x3eb4e5eb	0.35331663
31	0xbf02f718	-0.51158285

linear2.weight f4 [32, 32]
0	0xbe28ae5e	-0.16472766
1	0xbe4b414e	-0.1984913
2	0xbe11155d	-0.14168306
3	0x3de19ffa	0.11016841
4	0xbd432664	-0.047644034
5	0xbe411ff9	-0.18859853
6	0xbde6b31b	-0.112646304
7	0xbd07df1a	-0.03317175
8	0x3c9e7a24	0.01934535
9	0xbe130973	-0.14359073
10	0x3d93b933	0.07213058
11	0xbe2dd4c7	-0.169757
12	0xbd62221e	-0.055208318
13	0xbd65cd80	-0.056104183
14	0xbd290a84	-0.041269794
15	0xbdd82750	-0.10554373
16	0x3c81b6c8	0.015834227
17	0xbceacf44	-0.028663285
18	0xbe4fb082	-0.20282176
19	0xbe874626	-0.26420707
20	0xbd857801	-0.065170296
21	0xbde975cd	-0.11399422
22	0xbd34a916	-0.044106565
23	0xbc919cdc	-0.017774992
24	0x3d6d39ac	0.05791633
25	0xbd50f924	-0.05101885
26	0xbdcf08a5	-0.10109071
27	0xbe0a01d4	-0.1347726
28	0x3b08cb20	0.0020873025
29	0x3dcc5c3a	0.09978528
30	0x3bca68c0	0.006177038
31	0xbdfaf711	-0.122541554
32	0xbe79fbfc	-0.2441253
33	0xbd86560a	-0.065593794
34	0xbdcb3317	-0.09921854
35	0x3dedc69e	0.11610149
36	0xbdc64563	-0.09681203
37	0xbe45d63c	-0.19320005
38	0xbe8e8faa	-0.27843982
39	0xbe14c8be	-0.14529702
40	0xbaa38ec0	-0.0012478456
41	0xbd728338	-0.05920717
42	0xbc8a9460	-0.016916454
43	0x3d6bdc62	0.05758322
44	0xbd690dd2	-0.056897946
45	0xbd475292	-0.04866273
46	0x3cd9f240	0.026604772
47	0xbd1ec7e2	-0.03876484
48	0xbd694472	-0.05695004
49	0xbda4017a	-0.08008094
50	0xbdf3827a	-0.11890121
51	0x3c811dd8	0.0157613
52	0xbd2ccb22	-0.04218591
53	0xbe38984d	-0.18026848
54	0x3c677e50	0.014129236
55	0xbe8442ad	-0.2583212
56	0x3c968c0c	0.018377326
57	0x3e13f311	0.14448191
58	0xbe67e956	-0.22647604
59	0x3b9115be	0.0044276407
60	0xbe7a96e0	-0.24471617
61	0xbd5d2c94	-0.05399759
62	0x3beaba70	0.0071633384
63	0xbcd9ceb4	-0.026587822
64	0xbdcae504	-0.099069625
65	0xbca1eb08	-0.019765392
66	0x3e290f85	0.16509826
67	0xbd9bdffe	-0.076110825
68	0xbdbdd8dd	-0.09269879
69	0xbd718f74	-0.0589747
70	0xbd3b2fc4	-0.04569985
71	0x3cf36920	0.029713213
72	0x3df41ca6	0.11919527
73	0xbe07f3fc	-0.13276666
74	0xbdef3a30	-0.1168102
75	0x3dbe1656	0.09281604
76	0xbcfee1a8	-0.03111346
77	0xbdb757ed	-0.089523174
78	0xbd891d0c	-0.066949934
79	0xbd8d8be5	-0.069114484
80	0xbdf7d62c	-0.12101397
81	0x3cba0ea0	0.022712052
82	0xbd311180	-0.04322958
83	0xbd92765f	-0.07151484
84	0xbe636528	-0.22206557
85	0xbd9e5765	-0.07731513
86	0x3d701fbc	0.058624014
87	0x3d8a83c2	0.06763412
88	0x3dc8a48a	0.09797008
89	0x3d8f8a26	0.070087716
90	0x3db6267a	0.088940576
91	0xbe23a897	-0.1598228
92	0x3d801db9	0.06255669
93	0x3d45eaa0	0.04831946
94	0xbd56b7b2	-0.05242128
95	0x3db7aa26	0.08968
96	0xc0183718	-2.3783627
97	0xc04ad3b6	-3.1691718
98	0xbe094c2f	-0.13407968
99	0xbd28b0c8	-0.041184217
100	0x3e20aa3d	0.15689941
101	0x3e124498	0.14283979
102	0x3eb24c59	0.34823874
103	0xbd45e6fe	-0.048315994
104	0x3d532bde	0.051555507
105	0xbd858c00	-0.065208435
106	0xbd884f2d	-0.066557266
107	0xba32e300	-0.0006823987
108	0xc00df190	-2.2178688
109	0xc02a538b	-2.661349
110	0x3dc9394e	0.09825383
111	0xbece0218	-0.40235972
112	0xbccd7980	-0.02508235
113	0x3de7830c	0.11304292
114	0xbfafb95d	-1.3728443
115	0x3fa94f26	1.3227279
116	0xbe159562	-0.14607766
117	0x3f18df45	0.5971568
118	0xbe8d27f0	-0.27569532
119	0xbf3c26c4	-0.7349665
120	0x3dc32985	0.095294036
121	0x3b9df860	0.0048208684
122	0xc022952b	-2.5403545
123	0xbf49c623	-0.7881796
124	0xc11b9d20	-9.725861
125	0xbdd77695	-0.105206646
126	0x40539f77	3.306608
127	0xc0778cad	-3.8679612
128	0xc00b1ad0	-2.1735115
129	0xc0a3ef6e	-5.1229773
130	0x3f04f076	0.51929414
131	0xbda71563	-0.08158376
132	0x3e0e035e	0.13868472
133	0xbff42c0d	-1.9075943
134	0xbf5707b8	-0.8399615
135	0x3ded0d11	0.11574758
136	0x3e266ead	0.16253157
137	0x3ce72f8c	0.028220914
138	0x3de07c28	0.10961181
139	0x3d320840	0.0434649
140	0x3e8f88b4	0.28033984
141	0xbfea8f22	-1.8324931
142	0x3e3755c2	0.17903808
143	0xbf54ef0f	-0.83177274
144	0xbe217bb7	-0.1576985
145	0xbe073838	-0.1320504
146	0xc0b506b3	-5.657068
147	0x3efcb64a	0.49357826
148	0x3eb7778b	0.35833392
149	0xbf615a22	-0.88028157
150	0x3c91959c	0.017771535
151	0xbdb34d41	-0.087549694
152	0x3e2508b6	0.16116604
153	0x3dfab342	0.12241222
154	0xbda569ea	-0.08076842
155	0x3eac9e4b	0.33714518
156	0xc0ce5243	-6.4475417
157	0x3e2baa45	0.16764171
158	0x3fde9964	1.7390561
159	0x3f97d171	1.1860791
160	0x3e2c0547	0.16798888
161	0xbe18cd54	-0.14922076
162	0x3e345b90	0.17613053
163	0xbd3b2a54	-0.045694664
164	0x3da623a0	0.08112264
165	0x3fc1f78a	1.5153668
166	0x3fb32569	1.3995792
167	0x3e100d5b	0.14067595
168	0x3e2f1246	0.17096815
169	0x3cacc328	0.021089152
170	0xbca22c8c	-0.019796632
171	0x3e4658df	0.19369839
172	0x3f90bef7	1.1308278
173	0x3f0e1a0f	0.5550851
174	0x3e4735da	0.19454136
175	0x3fa7b640	1.3102493
176	0x3e1d116d	0.15338679
177	0x3fa716d0	1.3053837
178	0xc138cb1e	-11.549589
179	0x3e0de3f2	0.13856485
180	0x3d2de966	0.042458914
181	0x3e419af5	0.18906768
182	0x3b835620	0.0040080696
183	0x3ec57793	0.3856779
184	0x3dcf2e1a	0.10116215
185	0x3e298d11	0.16557719
186	0xbe1687b6	-0.14700207
187	0xc0243dbe	-2.5662684
188	0xc11dd6db	-9.864955
189	0x3e0d690f	0.13809608
190	0xc0495f1f	-3.1464307
191	0x3e8edc6a	0.27902538
192	0xbfc918e3	-1.571072
193	0xbebef7b8	-0.3729837
194	0xbe373bbf	-0.17893885
195	0xbe141a5e	-0.14463183
196	0x3db168ce	0.08662568
197	0xbef81d32	-0.48459774
198	0xbeddd031	-0.433229
199	0x3e246ba6	0.1605669
200	0x3ca4b4b4	0.020105697
201	0x3d9af245	0.075657405
202	0xbe0d3c2a	-0.13792482
203	0x3e86f2c8	0.26357102
204	0xbfbc2e5b	-1.4701647
205	0x3ffc91c0	1.9731979
206	0xbcefc4a0	-0.029268563
207	0xc103e82d	-8.244184
208	0xbddc12dd	-0.107457854
209	0xbf81107e	-1.0083158
210	0x3f9d8494	1.2306085
211	0xbf855838	-1.0417547
212	0xbd04537c	-0.03230618
213	0xbe9df549	-0.308512
214	0xbe56537c	-0.20930284
215	0xbcc2dbd0	-0.023786455
216	0xbdab51b4	-0.08365193
217	0xbbf6f2c0	-0.0075362623
218	0xbf0ffccb	-0.56245106
219	0xbfe3fc4c	-1.781137
220	0xc0bf2938	-5.9737816
221	0x3e1c2853	0.15249757
222	0xc09d92ad	-4.9241548
223	0x3f94efdf	1.1635703
224	0xbe00eeee	-0.12591144
225	0xbe2eb503	-0.17061238
226	0xbc5ae500	-0.013360262
227	0xbc4beed0	-0.012447074
228	0x3c8e5a65	0.017377088
229	0xbd9451ec	-0.07242188
230	0xbdd46235	-0.10370294
231	0x3dfcb6fd	0.1233959
232	0x3c193200	0.0093503
233	0x3df5be00	0.1199913
234	0x3df480aa	0.11938603
235	0x3d915884	0.07096961
236	0xbf1c80ce	-0.6113404
237	0xbe89e278	-0.26930594
238	0xbd9cd916	-0.07658593
239	0xbd8ff8cc	-0.07029876
240	0x3e0de0e3	0.13855319
241	0xbf11ae56	-0.5690664
242	0x3f0da98b	0.5533683
243	0x3e0987df	0.13430737
244	0xbc8305d8	-0.015993997
245	0xbee4686f	-0.44610927
246	0x3dfac93c	0.12245414
247	0x3d033435	0.03203221
248	0x3dbcfe1a	0.092281535
249	0xbcce60a0	-0.025192559
250	0xbe376b1b	-0.17911951
251	0xbefbedc2	-0.49204832
252	0xbef4aaa4	-0.47786438
253	0xbcb52160	-0.022110641
254	0xbe78eef2	-0.243099
255	0xbd19e0fa	-0.03756807

linear2.bias f4 [32]
0	0xbe3bc63e	-0.18337342
1	0xbd27ac64	-0.04093589
2	0xbe85c176	-0.2612416
3	0x3fa3a6ce	1.278528
4	0x3f36f11f	0.7146167
5	0xbff74048	-1.9316492
6	0x3fce2347	1.6104516
7	0xbf19cfbb	-0.60082597
8	0xbe94bc14	-0.29049742
9	0xbe9ff4e7	-0.31241533
10	0xbd8e31ff	-0.0694313
11	0xbfdf5d9e	-1.7450445
12	0xbfee084d	-1.8596283
13	0x3faaece4	1.3353543
14	0xbd746592	-0.059667177
15	0x4005ce54	2.0907183
16	0xbfcf9867	-1.6218385
17	0xbebad8d7	-0.3649356
18	0xbfc88f4c	-1.5668731
19	0xbe1c643b	-0.1527261
20	0x3f650ca7	0.8947243
21	0x3f9ff324	1.2496076
22	0xbe9b520c	-0.30336034
23	0xbf31874b	-0.69347066
24	0x3f6cde7e	0.92526996
25	0xbf1ebe69	-0.6200929
26	0xbd95696b	-0.072954975
27	0xbe8736ff	-0.26409146
28	0xbf45a85a	-0.7721001
29	0xbe60232e	-0.2188842
30	0xbeeebd68	-0.4662888
31	0x3f2bbefd	0.670883

output.weight f4 [3, 32]
0	0x3d147456	0.03624376
1	0x3d23cbb2	0.03998918
2	0xbdcf2050	-0.10113585
3	0x3f56fa77	0.8397593
4	0x3df476f7	0.11936753
5	0x3f92db12	1.1473105
6	0x401a143c	2.407485
7	0x3d9ba2a2	0.07599379
8	0x3d1d4caa	0.03840319
9	0x3dad3a7a	0.08458419
10	0xbc93a814	-0.018024482
11	0x3f806903	1.0032047
12	0x3f1b0d00	0.6056671
13	0xbfb4bbaa	-1.411977
14	0xbbe60480	-0.0070195794
15	0x3f10219d	0.5630129
16	0xbf7e284f	-0.99280256
17	0x3d001aca	0.031275548
18	0xbffaad58	-1.958415
19	0x40262da0	2.5965347
20	0xbf3b5bb8	-0.73186827
21	0xbf68e5e6	-0.909758
22	0x3d123a73	0.035700273
23	0xbfa3d854	-1.2800393
24	0xbf97594e	-1.1824129
25	0xbccea980	-0.025227308
26	0x3d6b03ec	0.057376787
27	0xbd90a11d	-0.0706198
28	0x3e9b46c6	0.30327433
29	0x3c67b980	0.014143348
30	0x3c11db60	0.008902401
31	0xbfae744c	-1.3629241
32	0xbcd26a94	-0.025685586
33	0xbe292b2b	-0.16520374
34	0x3ccbca28	0.024876669
35	0x3f6f9df5	0.936004
36	0x3f01e3cb	0.5073821
37	0x3fc31859	1.5241805
38	0x3fe80b83	1.8128513
39	0x3b598b80	0.003319472
40	0xbdadf39e	-0.08493732
41	0x3d2a6528	0.041600376
42	0xbe4e899e	-0.20169684
43	0x3f239e46	0.6391338
44	0x3f170d4e	0.59004676
45	0xbfcd2310	-1.6026325
46	0xbd0c2546	-0.034215234
47	0x3f8f2ee1	1.1186181
48	0xbf942a9e	-1.1575506
49	0x3a033680	0.00050053746
50	0xbfea9e04	-1.8329473
51	0x4046d694	3.1068468
52	0xbf615342	-0.88017666
53	0xbf7edeea	-0.9955889
54	0x3df5db39	0.12004704
55	0xbfd7de62	-1.6864741
56	0x3e16980d	0.1470644
57	0x3e3965a3	0.18105178
58	0xbdf9c884	-0.121964484
59	0x3e2c28c0	0.1681242
60	0xbf2876e8	-0.65806437
61	0x3e1eaf67	0.15496598
62	0xbd49f532	-0.049306102
63	0xbf231428	-0.6370263
64	0x3ceba608	0.028765693
65	0xbe0694ab	-0.1314265
66	0xbe3258dd	-0.17416711
67	0x3f19cdfb	0.60079926
68	0xbf85c934	-1.0452027
69	0x3fad8bf7	1.3558339
70	0xbfac6182	-1.3467257
71	0xbdf8bf13	-0.121458195
72	0x3d49b7be	0.049247496
73	0xbd53d350	-0.051715195
74	0xbd7dc004	-0.0619507
75	0x3f6b7726	0.9197868
76	0x3eb12147	0.345957
77	0xbfcf880e	-1.6213396
78	0xbdc56c35	-0.096397795
79	0x4070259e	3.752296
80	0xbf8a517d	-1.0806118
81	0xbe218410	-0.15773034
82	0xc0010253	-2.0157669
83	0x401792d0	2.3683357
84	0xbf05e044	-0.5229533
85	0xbf6c7dec	-0.9237964
86	0x3d231196	0.039811693
87	0xc0102b77	-2.252653
88	0x3f168648	0.58798647
89	0x3dc4a199	0.09601135
90	0x3d9232e3	0.07138612
91	0x3dbcc674	0.092175394
92	0xbf74f03a	-0.95679057
93	0x3c842484	0.016130693
94	0xbd2445cc	-0.040105626
95	0xbf15b79e	-0.584833

output.bias f4 [3]
0	0x3e26431f	0.16236542
1	0x3e2cb35b	0.16865294
2	0x3e255c87	0.16148578

square_avg f4 [32, 7]
0	0x36e32e2c	6.7705023e-06
1	0x3477879a	2.3052999e-07
2	0x340f910d	1.3370682e-07
3	0x35106a43	5.379881e-07
4	0x3280e2b5	1.5004256e-08
5	0x3579dbd8	9.3079643e-07
6	0x3a670bc3	0.00088137033
7	0x37cbfa24	2.4315967e-05
8	0x3938abcd	0.00017611608
9	0x35c10bed	1.4383091e-06
10	0x35201aef	5.964384e-07
11	0x3929d94f	0.0001619805
12	0x35682cff	8.6492213e-07
13	0x092b148b	2.0593036e-33
14	0x00000032	7e-44
15	0x00000032	7e-44
16	0x00000032	7e-44
17	0x00000032	7e-44
18	0x00000032	7e-44
19	0x00000032	7e-44
20	0x00000032	7e-44
21	0x00000000	0.0
22	0x00000000	0.0
23	0x00000000	0.0
24	0x00000000	0.0
25	0x00000000	0.0
26	0x00000000	0.0
27	0x00000000	0.0
28	0x00000032	7e-44
29	0x00000032	7e-44
30	0x00000032	7e-44
31	0x00000032	7e-44
32	0x00000032	7e-44
33	0x00000032	7e-44
34	0x00000032	7e-44
35	0x38c6b7aa	9.475586e-05
36	0x3939aeac	0.00017708045
37	0x361eb644	2.3649927e-06
38	0x35c8ada0	1.4951693e-06
39	0x3900020a	0.00012207791
40	0x363a5651	2.7766403e-06
41	0x3ba7ef67	0.0051249745
42	0x397dde90	0.00024210871
43	0x3ac6e2fa	0.0015173845
44	0x37384e16	1.0985435e-05
45	0x36e8703d	6.927205e-06
46	0x3a7dd895	0.00096834573
47	0x3781c2d9	1.5468731e-05
48	0x3d5dbd86	0.05413582
49	0x00000032	7e-44
50	0x00000032	7e-44
51	0x00000032	7e-44
52	0x00000032	7e-44
53	0x00000032	7e-44
54	0x00000032	7e-44
55	0x00000032	7e-44
56	0x00000032	7e-44
57	0x00000032	7e-44
58	0x00000032	7e-44
59	0x00000032	7e-44
60	0x00000032	7e-44
61	0x00000032	7e-44
62	0x00000032	7e-44
63	0x00000032	7e-44
64	0x00000032	7e-44
65	0x00000032	7e-44
66	0x00000032	7e-44
67	0x00000032	7e-44
68	0x00000032	7e-44
69	0x00000032	7e-44
70	0x00000032	7e-44
71	0x00000032	7e-44
72	0x00000032	7e-44
73	0x00000032	7e-44
74	0x00000032	7e-44
75	0x00000032	7e-44
76	0x00000000	0.0
77	0x00000032	7e-44
78	0x00000032	7e-44
79	0x00000032	7e-44
80	0x00000032	7e-44
81	0x00000000	0.0
82	0x00000032	7e-44
83	0x00000032	7e-44
84	0x3ab9e395	0.0014182205
85	0x3c92b590	0.017908841
86	0x3917af08	0.00014465686
87	0x38a19661	7.7050885e-05
88	0x3c6c0977	0.0144065535
89	0x39415c0e	0.00018440207
90	0x3e8f8865	0.28033748
91	0x35c5a95d	1.4726935e-06
92	0x39b00687	0.000335742
93	0x359a2295	1.1483959e-06
94	0x35d0243a	1.5507751e-06
95	0x398c871b	0.00026803542
96	0x35db63f5	1.6345863e-06
97	0x3aa36365	0.0012465535
98	0x00000032	7e-44
99	0x00000032	7e-44
100	0x00000032	7e-44
101	0x00000032	7e-44
102	0x00000032	7e-44
103	0x00000032	7e-44
104	0x00000032	7e-44
105	0x3ab75923	0.0013988357
106	0x3cbbd48f	0.022928504
107	0x38d79f38	0.00010281656
108	0x387fd8b2	6.099855e-05
109	0x3c203a9a	0.009779597
110	0x391660ba	0.00014341148
111	0x3eb57f67	0.35448763
112	0x00000032	7e-44
113	0x00000032	7e-44
114	0x00000032	7e-44
115	0x00000032	7e-44
116	0x00000032	7e-44
117	0x00000000	0.0
118	0x00000032	7e-44
119	0x3861bbbc	5.381902e-05
120	0x3b52a3fe	0.0032141204
121	0x371a2af2	9.189114e-06
122	0x3741d589	1.1553414e-05
123	0x3afd008a	0.0019302529
124	0x37b0e703	2.1088408e-05
125	0x3df53a2c	0.11973986
126	0x38d95bfd	0.000103645005
127	0x392614eb	0.00015838786
128	0x3785a28f	1.5930533e-05
129	0x3794618b	1.7688397e-05
130	0x35e62878	1.7148113e-06
131	0x378af6ef	1.656587e-05
132	0x3d0c43ed	0.034244467
133	0x00000032	7e-44
134	0x00000032	7e-44
135	0x00000032	7e-44
136	0x00000032	7e-44
137	0x00000032	7e-44
138	0x00000032	7e-44
139	0x00000032	7e-44
140	0x00000032	7e-44
141	0x00000032	7e-44
142	0x00000032	7e-44
143	0x00000032	7e-44
144	0x00000032	7e-44
145	0x00000032	7e-44
146	0x00000032	7e-44
147	0x38bc8658	8.989562e-05
148	0x3a3265fc	0.0006805358
149	0x365ff5f2	3.3372748e-06
150	0x3659425e	3.237415e-06
151	0x3a0d23bc	0.0005384048
152	0x370dc1ea	8.449404e-06
153	0x3ccd56a9	0.025065737
154	0x00000032	7e-44
155	0x00000032	7e-44
156	0x00000032	7e-44
157	0x00000032	7e-44
158	0x00000032	7e-44
159	0x00000032	7e-44
160	0x00000032	7e-44
161	0x14e5d713	2.3207923e-26
162	0x145e0a00	1.1210108e-26
163	0x11b6d48b	2.8845527e-28
164	0x11200635	1.2623687e-28
165	0x00000032	7e-44
166	0x1171dd13	1.9079672e-28
167	0x168b4364	2.249919e-25
168	0x00000032	7e-44
169	0x00000032	7e-44
170	0x00000032	7e-44
171	0x00000032	7e-44
172	0x00000032	7e-44
173	0x00000032	7e-44
174	0x00000032	7e-44
175	0x00000000	0.0
176	0x00000000	0.0
177	0x00000000	0.0
178	0x00000000	0.0
179	0x00000000	0.0
180	0x00000000	0.0
181	0x00000000	0.0
182	0x38ddc730	0.00010575203
183	0x3861edc0	5.3865602e-05
184	0x36328079	2.6598848e-06
185	0x367be9cd	3.7538005e-06
186	0x39538f7f	0.00020175985
187	0x36d3420c	6.295979e-06
188	0x3cd01153	0.025398886
189	0x388e4984	6.784781e-05
190	0x39a6f4fc	0.00031844515
191	0x35895b66	1.0233896e-06
192	0x35f4b307	1.823152e-06
193	0x37c9c6b5	2.4053597e-05
194	0x368195a8	3.861922e-06
195	0x3bde2781	0.0067796116
196	0x3c09e36d	0.008416039
197	0x3c914283	0.01773191
198	0x38de0162	0.000105860425
199	0x38b3fac5	8.5820946e-05
200	0x3c88af58	0.016685173
201	0x3967b9b2	0.00022099054
202	0x3ec817eb	0.39080748
203	0x00000000	0.0
204	0x00000000	0.0
205	0x00000000	0.0
206	0x00000000	0.0
207	0x00000000	0.0
208	0x00000000	0.0
209	0x00000000	0.0
210	0x39ac2821	0.00032836295
211	0x3a23f291	0.0006254102
212	0x373b730b	1.1172854e-05
213	0x37ab4f62	2.0421754e-05
214	0x39d0afdd	0.0003980388
215	0x37fd5ac9	3.0202225e-05
216	0x3d6a00ea	0.057129778
217	0x00000032	7e-44
218	0x00000032	7e-44
219	0x00000032	7e-44
220	0x00000032	7e-44
221	0x00000032	7e-44
222	0x00000032	7e-44
223	0x00000032	7e-44

square_avg f4 [32]
0	0x38e1f37e	0.0001077419
1	0x39aceff4	0.00032985175
2	0x00000032	7e-44
3	0x00000000	0.0
4	0x00000032	7e-44
5	0x3a02551e	0.000497179
6	0x3b3e9ac5	0.002908395
7	0x00000032	7e-44
8	0x00000032	7e-44
9	0x00000032	7e-44
10	0x00000032	7e-44
11	0x00000032	7e-44
12	0x3d25d9d7	0.04049095
13	0x39ffbe69	0.00048779257
14	0x00000032	7e-44
15	0x3d275cb1	0.04085988
16	0x00000032	7e-44
17	0x3be8838b	0.0070957593
18	0x3b4c421a	0.003116733
19	0x00000032	7e-44
20	0x00000032	7e-44
21	0x3acb80fd	0.0015526112
22	0x00000032	7e-44
23	0x151aec8f	3.1286664e-26
24	0x00000032	7e-44
25	0x00000000	0.0
26	0x3a8893c6	0.0010420016
27	0x3a1e0805	0.00060284167
28	0x3d75259d	0.059850324
29	0x00000000	0.0
30	0x3b874ec2	0.0041292617
31	0x00000032	7e-44

square_avg f4 [32, 32]
0	0x00000032	7e-44
1	0x00000032	7e-44
2	0x00000032	7e-44
3	0x00000000	0.0
4	0x00000032	7e-44
5	0x00000032	7e-44
6	0x00000032	7e-44
7	0x00000032	7e-44
8	0x00000032	7e-44
9	0x00000000	0.0
10	0x00000032	7e-44
11	0x00000000	0.0
12	0x00000032	7e-44
13	0x00000032	7e-44
14	0x00000000	0.0
15	0x00000032	7e-44
16	0x00000000	0.0
17	0x00000032	7e-44
18	0x00000032	7e-44
19	0x00000032	7e-44
20	0x00000032	7e-44
21	0x00000032	7e-44
22	0x00000032	7e-44
23	0x00000032	7e-44
24	0x00000032	7e-44
25	0x00000000	0.0
26	0x00000032	7e-44
27	0x00000032	7e-44
28	0x00000032	7e-44
29	0x00000000	0.0
30	0x00000032	7e-44
31	0x00000032	7e-44
32	0x00000032	7e-44
33	0x00000032	7e-44
34	0x00000032	7e-44
35	0x00000000	0.0
36	0x00000032	7e-44
37	0x00000032	7e-44
38	0x00000032	7e-44
39	0x00000032	7e-44
40	0x00000032	7e-44
41	0x00000032	7e-44
42	0x00000032	7e-44
43	0x00000032	7e-44
44	0x00000032	7e-44
45	0x00000032	7e-44
46	0x00000032	7e-44
47	0x00000032	7e-44
48	0x00000000	0.0
49	0x00000032	7e-44
50	0x00000032	7e-44
51	0x00000032	7e-44
52	0x00000032	7e-44
53	0x00000032	7e-44
54	0x00000032	7e-44
55	0x00000032	7e-44
56	0x00000032	7e-44
57	0x00000000	0.0
58	0x00000032	7e-44
59	0x00000032	7e-44
60	0x00000032	7e-44
61	0x00000000	0.0
62	0x00000032	7e-44
63	0x00000032	7e-44
64	0x00000000	0.0
65	0x00000000	0.0
66	0x00000000	0.0
67	0x00000000	0.0
68	0x00000000	0.0
69	0x00000032	7e-44
70	0x00000000	0.0
71	0x00000000	0.0
72	0x00000000	0.0
73	0x00000000	0.0
74	0x00000000	0.0
75	0x00000000	0.0
76	0x00000000	0.0
77	0x00000032	7e-44
78	0x00000000	0.0
79	0x00000000	0.0
80	0x00000000	0.0
81	0x00000032	7e-44
82	0x00000000	0.0
83	0x00000000	0.0
84	0x00000032	7e-44
85	0x00000000	0.0
86	0x00000000	0.0
87	0x00000000	0.0
88	0x00000000	0.0
89	0x00000000	0.0
90	0x00000000	0.0
91	0x00000032	7e-44
92	0x00000032	7e-44
93	0x00000000	0.0
94	0x00000000	0.0
95	0x00000000	0.0
96	0x31886139	3.969174e-09
97	0x352d2d51	6.4513466e-07
98	0x00000032	7e-44
99	0x00000000	0.0
100	0x00000032	7e-44
101	0x390fedbf	0.0001372611
102	0x3904ce29	0.00012665302
103	0x00000032	7e-44
104	0x00000032	7e-44
105	0x00000032	7e-44
106	0x00000032	7e-44
107	0x00000032	7e-44
108	0x38303d31	4.201866e-05
109	0x350614ce	4.9949165e-07
110	0x00000032	7e-44
111	0x392cdf89	0.00016486472
112	0x00000032	7e-44
113	0x39445499	0.00018723532
114	0x3706cedd	8.0351865e-06
115	0x00000032	7e-44
116	0x00000032	7e-44
117	0x392e9544	0.00016649539
118	0x00000032	7e-44
119	0x09cb1813	4.889311e-33
120	0x00000032	7e-44
121	0x00000000	0.0
122	0x360c13bb	2.087311e-06
123	0x353dd205	7.0713605e-07
124	0x353b4d6a	6.977558e-07
125	0x00000000	0.0
126	0x37b77190	2.1868182e-05
127	0x00000032	7e-44
128	0x2d4b500f	1.1556991e-11
129	0x305e028e	8.076676e-10
130	0x00000032	7e-44
131	0x00000000	0.0
132	0x00000032	7e-44
133	0x33a7e636	7.8184186e-08
134	0x369b4c19	4.628219e-06
135	0x00000032	7e-44
136	0x00000032	7e-44
137	0x00000032	7e-44
138	0x00000032	7e-44
139	0x00000032	7e-44
140	0x37d9f6d6	2.5983358e-05
141	0x33c7ceef	9.3043006e-08
142	0x00000032	7e-44
143	0x37dac4cc	2.6079266e-05
144	0x00000000	0.0
145	0x38c76e06	9.509553e-05
146	0x340a6b61	1.2891316e-07
147	0x00000032	7e-44
148	0x00000032	7e-44
149	0x35f6361b	1.8344175e-06
150	0x00000032	7e-44
151	0x00000032	7e-44
152	0x00000032	7e-44
153	0x00000000	0.0
154	0x3520c288	5.9887725e-07
155	0x334c679c	4.7591683e-08
156	0x32848806	1.5428679e-08
157	0x00000000	0.0
158	0x3697786a	4.5141687e-06
159	0x00000032	7e-44
160	0x33308fb6	4.1108898e-08
161	0x37da5215	2.6025848e-05
162	0x00000032	7e-44
163	0x00000000	0.0
164	0x00000032	7e-44
165	0x39e2b9fb	0.00043244645
166	0x39b9dd32	0.00035450753
167	0x00000032	7e-44
168	0x00000032	7e-44
169	0x00000032	7e-44
170	0x00000032	7e-44
171	0x00000032	7e-44
172	0x39d3b976	0.00040383235
173	0x39318445	0.0001692931
174	0x00000032	7e-44
175	0x3a467f47	0.00075720664
176	0x00000000	0.0
177	0x3a96a015	0.00114918
178	0x35a57d7a	1.2329976e-06
179	0x00000032	7e-44
180	0x00000032	7e-44
181	0x394ffe20	0.00019835727
182	0x00000032	7e-44
183	0x0a667686	1.1096389e-32
184	0x00000032	7e-44
185	0x00000000	0.0
186	0x36a3f009	4.8857223e-06
187	0x35cf42e1	1.5442166e-06
188	0x35aa9ba1	1.2711281e-06
189	0x00000000	0.0
190	0x3764a19d	1.36274875e-05
191	0x00000032	7e-44
192	0x131c65bd	1.974013e-27
193	0x3821fb76	3.8619582e-05
194	0x00000032	7e-44
195	0x00000000	0.0
196	0x00000032	7e-44
197	0x382cec1a	4.1227882e-05
198	0x39583c47	0.0002062182
199	0x00000032	7e-44
200	0x00000032	7e-44
201	0x00000032	7e-44
202	0x00000000	0.0
203	0x00000032	7e-44
204	0x3882e957	6.242346e-05
205	0x39848898	0.00025278772
206	0x00000032	7e-44
207	0x36454c85	2.9399828e-06
208	0x00000000	0.0
209	0x3a193c3d	0.0005845463
210	0x00000032	7e-44
211	0x00000032	7e-44
212	0x00000032	7e-44
213	0x3a3e5d4f	0.0007261829
214	0x00000032	7e-44
215	0x00000032	7e-44
216	0x00000032	7e-44
217	0x00000000	0.0
218	0x358de47a	1.0571814e-06
219	0x2f408f26	1.7513155e-10
220	0x359cb6da	1.1676123e-06
221	0x00000000	0.0
222	0x3185bead	3.8924868e-09
223	0x00000032	7e-44
224	0x00000032	7e-44
225	0x00000032	7e-44
226	0x00000000	0.0
227	0x00000000	0.0
228	0x00000032	7e-44
229	0x00000032	7e-44
230	0x00000032	7e-44
231	0x00000032	7e-44
232	0x00000032	7e-44
233	0x00000032	7e-44
234	0x00000000	0.0
235	0x00000032	7e-44
236	0x00000032	7e-44
237	0x00000032	7e-44
238	0x00000032	7e-44
239	0x00000032	7e-44
240	0x00000000	0.0
241	0x00000032	7e-44
242	0x00000032	7e-44
243	0x00000032	7e-44
244	0x00000032	7e-44
245	0x00000032	7e-44
246	0x00000032	7e-44
247	0x00000032	7e-44
248	0x00000032	7e-44
249	0x00000000	0.0
250	0x00000032	7e-44
251	0x00000032	7e-44
252	0x00000032	7e-44
253	0x00000000	0.0
254	0x00000032	7e-44
255	0x00000032	7e-44

square_avg f4 [32]
0	0x00000032	7e-44
1	0x00000032	7e-44
2	0x00000032	7e-44
3	0x3a087072	0.0005204744
4	0x3934a0a0	0.00017225975
5	0x3a47a4c7	0.00076158013
6	0x3ac86425	0.0015288634
7	0x00000032	7e-44
8	0x00000032	7e-44
9	0x00000032	7e-44
10	0x00000032	7e-44
11	0x390f3efb	0.00013661005
12	0x382e34f7	4.153416e-05
13	0x3b6421a3	0.0034810088
14	0x00000032	7e-44
15	0x3b8127a0	0.0039414912
16	0x38303ddf	4.2019292e-05
17	0x00000032	7e-44
18	0x394404a9	0.00018693753
19	0x3abcc167	0.00144009
20	0x3a1ffc61	0.0006102976
21	0x3a48a584	0.0007654058
22	0x00000032	7e-44
23	0x39a68dd2	0.00031767652
24	0x396bdfee	0.00022494767
25	0x00000032	7e-44
26	0x00000032	7e-44
27	0x00000032	7e-44
28	0x38cd9b12	9.804046e-05
29	0x00000032	7e-44
30	0x00000032	7e-44
31	0x39ccbb28	0.00039049354

square_avg f4 [3, 32]
0	0x00000032	7e-44
1	0x00000032	7e-44
2	0x00000000	0.0
3	0x39ed64e5	0.00045279335
4	0x38925c3a	6.979001e-05
5	0x3a7316e2	0.0009273124
6	0x38e150d0	0.000107438886
7	0x00000032	7e-44
8	0x00000032	7e-44
9	0x00000032	7e-44
10	0x00000032	7e-44
11	0x38cd5d64	9.792557e-05
12	0x397175c2	0.00023027419
13	0x3b9f75b5	0.0048663267
14	0x00000032	7e-44
15	0x38da0e46	0.00010397709
16	0x387d8aa5	6.0449023e-05
17	0x00000032	7e-44
18	0x3936195f	0.00017366324
19	0x38223a88	3.867832e-05
20	0x3a855ade	0.0010174175
21	0x39f11e03	0.00045989463
22	0x00000032	7e-44
23	0x383e6c10	4.540017e-05
24	0x39079540	0.00012930203
25	0x00000032	7e-44
26	0x00000032	7e-44
27	0x00000032	7e-44
28	0x38dea042	0.00010615635
29	0x00000000	0.0
30	0x00000032	7e-44
31	0x39a2a890	0.00031024637
32	0x00000032	7e-44
33	0x00000032	7e-44
34	0x00000032	7e-44
35	0x39b4b5c7	0.0003446771
36	0x38aa09aa	8.108032e-05
37	0x39f7e8cf	0.00047284967
38	0x3948ecbe	0.0001916168
39	0x00000032	7e-44
40	0x00000032	7e-44
41	0x00000032	7e-44
42	0x00000032	7e-44
43	0x3842093f	4.6261815e-05
44	0x3881a4a2	6.1818646e-05
45	0x3b57b771	0.0032915736
46	0x00000032	7e-44
47	0x3932bcf1	0.00017045789
48	0x389894e5	7.2756586e-05
49	0x00000032	7e-44
50	0x3892ee0e	7.006164e-05
51	0x38cca6da	9.7585566e-05
52	0x39d30d40	0.00040254928
53	0x3991f069	0.00027835675
54	0x00000032	7e-44
55	0x382cfb5b	4.124209e-05
56	0x3a007ee7	0.00049017224
57	0x00000032	7e-44
58	0x00000032	7e-44
59	0x00000032	7e-44
60	0x39189bce	0.00014553891
61	0x00000000	0.0
62	0x00000032	7e-44
63	0x39a3c29f	0.00031234787
64	0x00000000	0.0
65	0x00000000	0.0
66	0x00000000	0.0
67	0x3a02fc8b	0.0004996738
68	0x37dc0f38	2.623313e-05
69	0x3a1af542	0.000591118
70	0x388e1f49	6.776915e-05
71	0x00000032	7e-44
72	0x00000032	7e-44
73	0x00000032	7e-44
74	0x00000032	7e-44
75	0x388b844e	6.65268e-05
76	0x389438f7	7.0678005e-05
77	0x3b96183c	0.0045805257
78	0x00000032	7e-44
79	0x3997bda9	0.00028942272
80	0x36384df6	2.7463516e-06
81	0x00000000	0.0
82	0x38f07cfe	0.000114673734
83	0x3886b054	6.4224616e-05
84	0x3a023fcb	0.00049686123
85	0x3a24b660	0.00062832795
86	0x00000032	7e-44
87	0x37d014ca	2.4805213e-05
88	0x3923a3e1	0.00015605941
89	0x00000032	7e-44
90	0x00000032	7e-44
91	0x00000032	7e-44
92	0x389dd163	7.525345e-05
93	0x00000032	7e-44
94	0x00000032	7e-44
95	0x3a6d6edf	0.00090573536

square_avg f4 [3]
0	0x39e52d43	0.00043712006
1	0x39a4cb17	0.0003143183
2	0x39f49e89	0.00046657425
