train2t.pt (torch_old, 15964 bytes, 16 tensors)

linear1.weight f4 [32, 7]
00000000: f9a9 533e 96ec b3be e35b 6cbe 22c3 dcbd
00000010: c047 413b 2d0c e9bd fcc9 16be bce1 97be
00000020: 7646 513e 7558 8fbe 70bd b5bd 40a0 57bd
00000030: 0767 9b3e 48d7 9cbd b219 4f40 f27a 9e3f
00000040: fc52 9c42 9f4f 3ec1 a09a 91be 9b2b 4cc0
00000050: 57d6 5ebe 94ae 4640 a725 38c0 50b3 fe41
00000060: 0dc0 36c2 32e7 88be eecf 1a3f 779a 67be
00000070: 3492 3340 f419 e6be 1574 ae42 eea1 31c0
00000080: 25f1 a13e 5a27 823f 8a18 cebf 178d 3840
00000090: 040a c9be 0338 3242 0a69 3942 d405 d3be
000000a0: a566 5c3f ddea 6f3d f4b8 c03d 1110 8cbe
000000b0: ea75 0f3e b54e 99be 4423 84be 7b01 973e
000000c0: fb50 65be 6a3a 64c0 64bf f9be d07f b6c1
000000d0: 03e9 e0c1 4a3a 78bf 0974 5b41 a2c8 073f
000000e0: 424f d7c0 c41f 6b3d a223 b0be 7b19 983d
000000f0: 7cfa 43be d6e4 8e3e 4c21 233c 8962 8540
00000100: 22ae bac0 26af 0a41 6e9c 5ec2 fd31 4c3d
00000110: 22d6 4040 b9ee 3dbf 00bc 64bd 8497 afbe
00000120: aeec a8be 6110 9a3e b0da 82be 3a0d 08be
00000130: 2046 af3c 63c4 8bbf ef14 d5c0 892e 6cc2
00000140: e90e 28c2 7925 6dbe 786b b83b e65d 023f
00000150: 13ce 2cc0 c604 7540 5fc1 05c2 36c8 7242
00000160: f72e febe 63f9 51bf c550 283e 9672 4fbe
00000170: 7546 39be 7f83 233d 1a90 65be 44bb abbe
00000180: ea79 a93d 7847 693d 7165 b53f a957 ecbe
00000190: 03e3 b440 57ca 673f e192 2ebf 9dda d83d
000001a0: 9708 42c0 fe88 303e ea62 1fbe acf9 793e
000001b0: 6fdc 63be 1eb9 00be d534 26be d8c7 d0bd
000001c0: c317 853f 58ab e9c0 6ce4 06c1 c751 f6c1
000001d0: 87eb 75bf 6cdd 4cc0 023a 22c0 504d ce3d
000001e0: 0640 d0bd 36b6 66bd b692 ed3d 7eb6 26be
000001f0: c2ea 62be f9fd 9ebe 5867 1740 7488 edc0
00000200: 1346 0542 b632 d041 81ad 46bf d3cf fd40
00000210: 53c3 12bf 5397 dbbf a0d8 8c3f e290 99c2
00000220: 7715 843e 5054 21bf 5a9f 963f 64ae 383e
00000230: 35f9 13be 7a3b 2f3c ff7c c93d 9989 c43e
00000240: 665b f53d 291c 8d3d 2027 28bc de82 af3f
00000250: bca3 3cc0 a853 0b40 954d 3940 a346 41bf
00000260: fe57 ff3f e94a 29bf 67fe 8d40 08e8 98c0
00000270: c178 9442 e581 f6c0 5b6a 74bd 993b 5d40
00000280: a290 3c3e 4e76 fe40 017b 47c0 bfc6 bc40
00000290: d775 2b40 fa77 06c1 6eae 9d3f 2a1e 81bf
000002a0: 367c 28bf a65a 3d40 4b9b 3542 b846 12c2
000002b0: a800 1bbf fd53 5240 5c02 733f 66be 4ec0
000002c0: 6f43 a33e b63c 143f a573 e2be a0f1 4abf
000002d0: eb0f 8b3e 0735 a6be a888 fbbe 0839 e3be
000002e0: 7098 883e 1f68 d7be 0aaf edbe 1690 b83e
000002f0: f018 b5bc cc17 9ebe 8868 83bd 6b64 22be
00000300: a880 68bd b876 f1bd 335f 36be 493c 3dbe
00000310: 22f8 5640 0717 a740 ad54 4c41 e370 7ac1
00000320: 5ffe f63e 2057 9040 3676 aec0 8e32 e2c0
00000330: ace9 0740 acfc d0c1 5a3a 0fc1 271d e73b
00000340: 0888 e83b a686 9e3e ce87 793e f8b4 a4bf
00000350: f543 8bc1 1781 ae41 7e48 75bf 2712 0c40
00000360: 113d bac0 38d7 edc0 32c7 cc3f eebe 34c2
00000370: 8042 cdc1 c30b e23d 6fd4 1ec0 90f7 bb3f
0.20670308 -0.35141438 -0.23081927 -0.10779406 0.002949223 -0.113792755 -0.14725488 -0.2966441
0.20437035 -0.27997175 -0.08874023 -0.05264306 0.3035204 -0.07658249 3.2359433 1.238127
78.16208 -11.894439 -0.28438282 -3.1901615 -0.21761452 3.1044054 -2.877298 31.837555
-45.68755 -0.26738888 0.60473526 -0.22617517 2.8057985 -0.44941676 87.22672 -2.7755084
0.3162929 1.0168259 -1.6101239 2.8836114 -0.39265454 44.5547 46.352577 -0.41215384
0.86094123 0.058573592 0.09410277 -0.27356008 0.14009824 -0.2994286 -0.25808156 0.29493317
-0.22394173 -3.5660653 -0.48778832 -22.812408 -28.113775 -0.9696394 13.715829 0.53040516
-6.728425 0.05740334 -0.34402186 0.07426735 -0.19138521 0.27908963 0.009956669 4.168278
-5.8337564 8.667761 -55.652763 0.04985236 3.0130696 -0.74192387 -0.055843353 -0.34295285
-0.32993072 0.3009062 -0.2555747 -0.13286296 0.021395743 -1.0919307 -6.6588054 -59.045444
-42.01456 -0.23158826 0.0056280456 0.5092453 -2.7000778 3.8284163 -33.43884 60.69552
-0.49645206 -0.8202116 0.16437061 -0.20258555 -0.18093283 0.039920326 -0.22418252 -0.3354131
0.082752064 0.056952924 1.4171582 -0.4616063 5.6527114 0.9054312 -0.6819287 0.10588572
-3.0317743 0.17239758 -0.15565076 0.24411649 -0.22252057 -0.12570617 -0.16231091 -0.10194367
1.0397877 -7.302166 -8.430767 -30.78993 -0.9606251 -3.2010145 -2.5347905 0.1007334
-0.101684615 -0.056326114 0.116002485 -0.16280553 -0.22159865 -0.3105314 2.3656826 -7.422907
33.31843 26.024761 -0.77608496 7.931619 -0.5732929 -1.7155555 1.1003609 -76.782974
0.25797626 -0.63019276 1.176738 0.18035275 -0.14450534 0.010695333 0.09838294 0.3838623
0.119803235 0.06890137 -0.010263234 1.3711812 -2.9474936 2.176981 2.8953602 -0.7549841
1.9948728 -0.6612993 4.437305 -4.778324 74.23585 -7.7033563 -0.05967174 3.4567626
0.18414548 7.9519415 -3.1168826 5.899261 2.6790674 -8.404291 1.2318857 -1.008733
-0.6581453 2.9586577 45.401653 -36.56906 -0.60547876 3.2863762 0.94925475 -3.230371
0.31887385 0.5790514 -0.44228855 -0.7927494 0.27160582 -0.32462332 -0.49127698 -0.4437945
0.266788 -0.42071626 -0.46422607 0.3604743 -0.022106618 -0.3087753 -0.06416422 -0.15858619
-0.05676332 -0.11790222 -0.17809753 -0.18480028 3.3588948 5.221561 12.770673 -15.65256
0.48240945 4.5106354 -5.45193 -7.068671 2.1236372 -26.123375 -8.951746 0.007053036
0.0070962943 0.30962104 0.24368212 -1.2867727 -17.408182 21.813032 -0.9581374 2.188608
-5.8199544 -7.432522 1.599829 -45.186455 -25.65747 0.110373996 -2.481716 1.4684925

linear1.bias f4 [32]
00000000: 0694 c5be a947 70be 81ba 4cbe 450e 83bf
00000010: bb36 19be 3746 2d3e 5f84 6abe 94ad 2dc0
00000020: db02 36be 8249 0340 c634 8abe 9ff3 5a40
00000030: 6ea4 32c0 1fe7 e1be 9ca4 a4bf fb24 abbe
00000040: cd7f 9f40 f271 febd b08c 48c0 e2ec 1e40
00000050: aa20 9dbe 5d5c 9fbf d012 18bf 311e efc0
00000060: 4ecb cd3e 5de9 eebe 5b49 15bf de1c 31be
00000070: 5881 58c0 8530 3940 6ee0 cd40 3732 2ac0
-0.38589495 -0.23464836 -0.1999302 -1.023873 -0.14962284 0.16921316 -0.22902058 -2.7137194
-0.17774527 2.0513616 -0.26993388 3.4211195 -2.791286 -0.44121644 -1.2862735 -0.3342665
4.9843507 -0.12424077 -3.133587 2.4832082 -0.30688983 -1.2450062 -0.59403706 -7.4724355
0.40194172 -0.46662417 -0.58315057 -0.17296168 -3.3828945 2.8935864 6.433646 -2.6593149

linear2.weight f4 [20, 32]
00000000: 5ed0 cc3d dcf2 4b3d 5798 563d f2ce 9abd
00000010: 719d 32be 27fe 9fbd 806e 59bc 46d3 4abe
00000020: 8083 a0be 1a87 bebe cf1f 20be c064 dfbc
00000030: fe64 1bbf a017 febc 8256 ad3d 54a3 0fbd
00000040: 6c6e ecbd 74ad 803c a99c 153d 1d2f 0ebe
00000050: c26b 64be d18c 36be 5a16 06be 222c 8cbe
00000060: 98fd 1fbf 82a5 e2bc a592 78be ea7a fe3d
00000070: b429 2abe 4e28 dcbd 9232 d3be 255d e33c
00000080: 3428 15bd eecc f03d 22b7 15c1 a6ad d4c0
00000090: 923d cabf d450 6141 6c94 e8bd f2a0 ecbf
000000a0: b3e3 e4be 64de bcc0 4dc2 2e3e b634 37c0
000000b0: fdfd 4540 e409 363d 8812 3dc0 a0bf eebd
000000c0: e202 2640 4000 95bc f512 d2c0 fd51 8fc1
000000d0: 2ee1 673d 3ebe 99bf 735b acbf a6ec d640
000000e0: b605 d740 7ab1 a5be 2dbd f5be ee95 ec3d
000000f0: 1562 0240 5ae8 bfbe e3c2 dbc0 82b9 a6c0
00000100: 9e0f 123d c31b 1e3e dda1 4541 ae84 fb3f
00000110: e084 4d41 fee3 2541 2232 79bd 4eac e1c0
00000120: 4634 93be 08c8 72c0 2e91 ad3d c8ea 10c0
00000130: 7437 fbc0 884c 58bd 6fa8 b03f 34ea 22bd
00000140: 467a 163f 6acc 2f3e 0ea6 80bf 71a7 30c1
00000150: 8dec ee3d 9a9a 8ebe edbb ca3e 50dd 0141
00000160: 7aa0 3740 2a09 c6be 24e6 d03d 182a 1cbe
00000170: 81ea 23c0 e006 7540 7380 95c0 0a4e 4c40
00000180: eef1 a83d cf60 11be b07c 5340 08f1 de3f
00000190: fe02 4a41 ae95 0b41 eeaf 9e3d 0292 d0bd
000001a0: 44b3 11be 753e c2bf 6c6d 33be b5a2 aabf
000001b0: 33bc 1dbf f8a0 05be 98f3 a03c ea2d f83d
000001c0: be0a d2be f027 eabd 58a2 5640 b43d b0c0
000001d0: 3d89 123e 8a3c d83d bf69 b23f c9bf f43f
000001e0: f815 dcbf d841 e6bd 3e25 e43d a064 863c
000001f0: 878b ea3f 4831 e5bf 2dad eabf 821f 04c0
00000200: b84e 823c 4f44 1e3e d014 efc0 0c36 0a3e
00000210: de74 9cbe 159a 03bf 6c16 1ebd 82ee 763e
00000220: 4e1a fbbe f943 24c0 29c5 adbd e32b 903f
00000230: fa7f 17c1 f04f 313c b001 383f 3b35 b33d
00000240: 6024 7abf 161a 8a3e 9047 8bc0 8c77 92bc
00000250: a099 ec3c 6bbf 3f3f 0869 4ac1 5eb6 d73f
00000260: fa0a 3cc1 ce61 613e 5015 653c e04b 9e3b
00000270: b819 03c0 f470 efc0 6030 20bf 6242 b6c0
00000280: e190 273e 2a87 a9bd 09df 81be 0b7d 32bd
00000290: 6a6c 8dbe 34f0 91be c2bf a63d b2f9 47be
000002a0: 661c 833d 46f5 0ebe f0b5 07bc 0327 c9be
000002b0: 042f 1dbe 7fac 0fbe 28be 16be ed8a 2c3e
000002c0: 98d4 04bc acdb 92bd d4d1 95bc 3c55 10be
000002d0: 15ba 1d3e ca36 4fbe b8d6 81be 4889 1bbd
000002e0: 0011 703d 91ab 8cbe 289d 2c3d 80c4 853a
000002f0: 35a4 1ebe 0ca5 6cbe 50bc 72bc 197b 86bd
00000300: 7be4 0f3e a3e8 c2bd 1027 853d ce19 f7bd
00000310: b4d2 eebc 9643 70be 8a6f f33d c9b3 68bd
00000320: 70bd 56be 9484 1f3d dc75 3a3d 2144 cdbd
00000330: 80c9 78be f292 79be 5320 123e c048 1cbc
00000340: 64dc ccbd 307b 493c 45a5 e13c 69aa 7cbd
00000350: 06bb 43bc e51a 8b3d a6e7 d6bd 98c6 91bd
00000360: 440c 9dbd dea4 263e dcc4 093e 79c1 333e
00000370: 9068 2bbe b26b 8cbe 1af0 10be 340f 243d
00000380: 425e ff3d 4d3a 83bd cd1a ae40 4bd2 4c41
00000390: cbc8 2941 6e51 a2c0 1acc 5dbd acf3 95be
000003a0: 0c56 523d 6ed8 a83e 565c a13d 6ff6 96bf
000003b0: 198a 2dc1 22fe b6bd aa7d d9be f024 123e
000003c0: 6877 a0bf 9a2b 073e 6125 f4c0 dfd0 ddc0
000003d0: 0fbe 62bd d0db b43d f3a6 5e3f 5f29 3441
000003e0: a67b 3740 e78c 77be 54c6 dbbe 7067 123d
000003f0: 40f9 2040 c91d c23f 7869 efc0 8841 86c0
0.100006804 0.049792156 0.052391376 -0.07559003 -0.17442872 -0.078121476 -0.013270974 -0.19807157
-0.31350327 -0.3721245 -0.15637134 -0.027269721 -0.60700977 -0.031017125 0.08463766 -0.03506787
-0.11544499 0.015707709 0.036526356 -0.1388516 -0.22306731 -0.17827155 -0.13094464 -0.2737742
-0.6249633 -0.02766681 -0.2427469 0.12425788 -0.16617471 -0.10749875 -0.4124952 0.027754376
-0.036415294 0.11757837 -9.35721 -6.6461973 -1.580004 14.082233 -0.11356434 -1.8486617
-0.4470497 -5.9021473 0.17066307 -2.8625922 3.0936272 0.044443026 -2.954256 -0.11657643
2.593926 -0.018188596 -6.564814 -17.915033 0.056611232 -1.2011182 -1.3465408 6.7163877
6.719447 -0.32361966 -0.47995892 0.11552034 2.0372365 -0.37481958 -6.86754 -5.210145
0.035659425 0.15440278 12.352017 1.9649866 12.84494 10.368162 -0.060838826 -7.0522833
-0.2875082 -3.793459 0.084749565 -2.26433 -7.850519 -0.05280736 1.3801402 -0.039774135
0.58780324 0.17167822 -1.0050676 -11.040879 0.11666212 -0.27852327 0.395965 8.116531
2.8691697 -0.38678867 0.10200146 -0.15250432 -2.561188 3.8285446 -4.67193 3.1922631
0.082492694 -0.14197086 3.3044853 1.7417307 12.6257305 8.724043 0.077484 -0.10184099
-0.1422854 -1.517531 -0.1752221 -1.3330904 -0.61615294 -0.13049686 0.019647405 0.121181324
-0.4102382 -0.11433399 3.3536587 -5.507532 0.14310165 0.10558422 1.3938521 1.9121028
-1.7194204 -0.112430274 0.11139916 0.016405404 1.832383 -1.7905664 -1.8334099 -2.064423
0.015906677 0.15455745 -7.4712906 0.1349718 -0.30557913 -0.51406986 -0.038595602 0.24114421
-0.49043506 -2.5666487 -0.08484871 1.1263393 -9.468744 0.010822281 0.71877575 0.08750387
-0.97711754 0.26973027 -4.3524857 -0.01787927 0.028881848 0.74901456 -12.650642 1.6852529
-11.75268 0.22009966 0.013982132 0.0048308223 -2.0484447 -7.482538 -0.62573814 -5.6956034
0.1636386 -0.082777336 -0.25365475 -0.04357628 -0.27621776 -0.28503573 0.08142044 -0.19528845
0.06401901 -0.13960752 -0.008283123 -0.39287576 -0.15349966 -0.14030646 -0.14720976 0.16849871
-0.008107327 -0.07170805 -0.01828853 -0.14095014 0.15403016 -0.20235744 -0.2535913 -0.03797272
0.058609962 -0.27474645 0.042142063 0.0010205656 -0.15492328 -0.23109835 -0.014815405 -0.06566448
0.14052002 -0.09517028 0.06501591 -0.12065469 -0.029153205 -0.23463282 0.11886509 -0.05681208
-0.20970702 0.038944796 0.045522556 -0.1002276 -0.24295616 -0.24372461 0.14270143 -0.009538829
-0.10002974 0.012297437 0.027544627 -0.061685953 -0.011946445 0.06792239 -0.10493402 -0.07117957
-0.07668355 0.1627383 0.13454002 0.17554273 -0.16739106 -0.27425915 -0.14154091 0.04005356
0.1246915 -0.06407604 5.4407716 12.801341 10.611522 -5.07244 -0.054149725 -0.2928747
0.051351592 0.32977623 0.0787894 -1.1793956 -10.846215 -0.08935191 -0.42478687 0.14271903
-1.253644 0.13200226 -7.629563 -6.931747 -0.055357035 0.088309884 0.86973494 11.2601
2.866922 -0.24174844 -0.4292475 0.035743177 2.515213 1.516534 -7.4816246 -4.1954994

linear2.bias f4 [20]
00000000: 50ba 2cbe 0337 2ac1 d50c 56c1 9fc5 b6bf
00000010: 97f6 21c0 f8d6 6bbe 36a7 90be 50c1 b13f
00000020: c71e a2c0 4ca5 2140 7e4e d03f 20ef d2be
00000030: 503e 3abe 964f cabe 8948 bebd 9897 61be
00000040: f61d a9be 2adb bfbe 5f31 6b40 a1c6 69c0
-0.16867948 -10.638431 -13.378133 -1.4279059 -2.5306756 -0.23031223 -0.28252572 1.3887119
-5.066257 2.525714 1.6273954 -0.41198063 -0.18187833 -0.39513844 -0.09291179 -0.22030485
-0.3303067 -0.37471896 3.6748884 -3.6527483

linear3.weight f4 [32, 20]
00000000: 58eb 5e3e b031 c9c0 4555 cbbf dee8 b6bf
00000010: f0eb 9abb 3471 e93d 73ad 2bbe bb5a 8bc0
00000020: 3984 28c0 a26c 89be 2a01 51be ae42 4b3e
00000030: 0ec1 6cbd a21c 60be 5456 f5bc 484a 343e
00000040: 0015 bfbc c88e 343d 2b4c 21bf 2a02 32bf
00000050: ce03 523e 8211 18be 6af2 2fbf d429 15bd
00000060: 4df1 0ebe 2d9e eebd c0a5 393e 974a 4fbe
00000070: da4c 733d 20d1 733c c28d 17be 7af7 c7bd
00000080: 3c46 12bd f457 01be 8351 29be 1e9d 433e
00000090: 1690 2b3e 8d68 3bbe e1fa 2fbe 124c 5bbe
000000a0: 3e0b 433e 423d 30be a3cf 14bf 18fb 0abd
000000b0: 7ce8 073e c02a a8bb 800e 273b 262c d0be
000000c0: a26e e7be 1584 33be fa38 d13d 50b9 4dbe
000000d0: 42e2 3b3e b059 b63d cae6 2ebe 1a18 bdbd
000000e0: 5005 a8bd c813 563e 2269 77be 15b5 88be
000000f0: 3379 403d ed36 2f3e 91e0 aabe cc1d f2bd
00000100: eb0c aebf 28ac 4a3e eee2 8cbe e3a3 f4bd
00000110: 5652 aebf f573 e0bd d7d2 023e 8ed5 f0be
00000120: 3671 03be f2cb afbe 4e8a 1cbf 989a 7dbd
00000130: 851d 06be ec94 cc3d f8f2 903e 4eaf 4ec0
00000140: b856 1ebd 1a58 93bf 3e40 65bf a00a 0fbc
00000150: 9b32 bb3e e5b7 a03d e0a3 473d 6d68 88bf
00000160: 3b30 a23f 4142 03c0 a692 413f 47f8 f23d
00000170: 0254 cbbd 8412 c03d db2c c6bf 7131 fabd
00000180: a496 5abe b6a4 47be 9588 cebf 8e30 14c0
00000190: 99ff 2a3e 3e5c 473e a2dc a6bb 7bd1 45be
000001a0: a850 89c0 59df 953d 30f9 a73b e438 fac0
000001b0: f5d1 88c0 5eac 92bf ddd2 d03d 34f6 63be
000001c0: 00b1 8bbe ce09 4fbd ad2e 92be be4a 483e
000001d0: c4e7 1c3e dcd0 84be 2c22 a6c0 64e2 3dbf
000001e0: 5ba3 6c3d 5936 78c0 4ba5 dfbf 6cdb 74be
000001f0: 47a4 65c0 db8a 99bd 79cd 4f3e c0b7 ddba
00000200: 270b 89bf efc2 6bc0 4aaa abc0 da02 b33e
00000210: 2076 3d3b aac3 35be 629f 18c0 68e4 42bd
00000220: 27e0 30be 5ae2 333e 5e8c a4c0 7d24 6bc0
00000230: 0805 7e3d 0e14 3abd fc6f 2cbe f2e0 00be
00000240: 7f15 9ebe e6e0 07be 3677 c2bd d100 4bbe
00000250: 9b78 b2bd 8710 51be e8d9 73be 9940 0fbc
00000260: 96f4 893d 2c82 b43d 4f02 b4be 7033 d73d
00000270: b60f 0cbe e844 8a3d 5fa1 e6bd a0e6 13bc
00000280: 7282 1e3e 62b5 18be 5699 23c0 4d97 19c0
00000290: 6954 90bf 3c19 6bbe 7abd cdbe 4f9a 34c0
000002a0: 09af e23f 2355 0a3f 582a 2d3f fb42 b5be
000002b0: 14bf 153d f8b7 3dbc 2d1c 073f 506c a73b
000002c0: 18ce 74be dc84 f6bc f21b b0bf 883a 7e3f
000002d0: ca9d cebd b00a 703d 545c 98bf c078 44bd
000002e0: 8daa 143f 8183 eb3d e87e 7dbe 538c 2bc0
000002f0: 1498 1bc0 ff4d 6ebd 7855 8dbf 406e 803e
00000300: 49da 633e d035 4dbe b472 6bc0 3a62 85bd
00000310: 00d9 253e fa37 483e 8410 57bf 44ce 78c0
00000320: a88f 8d3e e06a 2cc1 b0d6 5cc0 64e3 20be
00000330: f2d2 1bc0 623f 0b3e 3c3b 113e 7ab1 4abd
00000340: a6b8 81c0 226c f7bf 35dc d0bf 355d 703e
00000350: c243 5f3e 60c0 e33d 1b39 edbf 68ba debd
00000360: 2060 4b3d 3096 073e 6879 49c0 3d1f 3fbf
00000370: b4ed fa3d ab3b 3dbe e557 20bd 4c05 6cbd
00000380: 6050 06bb d4cd c33d d293 9b3d 5036 c4be
00000390: b496 ca3c 0ca1 05be 0588 1bbe 80ee 99bd
000003a0: e4ac 74bd 5a50 1c3e 98d8 11bd b8a3 6b3d
000003b0: b0ea 6cbc 02d2 24be 4c92 09bc f82e 3ebd
000003c0: d66a 433d cc7f 0fc1 130f 8fc0 11ef febd
000003d0: a44f 47bd c091 cfbc 134f e83d 1886 22bd
000003e0: bfbf b3bd d2d4 d9bf 481c 88c0 8cf4 9cbc
000003f0: 6c63 51be 758b 24be bd5d a4bf 9a14 cb3d
0.21769464 -6.2873154 -1.5885397 -1.4289815 -0.004727833 0.11398545 -0.16765384 -4.3548255
-2.6330702 -0.26840693 -0.204106 0.19849655 -0.0578013 -0.21885923 -0.029948391 0.17606461
-0.023325443 0.04408148 -0.6300685 -0.6953455 0.20509264 -0.14850429 -0.6872927 -0.036416844
-0.13959236 -0.116512634 0.18129635 -0.20243298 0.059399463 0.014881402 -0.1480017 -0.09763999
-0.035711512 -0.12631208 -0.16535 0.19102904 0.16754183 -0.18301602 -0.17185546 -0.21415737
0.19047257 -0.17210868 -0.5812933 -0.033930868 0.1327228 -0.0051320493 0.002549082 -0.40658683
-0.45201594 -0.17530854 0.102159455 -0.20090222 0.1834803 0.08903825 -0.17080227 -0.09233113
-0.08204138 0.20905983 -0.24161199 -0.26700655 0.046990585 0.17110796 -0.33374456 -0.118220896
-1.3597692 0.19792235 -0.27516884 -0.119453214 -1.3618877 -0.10959617 0.12775742 -0.4703793
-0.12836155 -0.34335285 -0.61148536 -0.06191501 -0.13097198 0.09989342 0.2831037 -3.2294497
-0.03865692 -1.1511261 -0.8955115 -0.008730561 0.36562046 0.07847575 0.048740268 -1.0656868
1.2670969 -2.0509188 0.7561439 0.118637614 -0.099281326 0.093785316 -1.5482439 -0.122164614
-0.21346527 -0.19496426 -1.6135432 -2.3154635 0.16699065 0.19468781 -0.0050922194 -0.19318192
-4.2910957 0.07317991 0.005126141 -7.8194447 -4.2756295 -1.1458852 0.10196469 -0.22261888
-0.27283478 -0.05054646 -0.28551236 0.19559762 0.15322787 -0.25940597 -5.1916714 -0.7417357
0.057772975 -3.878317 -1.7472318 -0.23911828 -3.5881517 -0.07497188 0.20293225 -0.0016915724
-1.0706528 -3.6837728 -5.3645372 0.34963113 0.002890952 -0.17750421 -2.384728 -0.047581106
-0.17273007 0.17566815 -5.1421347 -3.674102 0.062016517 -0.045429282 -0.16839594 -0.1258581
-0.30875775 -0.13269386 -0.09495394 -0.1982453 -0.0871441 -0.20416461 -0.23813593 -0.008743429
0.06736104 0.08813891 -0.3515801 0.10507858 -0.13677868 0.06751424 -0.11261248 -0.009027153
0.15479448 -0.14912942 -2.556234 -2.3998597 -1.127576 -0.22958845 -0.40183622 -2.8219182
1.7709666 0.5403616 0.67642736 -0.35402665 0.03655918 -0.011579506 0.5277737 0.0051093474
-0.23906744 -0.03009265 -1.3758528 0.9930806 -0.100886896 0.058603942 -1.1903176 -0.04796672
0.5807274 0.11499692 -0.24755442 -2.6804397 -2.431157 -0.05817985 -1.1041708 0.25084114
0.22251238 -0.20040059 -3.678876 -0.06512876 0.1619606 0.19552603 -0.84009576 -3.8875895
0.27648664 -10.776093 -3.4506035 -0.15711743 -2.43475 0.13598397 0.14182752 -0.04948566
-4.05379 -1.9329875 -1.6317202 0.23473056 0.21803191 0.11120677 -1.8533052 -0.10875398
0.04965222 0.13240886 -3.148035 -0.7465704 0.122523695 -0.18479793 -0.039146323 -0.05762224
-0.0020494685 0.09560743 0.07596554 -0.38322687 0.024730064 -0.13049716 -0.15188606 -0.075161934
-0.059735194 0.15265027 -0.03560695 0.05752918 -0.014460251 -0.16095737 -0.008396696 -0.04643151
0.04770931 -8.9687 -4.47059 -0.12447942 -0.048659936 -0.025338054 0.11343207 -0.039678663
-0.08776807 -1.7018073 -4.2534523 -0.019159578 -0.20448083 -0.16068824 -1.2841107 0.09916039

linear3.bias f4 [32]
00000000: 4090 89ba 96d9 d3be f01d 83bf 4b3e 5c40
00000010: c09e 34c0 6894 3bc1 b0dd 0fc0 72fe 07be
00000020: 00ad 21bb 2ba1 36c0 5c39 3cc0 3232 fdbe
00000030: e705 cfc0 0c0c 2abf d9eb 0dbf 7598 1fc0
00000040: cab5 6bbe 3095 22c0 543d 3340 1513 43be
00000050: 7a44 01bf e885 f2be 9c32 1cbf f04f 37bf
00000060: b210 fdbf d072 40bb cb9a 0dbf 1ea9 0ec0
00000070: e86a 99bf 8fcf 1ebf 4327 18bf 336f 81c0
-0.001049526 -0.41376942 -1.0243511 3.441302 -2.8221893 -11.723732 -2.2479057 -0.13280657
-0.0024669766 -2.853587 -2.941001 -0.49452358 -6.4694705 -0.6642463 -0.55438 -2.4936802
-0.23018566 -2.5403557 2.8006182 -0.19050248 -0.5049511 -0.47367787 -0.61014724 -0.7160635
-1.977072 -0.0029365309 -0.5531432 -2.229072 -1.198575 -0.6203546 -0.5943491 -4.044824

output.weight f4 [3, 32]
00000000: 1070 dfbc ad89 863e 2041 b5bc 4215 0cbf
00000010: 6885 193d 2e2c 613e 604f 4e3d ef31 56bc
00000020: eda2 c7bc 034b a83d 44ce c7be 8a9a 9bbc
00000030: f848 fdbe 4ad5 cc3d 0a74 593d b44f b13d
00000040: 969f 63be e27c 723e 5071 7fbf f8ad 493c
00000050: 70cb 323d 5e53 e5bc 7816 5dbb ec5f 71bf
00000060: fa45 813e 6958 bebd 0061 073d e8e4 0b3c
00000070: c077 153a 12ef 443d fdd0 973e 60a2 61be
00000080: 4a6f 573d 48f1 58bd 4437 0b3d 739d 09bf
00000090: 006f ecbe acf1 6e3d a0a9 813d e0e7 abbc
000000a0: 0054 6538 05d0 053f bbe2 a5bf 31b7 b63d
000000b0: 1da7 b0be 84bb ba3c 38d3 15bd 1282 f93b
000000c0: 5a7c 6a3d c50d 883d 28f4 81bf 5288 80bd
000000d0: ec20 f7bc fe0e 223d b010 193e 8403 883d
000000e0: 83b8 133e 5c2e 193e 0ae9 71bf 2ccb 44bf
000000f0: 34b5 a63e 7a5c afbd dc46 343e 20c9 423b
00000100: 7ec9 07bf 3a57 ddbd 3c0f e33d 92e8 0dbf
00000110: 3e51 70bf c300 3e3e 165b 04be 9e04 ecbd
00000120: 6e1a 59bd c93c 1dbe bad1 423e 4173 09be
00000130: 2eac 58bf 5093 5ebd 710a 023e 0979 273d
00000140: aa72 9dbd 1bdd ab3d 73bb 82bf 6213 e83d
00000150: 708a f1bc 9c28 5e3d 244b 963e b46b 12c0
00000160: e4d6 b23c dc04 8dbe c650 1ebf 8c2c cb3c
00000170: d7c7 023f 1c6c 863d 08d5 d03f 7c73 f7be
-0.027275115 0.26276913 -0.02212578 -0.54719937 0.03748074 0.2198951 0.050368667 -0.0130734285
-0.024369681 0.08217432 -0.39024556 -0.018994588 -0.49469733 0.10001619 0.05308918 0.0865778
-0.22228846 0.23680452 -0.99782276 0.012309544 0.043651044 -0.027993854 -0.0033735316 -0.9428699
0.252487 -0.09294207 0.03305149 0.008538462 0.0005701743 0.048079558 0.29651633 -0.22034597
0.052596368 -0.05296448 0.033988252 -0.53755873 -0.46178436 0.058335945 0.063311815 -0.02098459
5.4676086e-05 0.5227054 -1.2959818 0.0892166 -0.34502497 0.022794493 -0.036578387 0.0076143825
0.057247497 0.06643251 -1.0152636 -0.06276001 -0.030167066 0.03956508 0.14947772 0.066412956
0.14425854 0.14959091 -0.94496214 -0.76872516 0.32560122 -0.085625604 0.17605156 0.002972193
-0.5304183 -0.10807653 0.1108689 -0.55433 -0.93873966 0.18554978 -0.12925372 -0.11524318
-0.05300372 -0.15355219 0.19025317 -0.13422872 -0.84637725 -0.054339707 0.12699296 0.040886912
-0.07687886 0.08391782 -1.0213455 0.11331822 -0.029484957 0.054237947 0.29354203 -2.2878237
0.021830983 -0.2754277 -0.61842 0.024801515 0.5108618 0.06563589 1.6315012 -0.48330295

output.bias f4 [3]
00000000: f5ea e1bf 4a85 e4bf 3524 e5bf
-1.7649828 -1.7853177 -1.7901675

square_avg f4 [32, 7]
00000000: 3200 0000 3200 0000 3200 0000 3200 0000
00000010: 3200 0000 3200 0000 0000 0000 0000 0000
00000020: 0000 0000 0000 0000 0000 0000 0000 0000
00000030: 0000 0000 0000 0000 ce7f e638 fc26 0438
00000040: 0810 fb33 2b90 3b35 fcb9 0439 ce52 eb34
00000050: b7c7 ff3a e95f 4e3a f0ac 2a39 09b1 7735
00000060: d493 c436 cffc 7a3a 1a0c 8336 e42f 843c
00000070: 8ff6 4738 c888 ae37 25bb 0a33 8216 4833
00000080: 1a95 5c38 69b3 4934 3200 0000 658c 8039
00000090: f195 5b39 e114 da34 d33e 5f36 3731 c539
000000a0: 32be 0b36 5368 953b 0000 0000 0000 0000
000000b0: 0000 0000 0000 0000 0000 0000 0000 0000
000000c0: 0000 0000 297b 6a32 d6e2 0831 c675 d12d
000000d0: 0a02 842f 7d7d c432 aacf 472f 52f6 2f35
000000e0: 3200 0000 3200 0000 3200 0000 3200 0000
000000f0: 3200 0000 3200 0000 3200 0000 a182 8235
00000100: 6bdb 4d34 6557 7730 9832 b831 ac01 9935
00000110: 3efb 4731 4522 3e37 0000 0000 0000 0000
00000120: 0000 0000 0000 0000 0000 0000 0000 0000
00000130: 0000 0000 a9e7 2237 5433 1d36 12ed 4232
00000140: eac6 5c33 a13f 4a37 5f62 7233 6a36 6639
00000150: ba8b f635 1726 c735 55f7 2a31 5f44 cc32
00000160: a25e 2636 5fb4 6b32 d34d 1238 3200 0000
00000170: 3200 0000 3200 0000 3200 0000 0000 0000
00000180: 3200 0000 3200 0000 3200 0000 3200 0000
00000190: 3200 0000 3200 0000 3200 0000 3200 0000
000001a0: 3200 0000 3200 0000 3200 0000 3200 0000
000001b0: 3200 0000 0000 0000 3200 0000 3200 0000
000001c0: 25aa 3435 1ecd 0934 3191 a530 54e0 b631
000001d0: 7e02 3835 8571 e831 92e4 da35 3200 0000
000001e0: 3200 0000 3200 0000 3200 0000 3200 0000
000001f0: 3200 0000 0000 0000 802f 4528 77a6 0225
00000200: 5855 4a23 77a6 0225 1983 5528 cfa5 0825
00000210: 3200 0000 156e e839 7a43 3739 6551 1835
00000220: 41ac 1d36 4d7e 153a 5f53 1736 97b4 0d3c
00000230: 3200 0000 3200 0000 3200 0000 3200 0000
00000240: 3200 0000 3200 0000 3200 0000 3200 0000
00000250: 3200 0000 3200 0000 3200 0000 3200 0000
00000260: 3200 0000 3200 0000 3dfa 5736 8a43 5e34
00000270: 23fe 7631 cd6f 6e32 6448 9336 fc65 c532
00000280: b102 b738 3200 0000 3200 0000 3200 0000
00000290: 3200 0000 3200 0000 3200 0000 3200 0000
000002a0: 48b2 3438 7dcd 5337 9494 5233 9198 ca34
000002b0: 8c30 5b38 821c 7834 57c9 753a 3200 0000
000002c0: 3200 0000 3200 0000 3200 0000 3200 0000
000002d0: 3200 0000 3200 0000 3200 0000 3200 0000
000002e0: 3200 0000 3200 0000 3200 0000 3200 0000
000002f0: 3200 0000 0000 0000 0000 0000 0000 0000
00000300: 0000 0000 0000 0000 0000 0000 0000 0000
00000310: a418 1236 d599 1936 3ffb 3d31 9b8a cc32
00000320: 95ee 4436 72a9 be32 8a77 8f28 9e1c cd36
00000330: 5d18 ce36 ecd3 3f32 e716 0434 9ec8 3837
00000340: e8e2 9b33 e94c 4139 a3f7 9c36 0207 db36
00000350: f31a f631 19ef 9133 d05d fe36 650b 5433
00000360: dfe2 8736 b02c cd37 7c00 f236 6bf9 0833
00000370: adc1 a134 f275 0b38 89e2 4634 d97e 7f3a
7e-44 7e-44 7e-44 7e-44 7e-44 7e-44 0.0 0.0
0.0 0.0 0.0 0.0 0.0 0.0 0.0001099106 3.150756e-05
1.16910144e-07 6.987272e-07 0.00012657786 4.383241e-07 0.0019514476 0.0007872568 0.00016276888 9.227229e-07
5.8584646e-06 0.00095744146 3.905513e-06 0.016136117 4.7674923e-05 2.080611e-05 3.2300836e-08 4.65866e-08
5.259095e-05 1.8784853e-07 7e-44 0.00024518665 0.00020941325 4.0620856e-07 3.3266158e-06 0.00037611436
2.0823322e-06 0.0045595556 0.0 0.0 0.0 0.0 0.0 0.0
0.0 1.3648596e-08 1.9919546e-09 2.3812851e-11 2.401211e-10 2.2874469e-08 1.8172722e-10 6.5551023e-07
7e-44 7e-44 7e-44 7e-44 7e-44 7e-44 7e-44 9.723773e-07
1.9171937e-07 8.998227e-10 5.3608566e-09 1.1399875e-06 2.9101126e-09 1.13328615e-05 0.0 0.0
0.0 0.0 0.0 0.0 0.0 9.70989e-06 2.34247e-06 1.134619e-08
5.1403653e-08 1.2054953e-05 5.6434484e-08 0.0002195478 1.8369094e-06 1.4837741e-06 2.4878848e-09 2.3779817e-08
2.479101e-06 1.3719812e-08 3.4881592e-05 7e-44 7e-44 7e-44 7e-44 0.0
7e-44 7e-44 7e-44 7e-44 7e-44 7e-44 7e-44 7e-44
7e-44 7e-44 7e-44 7e-44 7e-44 0.0 7e-44 7e-44
6.730282e-07 1.283374e-07 1.2046596e-09 5.3224003e-09 6.854897e-07 6.7649943e-09 1.6308788e-06 7e-44
7e-44 7e-44 7e-44 7e-44 7e-44 0.0 1.0945997e-14 1.1332103e-16
1.0968514e-17 1.1332103e-16 1.18523025e-14 1.1852298e-16 7e-44 0.00044332506 0.00017477377 5.674286e-07
2.3495088e-06 0.0005702719 2.2549282e-06 0.008649013 7e-44 7e-44 7e-44 7e-44
7e-44 7e-44 7e-44 7e-44 7e-44 7e-44 7e-44 7e-44
7e-44 7e-44 3.2183154e-06 2.0699932e-07 3.5942171e-09 1.3878844e-08 4.3893688e-06 2.2980196e-08
8.726621e-05 7e-44 7e-44 7e-44 7e-44 7e-44 7e-44 7e-44
4.308138e-05 1.2624424e-05 4.9029566e-08 3.773644e-07 5.225888e-05 2.3107171e-07 0.000937601 7e-44
7e-44 7e-44 7e-44 7e-44 7e-44 7e-44 7e-44 7e-44
7e-44 7e-44 7e-44 7e-44 7e-44 0.0 0.0 0.0
0.0 0.0 0.0 0.0 2.1770038e-06 2.2888319e-06 2.7645937e-09 2.3811756e-08
2.934515e-06 2.2195966e-08 1.5928031e-14 6.1128076e-06 6.1421147e-06 1.1165849e-08 1.230179e-07 1.10139645e-05
7.259024e-08 0.00018434566 4.677991e-06 6.5275244e-06 7.162606e-09 6.79558e-08 7.580711e-06 4.937046e-08
4.049725e-06 2.4458714e-05 7.2122184e-06 3.1891812e-08 3.0129505e-07 3.3250028e-05 1.85226e-07 0.000974638

square_avg f4 [32]
00000000: 3200 0000 0000 0000 4ae0 3539 432d aa3a
00000010: 3e81 5f38 e422 0b3a 0000 0000 1339 f432
00000020: 3200 0000 91d9 b735 0000 0000 cee3 8637
00000030: a110 6436 3200 0000 3200 0000 3200 0000
00000040: 0e06 a735 3200 0000 1983 5528 99dc 4d3a
00000050: 3200 0000 3200 0000 f43e ad36 3200 0000
00000060: 9857 9338 3200 0000 3200 0000 0000 0000
00000070: cbf0 6c36 0d33 7737 60cc 2237 e5ac 4238
7e-44 0.0 0.0001734506 0.001298346 5.328771e-05 0.00053076283 0.0 2.8431293e-08
7e-44 1.3697883e-06 0.0 1.6080125e-05 3.3984327e-06 7e-44 7e-44 7e-44
1.2444232e-06 7e-44 1.18523025e-14 0.0007853001 7e-44 7e-44 5.1631305e-06 7e-44
7.025822e-05 7e-44 7e-44 0.0 3.53069e-06 1.4734233e-05 9.703537e-06 4.6414225e-05

square_avg f4 [20, 32]
00000000: 0000 0000 0000 0000 3200 0000 3200 0000
00000010: 3200 0000 466a 1c1a 0000 0000 3200 0000
00000020: 3200 0000 2e36 e614 0000 0000 68be 421a
00000030: 2852 3113 3200 0000 3200 0000 3200 0000
00000040: 1e2d 3e14 3200 0000 3200 0000 745a 661a
00000050: 3200 0000 3200 0000 3fe4 dc14 3200 0000
00000060: ab21 5914 3200 0000 3200 0000 0000 0000
00000070: 3200 0000 3200 0000 1884 8b14 3200 0000
00000080: 3200 0000 0000 0000 8b0c 442f 3200 0000
00000090: 3200 0000 c64a 1f36 0000 0000 8b22 9b06
000000a0: 3200 0000 ad43 2e22 0000 0000 986a c931
000000b0: d6e2 d435 3200 0000 3200 0000 0000 0000
000000c0: 2013 e909 0000 0000 3200 0000 2339 b035
000000d0: 3200 0000 3200 0000 7f0d 9631 3200 0000
000000e0: 4dd1 2b34 3200 0000 3200 0000 0000 0000
000000f0: 3200 0000 6c27 6832 170a 5f32 27c5 122e
00000100: 3200 0000 0000 0000 dd94 0530 ddd1 b522
00000110: 75f4 842f c1a8 1733 0000 0000 737a 1626
00000120: 3200 0000 1324 132f 0000 0000 2978 7131
00000130: b1e3 4d30 3200 0000 3200 0000 3200 0000
00000140: 229f 3a2f 3200 0000 3200 0000 1f26 3f32
00000150: 3200 0000 3200 0000 1aa4 7a31 3200 0000
00000160: d1f6 b02f 3200 0000 3200 0000 0000 0000
00000170: 3655 002f e885 262f 098b 4f31 d2eb 342f
00000180: 0000 0000 0000 0000 2f74 9834 864a 870d
00000190: 4fe0 4433 f81f e938 0000 0000 2809 0a0b
000001a0: 0000 0000 e689 5b35 0000 0000 8f5c d936
000001b0: 6682 bf38 0000 0000 0000 0000 0000 0000
000001c0: 46be f134 0000 0000 4647 6425 8720 ec38
000001d0: 0000 0000 0000 0000 46a3 8334 3200 0000
000001e0: 3cf2 9b36 0000 0000 0000 0000 0000 0000
000001f0: 4005 e836 bd16 8236 6c4c 6938 2ad9 fe32
00000200: 0000 0000 0000 0000 3200 0000 3200 0000
00000210: 3200 0000 8e76 ee20 0000 0000 3200 0000
00000220: 3200 0000 e9ff ab17 0000 0000 4e59 1221
00000230: 7430 a415 0000 0000 3200 0000 3200 0000
00000240: 3200 0000 3200 0000 3200 0000 0588 5121
00000250: 3200 0000 3200 0000 00d9 e513 3200 0000
00000260: 3200 0000 3200 0000 3200 0000 0000 0000
00000270: 3200 0000 6c5e 2216 3200 0000 3200 0000
00000280: 0000 0000 0000 0000 3200 0000 3200 0000
00000290: 3200 0000 3200 0000 0000 0000 3200 0000
000002a0: 3200 0000 0000 0000 0000 0000 3200 0000
000002b0: 3200 0000 0000 0000 3200 0000 0000 0000
000002c0: 3200 0000 3200 0000 3200 0000 3200 0000
000002d0: 0000 0000 3200 0000 3200 0000 3200 0000
000002e0: 3200 0000 3200 0000 0000 0000 0000 0000
000002f0: 3200 0000 3200 0000 3200 0000 3200 0000
00000300: 0000 0000 0000 0000 3200 0000 3200 0000
00000310: 3200 0000 3200 0000 0000 0000 3200 0000
00000320: 3200 0000 3200 0000 0000 0000 3200 0000
00000330: 3200 0000 3200 0000 0000 0000 0000 0000
00000340: 3200 0000 0000 0000 3200 0000 3200 0000
00000350: 3200 0000 3200 0000 3200 0000 3200 0000
00000360: 3200 0000 3200 0000 3200 0000 0000 0000
00000370: 3200 0000 3200 0000 3200 0000 3200 0000
00000380: 0000 0000 0000 0000 f643 6a36 4d99 c837
00000390: 9472 9a30 3a1a ab2f 0000 0000 f181 1434
000003a0: 3200 0000 2e38 3a39 0000 0000 b5b0 b239
000003b0: 3200 0000 3200 0000 3200 0000 3200 0000
000003c0: 1c95 1b37 3200 0000 3200 0000 acb0 da38
000003d0: 3200 0000 3200 0000 8ca3 1937 3200 0000
000003e0: 1671 4d39 3200 0000 3200 0000 0000 0000
000003f0: 65d1 8835 20b3 1337 0ec7 d634 c746 8e37
0.0 0.0 7e-44 7e-44 7e-44 3.234589e-23 0.0 7e-44
7e-44 2.3245435e-26 0.0 4.027207e-23 2.2381047e-27 7e-44 7e-44 7e-44
9.6014464e-27 7e-44 7e-44 4.7635953e-23 7e-44 7e-44 2.230435e-26 7e-44
1.096234e-26 7e-44 7e-44 0.0 7e-44 7e-44 1.4087515e-26 7e-44
7e-44 0.0 1.7830552e-10 7e-44 7e-44 2.373637e-06 0.0 5.8355276e-35
7e-44 2.3617225e-18 0.0 5.8619882e-09 1.5861249e-06 7e-44 7e-44 0.0
5.6110695e-33 0.0 7e-44 1.3129651e-06 7e-44 7e-44 4.367109e-09 7e-44
1.6001759e-07 7e-44 7e-44 0.0 7e-44 1.3513141e-08 1.29826025e-08 3.3371663e-11
7e-44 0.0 4.8596666e-10 4.928235e-18 2.4184357e-10 3.5310908e-08 0.0 5.2207654e-16
7e-44 1.3382388e-10 0.0 3.5138419e-09 7.4902134e-10 7e-44 7e-44 7e-44
1.6973137e-10 7e-44 7e-44 1.1126331e-08 7e-44 7e-44 3.647307e-09 7e-44
3.2189587e-10 7e-44 7e-44 0.0 1.1671805e-10 1.5145185e-10 3.0201497e-09 1.6454685e-10
0.0 0.0 2.839674e-07 8.337958e-31 4.5838814e-08 0.000111162604 0.0 2.6584722e-32
0.0 8.1784526e-07 0.0 6.477879e-06 9.131878e-05 0.0 0.0 0.0
4.502819e-07 0.0 1.9799996e-16 0.000112594156 0.0 0.0 2.4519449e-07 7e-44
4.6475598e-06 0.0 0.0 0.0 6.91475e-06 3.876949e-06 5.5622702e-05 2.9668247e-08
0.0 0.0 7e-44 7e-44 7e-44 4.039722e-19 0.0 7e-44
7e-44 1.1115217e-24 0.0 4.958492e-19 6.631552e-26 0.0 7e-44 7e-44
7e-44 7e-44 7e-44 7.0991975e-19 7e-44 7e-44 5.8021706e-27 7e-44
7e-44 7e-44 7e-44 0.0 7e-44 1.311605e-25 7e-44 7e-44
0.0 0.0 7e-44 7e-44 7e-44 7e-44 0.0 7e-44
7e-44 0.0 0.0 7e-44 7e-44 0.0 7e-44 0.0
7e-44 7e-44 7e-44 7e-44 0.0 7e-44 7e-44 7e-44
7e-44 7e-44 0.0 0.0 7e-44 7e-44 7e-44 7e-44
0.0 0.0 7e-44 7e-44 7e-44 7e-44 0.0 7e-44
7e-44 7e-44 0.0 7e-44 7e-44 7e-44 0.0 0.0
7e-44 0.0 7e-44 7e-44 7e-44 7e-44 7e-44 7e-44
7e-44 7e-44 7e-44 0.0 7e-44 7e-44 7e-44 7e-44
0.0 0.0 3.4908276e-06 2.3913244e-05 1.123754e-09 3.1123354e-10 0.0 1.3830847e-07
7e-44 0.00017759271 0.0 0.00034082463 7e-44 7e-44 7e-44 7e-44
9.273437e-06 7e-44 7e-44 0.00010427958 7e-44 7e-44 9.157589e-06 7e-44
0.00019592451 7e-44 7e-44 0.0 1.0193731e-06 8.803589e-06 4.0005438e-07 1.6960677e-05

square_avg f4 [20]
00000000: 67b0 a218 2ea5 b033 0894 ac30 6bfd e136
00000010: ff2c 8a1f 3200 0000 3200 0000 2b8d 0437
00000020: 265a ed1c 3200 0000 3200 0000 3200 0000
00000030: 3200 0000 3200 0000 3200 0000 3200 0000
00000040: 3200 0000 3200 0000 6dc2 c831 c0e6 2e27
4.205414e-24 8.225685e-08 1.255672e-09 6.7350243e-06 5.851971e-20 7e-44 7e-44 7.900681e-06
1.5706647e-21 7e-44 7e-44 7e-44 7e-44 7e-44 7e-44 7e-44
7e-44 7e-44 5.8428697e-09 2.427244e-15

square_avg f4 [32, 20]
00000000: 2377 d80c 3200 0000 3200 0000 3200 0000
00000010: 3200 0000 0000 0000 3200 0000 3200 0000
00000020: 3200 0000 3200 0000 3200 0000 3200 0000
00000030: 3200 0000 0000 0000 3200 0000 0000 0000
00000040: 0000 0000 0000 0000 3200 0000 3200 0000
00000050: 0000 0000 3200 0000 3200 0000 0000 0000
00000060: 0000 0000 0000 0000 3200 0000 3200 0000
00000070: 3200 0000 3200 0000 3200 0000 0000 0000
00000080: 0000 0000 0000 0000 3200 0000 0000 0000
00000090: 0000 0000 0000 0000 3200 0000 3200 0000
000000a0: 0000 0000 3200 0000 3200 0000 3200 0000
000000b0: 3200 0000 0000 0000 0000 0000 3200 0000
000000c0: 3200 0000 3200 0000 3200 0000 0000 0000
000000d0: 0000 0000 0000 0000 3200 0000 0000 0000
000000e0: 0000 0000 0000 0000 3200 0000 3200 0000
000000f0: 70ca fb16 5ea7 0f3a 9639 7533 961e d53a
00000100: f9dd 1620 3200 0000 3200 0000 ae20 1d3b
00000110: 5d31 d21b 3200 0000 3200 0000 3200 0000
00000120: 3200 0000 3200 0000 3200 0000 3200 0000
00000130: 3200 0000 3200 0000 b5e2 d234 bb9d 8d25
00000140: 3200 0000 3200 0000 3200 0000 3200 0000
00000150: 3200 0000 3200 0000 0000 0000 3200 0000
00000160: 3200 0000 3200 0000 3200 0000 3200 0000
00000170: 3200 0000 0000 0000 3200 0000 0000 0000
00000180: 0000 0000 3200 0000 3200 0000 3200 0000
00000190: 3200 0000 3200 0000 3200 0000 3200 0000
000001a0: 3200 0000 3200 0000 3200 0000 3200 0000
000001b0: 3200 0000 3200 0000 3200 0000 3200 0000
000001c0: 3200 0000 3200 0000 3200 0000 0000 0000
000001d0: 0000 0000 3200 0000 3200 0000 3200 0000
000001e0: 3200 0000 3200 0000 3200 0000 3200 0000
000001f0: 3200 0000 3200 0000 3200 0000 3200 0000
00000200: 3200 0000 3200 0000 3200 0000 3200 0000
00000210: 3200 0000 3200 0000 3200 0000 0000 0000
00000220: 0000 0000 3200 0000 3200 0000 3200 0000
00000230: 3200 0000 3200 0000 3200 0000 0000 0000
00000240: 3200 0000 3200 0000 3200 0000 3200 0000
00000250: 3200 0000 3200 0000 3200 0000 3200 0000
00000260: 3200 0000 0000 0000 3200 0000 0000 0000
00000270: 0000 0000 3200 0000 3200 0000 3200 0000
00000280: d1b9 f70a bcdd 2b1a ddde ba16 191a 6a1d
00000290: 3200 0000 3200 0000 3200 0000 06e7 941b
000002a0: 3200 0000 3200 0000 3200 0000 3200 0000
000002b0: 3200 0000 3200 0000 3200 0000 3200 0000
000002c0: 3200 0000 3200 0000 40db 0219 40f6 2f25
000002d0: 3200 0000 3200 0000 3200 0000 3200 0000
000002e0: 3200 0000 3200 0000 3200 0000 3200 0000
000002f0: 3200 0000 3200 0000 3200 0000 3200 0000
00000300: 3200 0000 3200 0000 3200 0000 3200 0000
00000310: 3200 0000 3200 0000 3200 0000 3200 0000
00000320: 3200 0000 3200 0000 3200 0000 0000 0000
00000330: 3200 0000 0000 0000 3200 0000 3200 0000
00000340: 3200 0000 3200 0000 3200 0000 3200 0000
00000350: 3200 0000 0000 0000 3200 0000 0000 0000
00000360: 0000 0000 0000 0000 3200 0000 3200 0000
00000370: 3200 0000 3200 0000 3200 0000 3200 0000
00000380: 3200 0000 0000 0000 3200 0000 3200 0000
00000390: 3200 0000 3200 0000 0000 0000 3200 0000
000003a0: 3200 0000 0000 0000 3200 0000 0000 0000
000003b0: 0000 0000 0000 0000 3200 0000 0000 0000
000003c0: 3200 0000 3200 0000 3200 0000 0000 0000
000003d0: 3200 0000 0000 0000 3200 0000 3200 0000
000003e0: 3200 0000 3200 0000 3200 0000 3200 0000
000003f0: 3200 0000 3200 0000 3200 0000 3200 0000
3.3351772e-31 7e-44 7e-44 7e-44 7e-44 0.0 7e-44 7e-44
7e-44 7e-44 7e-44 7e-44 7e-44 0.0 7e-44 0.0
0.0 0.0 7e-44 7e-44 0.0 7e-44 7e-44 0.0
0.0 0.0 7e-44 7e-44 7e-44 7e-44 7e-44 0.0
0.0 0.0 7e-44 0.0 0.0 0.0 7e-44 7e-44
0.0 7e-44 7e-44 7e-44 7e-44 0.0 0.0 7e-44
7e-44 7e-44 7e-44 0.0 0.0 0.0 7e-44 0.0
0.0 0.0 7e-44 7e-44 4.0678993e-25 0.0005479957 5.7095882e-08 0.0016259726
1.2778939e-19 7e-44 7e-44 0.0023975777 3.4773486e-22 7e-44 7e-44 7e-44
7e-44 7e-44 7e-44 7e-44 7e-44 7e-44 3.92805e-07 2.4566483e-16
7e-44 7e-44 7e-44 7e-44 7e-44 7e-44 0.0 7e-44
7e-44 7e-44 7e-44 7e-44 7e-44 0.0 7e-44 0.0
0.0 7e-44 7e-44 7e-44 7e-44 7e-44 7e-44 7e-44
7e-44 7e-44 7e-44 7e-44 7e-44 7e-44 7e-44 7e-44
7e-44 7e-44 7e-44 0.0 0.0 7e-44 7e-44 7e-44
7e-44 7e-44 7e-44 7e-44 7e-44 7e-44 7e-44 7e-44
7e-44 7e-44 7e-44 7e-44 7e-44 7e-44 7e-44 0.0
0.0 7e-44 7e-44 7e-44 7e-44 7e-44 7e-44 0.0
7e-44 7e-44 7e-44 7e-44 7e-44 7e-44 7e-44 7e-44
7e-44 0.0 7e-44 0.0 0.0 7e-44 7e-44 7e-44
2.3855131e-32 3.5541087e-23 3.0190567e-25 3.0983134e-21 7e-44 7e-44 7e-44 2.4633842e-22
7e-44 7e-44 7e-44 7e-44 7e-44 7e-44 7e-44 7e-44
7e-44 7e-44 6.76512e-24 1.5262263e-16 7e-44 7e-44 7e-44 7e-44
7e-44 7e-44 7e-44 7e-44 7e-44 7e-44 7e-44 7e-44
7e-44 7e-44 7e-44 7e-44 7e-44 7e-44 7e-44 7e-44
7e-44 7e-44 7e-44 0.0 7e-44 0.0 7e-44 7e-44
7e-44 7e-44 7e-44 7e-44 7e-44 0.0 7e-44 0.0
0.0 0.0 7e-44 7e-44 7e-44 7e-44 7e-44 7e-44
7e-44 0.0 7e-44 7e-44 7e-44 7e-44 0.0 7e-44
7e-44 0.0 7e-44 0.0 0.0 0.0 7e-44 0.0
7e-44 7e-44 7e-44 0.0 7e-44 0.0 7e-44 7e-44
7e-44 7e-44 7e-44 7e-44 7e-44 7e-44 7e-44 7e-44

square_avg f4 [32]
00000000: 9f09 3417 3200 0000 3200 0000 88ad c339
00000010: 3200 0000 3200 0000 3200 0000 3200 0000
00000020: b597 972b 3200 0000 3200 0000 3200 0000
00000030: 3200 0000 3200 0000 3200 0000 3200 0000
00000040: 3200 0000 3200 0000 330b 923a 3200 0000
00000050: 3200 0000 3200 0000 3200 0000 3200 0000
00000060: 3200 0000 3200 0000 3200 0000 3200 0000
00000070: 3200 0000 3200 0000 3200 0000 3200 0000
5.817328e-25 7e-44 7e-44 0.0003732259 7e-44 7e-44 7e-44 7e-44
1.0771302e-12 7e-44 7e-44 7e-44 7e-44 7e-44 7e-44 7e-44
7e-44 7e-44 0.0011142254 7e-44 7e-44 7e-44 7e-44 7e-44
7e-44 7e-44 7e-44 7e-44 7e-44 7e-44 7e-44 7e-44

square_avg f4 [3, 32]
00000000: e7b7 6a14 3200 0000 3200 0000 02a2 2b3b
00000010: 3200 0000 3200 0000 3200 0000 3200 0000
00000020: 7434 4929 3200 0000 3200 0000 3200 0000
00000030: 3200 0000 3200 0000 3200 0000 3200 0000
00000040: 3200 0000 3200 0000 c1e1 be3a 3200 0000
00000050: 3200 0000 3200 0000 3200 0000 3200 0000
00000060: 3200 0000 3200 0000 3200 0000 3200 0000
00000070: 3200 0000 3200 0000 3200 0000 3200 0000
00000080: acdc a913 3200 0000 3200 0000 1c31 433b
00000090: 3200 0000 3200 0000 3200 0000 3200 0000
000000a0: 3de1 3529 3200 0000 3200 0000 3200 0000
000000b0: 3200 0000 3200 0000 3200 0000 3200 0000
000000c0: 3200 0000 3200 0000 cbe7 e43a 3200 0000
000000d0: 3200 0000 3200 0000 3200 0000 3200 0000
000000e0: 3200 0000 3200 0000 3200 0000 3200 0000
000000f0: 3200 0000 3200 0000 3200 0000 3200 0000
00000100: aedb 0414 3200 0000 3200 0000 24de 163b
00000110: 3200 0000 3200 0000 3200 0000 0000 0000
00000120: f2a6 3529 3200 0000 3200 0000 3200 0000
00000130: 3200 0000 3200 0000 0000 0000 3200 0000
00000140: 3200 0000 3200 0000 1ff3 aa3a 0000 0000
00000150: 3200 0000 3200 0000 3200 0000 3200 0000
00000160: 3200 0000 3200 0000 3200 0000 3200 0000
00000170: 3200 0000 3200 0000 3200 0000 3200 0000
1.1850249e-26 7e-44 7e-44 0.0026189093 7e-44 7e-44 7e-44 7e-44
4.467646e-14 7e-44 7e-44 7e-44 7e-44 7e-44 7e-44 7e-44
7e-44 7e-44 0.001456313 7e-44 7e-44 7e-44 7e-44 7e-44
7e-44 7e-44 7e-44 7e-44 7e-44 7e-44 7e-44 7e-44
4.2879197e-27 7e-44 7e-44 0.002978391 7e-44 7e-44 7e-44 7e-44
4.0385437e-14 7e-44 7e-44 7e-44 7e-44 7e-44 7e-44 7e-44
7e-44 7e-44 0.0017464099 7e-44 7e-44 7e-44 7e-44 7e-44
7e-44 7e-44 7e-44 7e-44 7e-44 7e-44 7e-44 7e-44
6.707621e-27 7e-44 7e-44 0.002302059 7e-44 7e-44 7e-44 0.0
4.0334875e-14 7e-44 7e-44 7e-44 7e-44 7e-44 0.0 7e-44
7e-44 7e-44 0.0013042426 0.0 7e-44 7e-44 7e-44 7e-44
7e-44 7e-44 7e-44 7e-44 7e-44 7e-44 7e-44 7e-44

square_avg f4 [3]
00000000: 622c 9439 a520 c639 7403 b139
0.00028261828 0.00037789825 0.00033762644
