train1.pt (torch_old, 13266 bytes, 12 tensors)

linear1.weight f4 [32, 7]
0	0xc0ced2f4	-6.463251
1	0xbfbe4192	-1.486376
2	0x408750cb	4.2286124
3	0xc2222e51	-40.54523
4	0xbe49b9ab	-0.19699733
5	0xc03946f0	-2.8949547
6	0xbfd495fc	-1.6608272
7	0xc03da1f4	-2.9630098
8	0xc0eca0a5	-7.39461
9	0xc1b3b3c6	-22.46278
10	0xc242a00e	-48.656303
11	0xbe6912cc	-0.22761077
12	0x3f3cba40	0.73721695
13	0x3e3c80e2	0.1840854
14	0x3b2cf8d0	0.002639342
15	0x3d96683b	0.07344099
16	0x3dae381e	0.08506797
17	0xbe76f2e8	-0.24116099
18	0x3e9df9ae	0.30854553
19	0x3e81c6a3	0.2534686
20	0xbed265a0	-0.4109316
21	0x3e33358e	0.17500898
22	0xbe858381	-0.26076892
23	0x3cf026e0	0.029315412
24	0xbdf430d8	-0.11923379
25	0xbeb088d7	-0.344794
26	0x3ebdcc6d	0.37070027
27	0xbe371836	-0.1788033
28	0x3e33ff62	0.1757789
29	0xbe5a247d	-0.21302982
30	0xbe3a359b	-0.18184511
31	0x3c7c9420	0.015416175
32	0x3d183750	0.037162125
33	0x3f006a12	0.5016185
34	0xbd4a94d4	-0.04945834
35	0x40999659	4.799603
36	0xc0350d12	-2.8289227
37	0x4156e111	13.429948
38	0x40efbada	7.491559
39	0x4031ba24	2.7769861
40	0x40fba86d	7.86431
41	0xc0516dec	-3.272334
42	0xbf79136b	-0.97295254
43	0xbf569f91	-0.8383723
44	0xc1cce1fe	-25.610348
45	0xc1b5e06f	-22.734587
46	0xbdf57829	-0.11985809
47	0xc02fc6d6	-2.746511
48	0xbda79643	-0.08182957
49	0xbd99f297	-0.075169735
50	0xbf18516a	-0.5949923
51	0xbc588e20	-0.013217479
52	0xbe280cd4	-0.16411144
53	0x3dfb06e2	0.12257172
54	0xbe00756e	-0.12544796
55	0xbde4adc7	-0.11165958
56	0x3e4c3111	0.19940592
57	0x3cca739c	0.02471333
58	0xbea47d4f	-0.32126853
59	0xbdbec68d	-0.09315214
60	0xbef4c0c5	-0.4780332
61	0x3ec27b6a	0.37984782
62	0xbe60df2d	-0.21960135
63	0xbee84027	-0.45361444
64	0xbe90dc68	-0.28293157
65	0xbd304808	-0.043037444
66	0xbdc33a14	-0.09532562
67	0xbc27c6c0	-0.010240257
68	0xbca53638	-0.020167455
69	0xbdf0bd2e	-0.11754833
70	0xbd3b98dc	-0.045800075
71	0xbef4a7db	-0.47784314
72	0xbe5b93fb	-0.21443169
73	0xbece5975	-0.40302625
74	0x3e0a9533	0.13533477
75	0x3ee11c77	0.4396703
76	0xbe4116c3	-0.18856339
77	0xbe21d0e6	-0.15802345
78	0xbe2496a2	-0.16073087
79	0xbe16bb75	-0.14719947
80	0xbe6013d5	-0.21882565
81	0x3d11de18	0.035612196
82	0x3eaa25bc	0.33231914
83	0xbd253030	-0.04032916
84	0x3fc47e00	1.5350952
85	0xbf87276a	-1.0558903
86	0x4081300c	4.037115
87	0xc20702c4	-33.7527
88	0x3f095c4e	0.5365647
89	0x4086f834	4.217798
90	0xbea2bd2f	-0.3178496
91	0xbfd6ce0a	-1.6781628
92	0x3eefcce8	0.4683602
93	0xc18363a0	-16.423645
94	0xc18b20f6	-17.391094
95	0xbf2dc18a	-0.6787344
96	0xc0c60bad	-6.1889253
97	0xc0819568	-4.049488
98	0x3db1e29d	0.08685801
99	0xbeae97b2	-0.3410011
100	0xbdabe695	-0.083935894
101	0x3ddf9793	0.10917582
102	0x3d062c18	0.032756895
103	0x3ed05246	0.4068777
104	0xbd7a13c4	-0.061054006
105	0x4021d903	2.5288703
106	0x3ecc2dfa	0.39878827
107	0xc1b24a25	-22.286203
108	0x40bf19b6	5.9718885
109	0xc046da79	-3.1070845
110	0xbf335f12	-0.7006694
111	0xc00c666f	-2.193752
112	0xbe9c8c29	-0.30575684
113	0x3e0c073f	0.13674639
114	0x3eab6640	0.33476448
115	0x3d475174	0.048661664
116	0x3e536ec6	0.20647725
117	0xbe99b8de	-0.30023855
118	0xbe6ba57a	-0.23012343
119	0xbedb8f46	-0.42882746
120	0x3d6279c8	0.05529192
121	0xc26cbe91	-59.1861
122	0x4123a313	10.227313
123	0x3c94906b	0.01813527
124	0xbf9ced90	-1.2259998
125	0xbd18a0dc	-0.037262782
126	0xc1370cec	-11.440655
127	0xc09a3ce6	-4.819934
128	0x409bd0f2	4.869256
129	0xc23783b0	-45.8786
130	0xc0109bea	-2.2595162
131	0xc1167662	-9.403902
132	0x3e349373	0.17634372
133	0xc04ee1fe	-3.2325435
134	0x3ef61aee	0.4806742
135	0xc246a02e	-49.656425
136	0x41355af9	11.33471
137	0xbdc55e62	-0.09637143
138	0xbfbc672a	-1.4718983
139	0xbe29aee5	-0.16570623
140	0xc0daacd5	-6.8335977
141	0x3d9831ac	0.07431349
142	0x3f7a8829	0.97864014
143	0xbfacc3ca	-1.349725
144	0xbf8673ca	-1.0504086
145	0x3f241ff3	0.6411125
146	0xbea70132	-0.326181
147	0xbfae2d83	-1.3607639
148	0xc027a816	-2.6196342
149	0xc11354c9	-9.2081995
150	0xc20bae93	-34.920483
151	0xbdfba8ae	-0.122880325
152	0x3f8982d1	1.0743047
153	0xbcf12f18	-0.029441401
154	0xbfd2dc47	-1.6473473
155	0x3ec68057	0.3876979
156	0x3db24130	0.0870384
157	0xbfdc300e	-1.7202165
158	0xbf149b99	-0.58049923
159	0x3ebbb7a7	0.36663553
160	0xbe65deac	-0.22448224
161	0x3e1ee854	0.15518314
162	0x401b2bd0	2.424549
163	0x4124159a	10.255274
164	0x423c38f2	47.05561
165	0x3e245db5	0.16051371
166	0x3e6c8cb7	0.23100553
167	0x3cdc08e7	0.026859714
168	0xbf5ab262	-0.8542844
169	0x3fb1ae0f	1.3881243
170	0xc0ac1756	-5.3778486
171	0x403c70b8	2.9443798
172	0xc081c2e6	-4.0550413
173	0x40ed9622	7.4245768
174	0xc0478ec2	-3.1180882
175	0xbe0b61c5	-0.13611515
176	0x3ccbd870	0.024883479
177	0x3de213b8	0.11038917
178	0xbe8802d9	-0.26564673
179	0xbe9a7e88	-0.3017466
180	0x3e2f9492	0.17146519
181	0xbd62c308	-0.055361778
182	0x3ee18ff4	0.4405514
183	0xc0016f41	-2.0224154
184	0x4199b8cb	19.21523
185	0xc2666291	-57.596256
186	0xbdeb3cbe	-0.11486195
187	0xbfaf2716	-1.3683803
188	0x3e0776dc	0.13228935
189	0x3feaedfd	1.8353878
190	0x3f8cd355	1.1001993
191	0x4212d066	36.703514
192	0x423698bb	45.64915
193	0x3b978548	0.0046240427
194	0x3ec7b9e0	0.39009
195	0x3d22c2f7	0.039736714
196	0x3fa27aec	1.2693763
197	0xbf7bed5a	-0.98409045
198	0x42c0cabe	96.39598
199	0xc068706a	-3.6318612
200	0xbca7e085	-0.020492801
201	0x3f756e44	0.95871377
202	0xbe8a4274	-0.27003825
203	0x3b2ad400	0.0026066303
204	0xbe033792	-0.12814167
205	0xbca36200	-0.019944191
206	0x3d64d930	0.05587119
207	0xbe762391	-0.24037005
208	0x3d86c1d0	0.065799356
209	0xbd8a7724	-0.067610055
210	0x401c4801	2.4418948
211	0xbd890bea	-0.066917256
212	0x427b0ee5	62.764545
213	0xc1464ece	-12.394239
214	0xbd927ce1	-0.07152725
215	0x3f5312c3	0.82450503
216	0x3e1bce67	0.15215455
217	0xc013609c	-2.3027716
218	0xbf96a417	-1.1768826
219	0x3dc1123b	0.09427305
220	0xbebb096e	-0.36530632
221	0x3ed9ba2d	0.42524853
222	0xbf4d67c5	-0.80236465
223	0xbf9a6e7e	-1.206497

linear1.bias f4 [32]
0	0xbfc8b351	-1.5679723
1	0x3f846f05	1.034638
2	0xbed9ed24	-0.42563736
3	0xbeb49129	-0.35266998
4	0xbebacc7b	-0.3648413
5	0xc0b81bb4	-5.7533817
6	0xbf6db82c	-0.9285915
7	0xbe2c41be	-0.16821954
8	0xbebdcf53	-0.37072238
9	0xbe04be80	-0.12963295
10	0xbe86db42	-0.26339155
11	0xbe229b3e	-0.15879533
12	0xbe8a5dbd	-0.27024642
13	0x3e68c325	0.22730692
14	0xbe49a213	-0.19690733
15	0xc0a6e811	-5.2158284
16	0xbec8cc49	-0.39218357
17	0xbfa0aaf6	-1.2552173
18	0x3ebc3632	0.36760098
19	0x40118559	2.273764
20	0xbea20014	-0.31640685
21	0x3fb36f26	1.4018295
22	0xbef476f0	-0.47746992
23	0xc0475904	-3.114808
24	0xc0035e94	-2.0526476
25	0xbe08149e	-0.13289115
26	0x3f349d87	0.7055287
27	0xc01c43e0	-2.4416428
28	0x3fdc87d1	1.7228948
29	0xbeba87ac	-0.36431634
30	0xbf2aebf1	-0.6676627
31	0xbf02f718	-0.51158285

linear2.weight f4 [32, 32]
0	0xbe28ae5e	-0.16472766
1	0xbe4b414e	-0.1984913
2	0xbe11155d	-0.14168306
3	0x3de19ffa	0.11016841
4	0xbd432664	-0.047644034
5	0xbe411ff9	-0.18859853
6	0xbde6b31b	-0.112646304
7	0xbd07df1a	-0.03317175
8	0x3c9e7a24	0.01934535
9	0xbe130973	-0.14359073
10	0x3d93b933	0.07213058
11	0xbe2dd4c7	-0.169757
12	0xbd62221e	-0.055208318
13	0xbd65cd80	-0.056104183
14	0xbd290a84	-0.041269794
15	0xbdd82750	-0.10554373
16	0x3c81b6c8	0.015834227
17	0xbceacf44	-0.028663285
18	0xbe4fb082	-0.20282176
19	0xbe874626	-0.26420707
20	0xbd857801	-0.065170296
21	0xbde975cd	-0.11399422
22	0xbd34a916	-0.044106565
23	0xbc919cdc	-0.017774992
24	0x3d6d39ac	0.05791633
25	0xbd50f924	-0.05101885
26	0xbdcf08a5	-0.10109071
27	0xbe0a01d4	-0.1347726
28	0x3b08cb20	0.0020873025
29	0x3dcc5c3a	0.09978528
30	0x3bca68c0	0.006177038
31	0xbdfaf711	-0.122541554
32	0xbe79fbfc	-0.2441253
33	0xbd86560a	-0.065593794
34	0xbdcb3317	-0.09921854
35	0x3dedc69e	0.11610149
36	0xbdc64563	-0.09681203
37	0xbe45d63c	-0.19320005
38	0xbe8e8faa	-0.27843982
39	0xbe14c8be	-0.14529702
40	0xbaa38ec0	-0.0012478456
41	0xbd728338	-0.05920717
42	0xbc8a9460	-0.016916454
43	0x3d6bdc62	0.05758322
44	0xbd690dd2	-0.056897946
45	0xbd475292	-0.04866273
46	0x3cd9f240	0.026604772
47	0xbd1ec7e2	-0.03876484
48	0xbd694472	-0.05695004
49	0xbda4017a	-0.08008094
50	0xbdf3827a	-0.11890121
51	0xbdac8347	-0.08423477
52	0xbd2ccb22	-0.04218591
53	0xbe38984d	-0.18026848
54	0x3c677e50	0.014129236
55	0xbe8442ad	-0.2583212
56	0x3c968c0c	0.018377326
57	0x3e13f311	0.14448191
58	0xbe67e956	-0.22647604
59	0xbdc3b7e4	-0.09556559
60	0xbe7a96e0	-0.24471617
61	0xbd5d2c94	-0.05399759
62	0x3beaba70	0.0071633384
63	0xbcd9ceb4	-0.026587822
64	0xbfe25afb	-1.7684015
65	0xc03dfbaa	-2.9684854
66	0x3e290f85	0.16509826
67	0xbd9bdffe	-0.076110825
68	0xbdbdd8dd	-0.09269879
69	0xbff664a7	-1.9249467
70	0xc02c82f9	-2.695494
71	0x3cf36920	0.029713213
72	0x3df41ca6	0.11919527
73	0xbe07f3fc	-0.13276666
74	0xbdef3a30	-0.1168102
75	0x3dbe1656	0.09281604
76	0xbffc04fd	-1.9689022
77	0xc0bfaedf	-5.9900966
78	0xbd891d0c	-0.066949934
79	0xbfeba333	-1.840918
80	0xbdf7d62c	-0.12101397
81	0x4000e11c	2.0137396
82	0xc00a61e5	-2.162225
83	0xc14043c2	-12.016542
84	0xbe636528	-0.22206557
85	0xbee4cf74	-0.44689524
86	0x3d701fbc	0.058624014
87	0xbea99739	-0.33123186
88	0xc06b92b7	-3.6808298
89	0x3d8f8a26	0.070087716
90	0xbe0cb834	-0.13742143
91	0xbee2010d	-0.44141427
92	0xbed352d4	-0.4127413
93	0x3d45eaa0	0.04831946
94	0xc07eac51	-3.9792674
95	0x3db7aa26	0.08968
96	0x3fa4b9d5	1.2869211
97	0xc02e09bc	-2.7193441
98	0xbe094c2f	-0.13407968
99	0xbd28b0c8	-0.041184217
100	0x3e20aa3d	0.15689941
101	0xbfdce79f	-1.7258185
102	0xc0f24e3a	-7.572049
103	0xbd45e6fe	-0.048315994
104	0x3d532bde	0.051555507
105	0xbd858c00	-0.065208435
106	0xbd884f2d	-0.066557266
107	0xba32e300	-0.0006823987
108	0xbf67ae25	-0.905001
109	0xc12bf68d	-10.747693
110	0x3dc9394e	0.09825383
111	0x3fcbe58e	1.592943
112	0xbccd7980	-0.02508235
113	0x3f768cc8	0.96308565
114	0xc0247e83	-2.5702217
115	0xbfad1dd6	-1.352473
116	0xbe159562	-0.14607766
117	0xc0087613	-2.1322067
118	0xbe8d27f0	-0.27569532
119	0xc0152761	-2.3305285
120	0x3f90b7a8	1.1306047
121	0x3b9df860	0.0048208684
122	0xbe781aed	-0.24229021
123	0xbd37c8a0	-0.044869065
124	0xc0fe7991	-7.9523396
125	0xbdd77695	-0.105206646
126	0xc0275f2d	-2.615184
127	0xc0778cad	-3.8679612
128	0xbeaf4038	-0.34228683
129	0xc1df0e08	-27.881851
130	0x3f04f076	0.51929414
131	0xbda71563	-0.08158376
132	0x3e0e035e	0.13868472
133	0xc07f7bf6	-3.991941
134	0xbf2c30be	-0.67261875
135	0x3ded0d11	0.11574758
136	0x3e266ead	0.16253157
137	0x3ce72f8c	0.028220914
138	0x3de07c28	0.10961181
139	0x3d320840	0.0434649
140	0xc01cf964	-2.4527216
141	0xc08aa0a1	-4.332108
142	0x3e3755c2	0.17903808
143	0x402a1a72	2.657864
144	0xbe217bb7	-0.1576985
145	0x3fb21b1b	1.3914522
146	0xc16912c6	-14.567083
147	0xbf4291b2	-0.76003563
148	0x3eb7778b	0.35833392
149	0x3feba85b	1.8410753
150	0x3c91959c	0.017771535
151	0xbf95a5ad	-1.1691185
152	0xc0dc4c35	-6.8843026
153	0x3dfab342	0.12241222
154	0x3fe54852	1.7912695
155	0xc043cb72	-3.0592923
156	0xc0aa2f63	-5.3182845
157	0x3e2baa45	0.16764171
158	0xc1232264	-10.195896
159	0x3f97d171	1.1860791
160	0xc089f4c2	-4.3111277
161	0xc0bb8f0f	-5.861213
162	0x3e345b90	0.17613053
163	0xbd3b2a54	-0.045694664
164	0x3da623a0	0.08112264
165	0xbe9b1cae	-0.30295318
166	0x3fbd2064	1.477551
167	0x3e100d5b	0.14067595
168	0x3e2f1246	0.17096815
169	0x3cacc328	0.021089152
170	0xbca22c8c	-0.019796632
171	0x3e4658df	0.19369839
172	0x3ffbb91d	1.9665867
173	0x3fb19a4b	1.3875211
174	0x3e4735da	0.19454136
175	0x3feb2913	1.837191
176	0x3e1d116d	0.15338679
177	0x3f981fce	1.1884706
178	0xc1a051af	-20.039885
179	0x3fc607df	1.5471152
180	0x3e11d4f7	0.14241396
181	0x40fb8afe	7.860717
182	0xbd171197	-0.03688201
183	0xc0fb79d9	-7.858624
184	0x3fb408ff	1.4065245
185	0x3e298d11	0.16557719
186	0xc089b648	-4.303501
187	0xbfc9e607	-1.5773324
188	0xc177dfc6	-15.492132
189	0x3e0d690f	0.13809608
190	0xc11739a2	-9.4515705
191	0x3e8edc6a	0.27902538
192	0x3b9d6098	0.0048027746
193	0xc0705904	-3.755433
194	0xbe373bbf	-0.17893885
195	0xbe141a5e	-0.14463183
196	0x3db168ce	0.08662568
197	0xbec31d4f	-0.38108298
198	0xc0743fd4	-3.8163958
199	0x3e246ba6	0.1605669
200	0x3ca4b4b4	0.020105697
201	0x3d9af245	0.075657405
202	0xbe0d3c2a	-0.13792482
203	0x3e86f2c8	0.26357102
204	0xc07a22e2	-3.908379
205	0xbee8dc79	-0.45480707
206	0xbcefc4a0	-0.029268563
207	0xc0a477c0	-5.139618
208	0xbddc12dd	-0.107457854
209	0xc09438db	-4.6319404
210	0xbf19444a	-0.59869826
211	0xc00a8b3d	-2.1647484
212	0xbd04537c	-0.03230618
213	0x401f2eb3	2.4872253
214	0xbe56537c	-0.20930284
215	0xc0869025	-4.205096
216	0xbe1274f4	-0.14302427
217	0xbbf6f2c0	-0.0075362623
218	0xbefd4cdc	-0.49472702
219	0xc03a057e	-2.9065852
220	0xc130d650	-11.052322
221	0x3e1c2853	0.15249757
222	0xbff218e8	-1.8913851
223	0x3f94efdf	1.1635703
224	0x4055cc26	3.3405852
225	0xc04898c0	-3.1343231
226	0xbc5ae500	-0.013360262
227	0xbc4beed0	-0.012447074
228	0x3c8e5a65	0.017377088
229	0xc123feac	-10.249676
230	0xc0a8791a	-5.264783
231	0x3dfcb6fd	0.1233959
232	0x3c193200	0.0093503
233	0x3df5be00	0.1199913
234	0x3df480aa	0.11938603
235	0x3d915884	0.07096961
236	0xbe0632fb	-0.13105385
237	0xbfdc7ef1	-1.722624
238	0xbd9cd916	-0.07658593
239	0xbf9162c3	-1.1358265
240	0x3e0de0e3	0.13855319
241	0xc0a0ad5c	-5.021162
242	0x3fe9735d	1.8238331
243	0xc182e5f6	-16.362286
244	0xbc8305d8	-0.015993997
245	0x400f77eb	2.2416942
246	0x3dfac93c	0.12245414
247	0xbfdc9bc5	-1.7235037
248	0xc0955187	-4.666202
249	0xbcce60a0	-0.025192559
250	0x3fcfd6b7	1.6237401
251	0xc12c3305	-10.762456
252	0xc11606ce	-9.376661
253	0xbcb52160	-0.022110641
254	0xbe609d07	-0.21934901
255	0xbd19e0fa	-0.03756807

linear2.bias f4 [32]
0	0xbe3bc63e	-0.18337342
1	0xbe104f1e	-0.14092681
2	0xc07938c1	-3.894089
3	0x3fd57877	1.6677388
4	0xc068a426	-3.6350188
5	0xc0b616f2	-5.690301
6	0xbbc46e10	-0.005994566
7	0xc0572fb5	-3.3622868
8	0xbe94bc14	-0.29049742
9	0xbe9ff4e7	-0.31241533
10	0xbd8e31ff	-0.0694313
11	0xc001d7ef	-2.0288045
12	0xc0462ced	-3.096492
13	0x4097fa66	4.749316
14	0xbe861e88	-0.26195168
15	0xbe1d1a8a	-0.15342155
16	0xc115fa80	-9.373657
17	0xbf8e4f7d	-1.1118008
18	0xc001830a	-2.023623
19	0x40442bde	3.0651774
20	0xc05dc143	-3.4649208
21	0xc03db8d4	-2.964406
22	0xbe9b520c	-0.30336034
23	0xc031ad7f	-2.7762144
24	0xc0ad2f77	-5.412044
25	0xbf385723	-0.7200796
26	0xbd95696b	-0.072954975
27	0xbeba67d2	-0.36407334
28	0xc000a4b2	-2.0100522
29	0xbea33562	-0.31876665
30	0xbf3938e7	-0.7235245
31	0x3e381b0c	0.17979068

output.weight f4 [3, 32]
0	0x3d147456	0.03624376
1	0x3d23cbb2	0.03998918
2	0x3e0c0f4f	0.13677715
3	0xbeecec67	-0.4627411
4	0x3efacb2a	0.48983127
5	0x3f04bec4	0.51853585
6	0x3e42012c	0.1894576
7	0x3e8bff6d	0.27343312
8	0x3d1d4caa	0.03840319
9	0x3dad3a7a	0.08458419
10	0xbc93a814	-0.018024482
11	0xbe749ce9	-0.23887981
12	0x3f5450c8	0.8293576
13	0xbf862e24	-1.0482831
14	0xba61f0cc	-0.00086189504
15	0x3f5c2d9b	0.8600709
16	0xbf4400fe	-0.76564014
17	0x3faadfd9	1.3349563
18	0x3e7c8fc0	0.24664211
19	0x3f4be70f	0.7964944
20	0x3f1e4403	0.6182253
21	0xbebc17e8	-0.3673699
22	0x3d123a73	0.035700273
23	0x3f622bf8	0.8834834
24	0x402b8da9	2.6805212
25	0xbccea980	-0.025227308
26	0x3d6b03ec	0.057376787
27	0x3cf006e8	0.029300168
28	0xbf5c65d7	-0.86092895
29	0x3c67b980	0.014143348
30	0xbde06817	-0.109573536
31	0xbf1a74ed	-0.60334665
32	0xbcd26a94	-0.025685586
33	0xbd87ad7f	-0.06624889
34	0x3e5be11c	0.21472591
35	0xbea929af	-0.33039615
36	0x3ed1a3f6	0.40945405
37	0x3f120fbc	0.5705526
38	0x3e5adef8	0.21374118
39	0x3ecdfabd	0.4023036
40	0xbdadf39e	-0.08493732
41	0x3d2a6528	0.041600376
42	0xbe4e899e	-0.20169684
43	0xbe852608	-0.26005578
44	0x3f59340f	0.8484506
45	0xbf8233d2	-1.0172064
46	0x3d84be9e	0.0648167
47	0x3f597608	0.84945726
48	0xbf5612b4	-0.8362229
49	0x3f83f313	1.0308555
50	0x3e0eab20	0.13932467
51	0x3f6436ec	0.89146304
52	0x408955ae	4.291709
53	0xbc8281e8	-0.015931085
54	0x3df5db39	0.12004704
55	0xbe4901de	-0.19629619
56	0x3f5cf07e	0.8630446
57	0x3e3965a3	0.18105178
58	0xbdf9c884	-0.121964484
59	0x3e2c28c0	0.1681242
60	0xbf29f166	-0.6638397
61	0x3e1eaf67	0.15496598
62	0x3d55cb3a	0.052195765
63	0xbf1acf52	-0.60472596
64	0x3ceba608	0.028765693
65	0xbe0694ab	-0.1314265
66	0x3e5f75b9	0.21822251
67	0xbeccc080	-0.39990616
68	0x3e34337c	0.17597765
69	0x3f0fb129	0.561297
70	0x3f09ceef	0.5383138
71	0x3eda21ec	0.42604005
72	0x3d49b7be	0.049247496
73	0xbd53d350	-0.051715195
74	0xbd7dc004	-0.0619507
75	0xbe452c2d	-0.19255133
76	0x3f5fa1a3	0.87356013
77	0xbf85b8d0	-1.0447025
78	0x3b681a60	0.0035416111
79	0x3ddca5f9	0.10773844
80	0xbf56a1d7	-0.838407
81	0x3f902f4e	1.1264436
82	0x3b866170	0.004100971
83	0x3f40e057	0.75342315
84	0x3f590aa1	0.84781843
85	0xbd397aae	-0.045283012
86	0x3d231196	0.039811693
87	0x3dea0237	0.11426204
88	0x3e9babdf	0.30404565
89	0xbb7f1080	-0.0038919747
90	0x3d9232e3	0.07138612
91	0x3dbcc674	0.092175394
92	0x3e8daacc	0.2766937
93	0xbdab9193	-0.083773755
94	0x3dec3157	0.11532848
95	0xbf1d6b96	-0.6149229

output.bias f4 [3]
0	0x3dd57119	0.10421962
1	0x3e101b1e	0.14072844
2	0x3d948a15	0.072528996

square_avg f4 [32, 7]
0	0x362e35ed	2.595941e-06
1	0x38832ca2	6.25488e-05
2	0x34e5dc11	4.2814693e-07
3	0x35b318d0	1.3343761e-06
4	0x3823a744	3.9018007e-05
5	0x35ae9c13	1.3009434e-06
6	0x36bc8ce5	5.619239e-06
7	0x3a0289ba	0.00049796293
8	0x3a7f0a9b	0.00097290584
9	0x373f8a18	1.141664e-05
10	0x374ac137	1.2085125e-05
11	0x3a85a6d2	0.0010196811
12	0x37f1a5e9	2.8806697e-05
13	0x3d55a21d	0.052156556
14	0x00000032	7e-44
15	0x00000032	7e-44
16	0x00000032	7e-44
17	0x00000032	7e-44
18	0x00000032	7e-44
19	0x00000032	7e-44
20	0x00000032	7e-44
21	0x00000000	0.0
22	0x00000000	0.0
23	0x00000000	0.0
24	0x00000000	0.0
25	0x00000000	0.0
26	0x00000000	0.0
27	0x00000000	0.0
28	0x00000032	7e-44
29	0x00000032	7e-44
30	0x00000032	7e-44
31	0x00000032	7e-44
32	0x00000032	7e-44
33	0x00000032	7e-44
34	0x00000032	7e-44
35	0x345a76e0	2.0346079e-07
36	0x3301b4ee	3.0199708e-08
37	0x2f36b209	1.6616054e-10
38	0x3044f386	7.165045e-10
39	0x34709155	2.2404613e-07
40	0x3060df13	8.1807733e-10
41	0x00000032	7e-44
42	0x3ae17631	0.0017201361
43	0x3b2cb54a	0.0026353174
44	0x37e50543	2.7301377e-05
45	0x386cfbee	5.6501412e-05
46	0x3adb2d6f	0.0016721914
47	0x382906d7	4.029911e-05
48	0x3ddc749c	0.10764429
49	0x00000032	7e-44
50	0x00000032	7e-44
51	0x00000032	7e-44
52	0x00000032	7e-44
53	0x00000032	7e-44
54	0x00000032	7e-44
55	0x00000032	7e-44
56	0x00000032	7e-44
57	0x00000032	7e-44
58	0x00000032	7e-44
59	0x00000032	7e-44
60	0x00000032	7e-44
61	0x00000032	7e-44
62	0x00000032	7e-44
63	0x00000032	7e-44
64	0x00000032	7e-44
65	0x00000032	7e-44
66	0x00000032	7e-44
67	0x00000032	7e-44
68	0x00000032	7e-44
69	0x00000032	7e-44
70	0x00000032	7e-44
71	0x00000032	7e-44
72	0x00000032	7e-44
73	0x00000032	7e-44
74	0x00000032	7e-44
75	0x00000032	7e-44
76	0x00000000	0.0
77	0x00000032	7e-44
78	0x00000032	7e-44
79	0x00000032	7e-44
80	0x00000032	7e-44
81	0x00000000	0.0
82	0x00000032	7e-44
83	0x00000032	7e-44
84	0x3913bb1a	0.00014088713
85	0x39a74b3b	0.00031908773
86	0x36269d0b	2.4827339e-06
87	0x36356337	2.7028852e-06
88	0x398f96d2	0.00027387455
89	0x36b4bfc8	5.3867443e-06
90	0x3bac6559	0.005261105
91	0x390bbbae	0.00013325989
92	0x3a42a6db	0.0007425376
93	0x37014877	7.705871e-06
94	0x36914bfd	4.330183e-06
95	0x391858e3	0.00014528962
96	0x372550d6	9.8535875e-06
97	0x00000032	7e-44
98	0x00000032	7e-44
99	0x00000032	7e-44
100	0x00000032	7e-44
101	0x00000032	7e-44
102	0x00000032	7e-44
103	0x00000032	7e-44
104	0x00000032	7e-44
105	0x00000032	7e-44
106	0x00000032	7e-44
107	0x00000032	7e-44
108	0x00000032	7e-44
109	0x00000032	7e-44
110	0x00000032	7e-44
111	0x00000032	7e-44
112	0x00000032	7e-44
113	0x00000032	7e-44
114	0x00000032	7e-44
115	0x00000032	7e-44
116	0x00000032	7e-44
117	0x00000000	0.0
118	0x00000032	7e-44
119	0x39f304fc	0.00046352285
120	0x3a85c7f5	0.0010206687
121	0x36c8b11a	5.981082e-06
122	0x373c338c	1.1217675e-05
123	0x3a80c89a	0.0009825409
124	0x3721abc5	9.636341e-06
125	0x3cf1947a	0.029489744
126	0x3885ba9d	6.376694e-05
127	0x39f6cff1	0.00047075705
128	0x3707e1dc	8.099214e-06
129	0x3736e973	1.09023995e-05
130	0x38f88145	0.0001184964
131	0x37bc1388	2.2420441e-05
132	0x3cefcd7b	0.029272785
133	0x3c09b644	0.008405272
134	0x3bf110c5	0.0073567354
135	0x37cbf1d8	2.4312103e-05
136	0x38a9df60	8.100155e-05
137	0x3c013381	0.007885815
138	0x382668ed	3.9675204e-05
139	0x3e939109	0.2882159
140	0x00000032	7e-44
141	0x00000032	7e-44
142	0x00000032	7e-44
143	0x00000032	7e-44
144	0x00000032	7e-44
145	0x00000032	7e-44
146	0x00000032	7e-44
147	0x3a5a15dc	0.00083192973
148	0x3adf11b8	0.001701883
149	0x3783df89	1.5720509e-05
150	0x3799f012	1.8350813e-05
151	0x3aa6dc35	0.0012730422
152	0x37ed75f2	2.8307524e-05
153	0x3d828502	0.063730255
154	0x00000032	7e-44
155	0x00000032	7e-44
156	0x00000032	7e-44
157	0x00000032	7e-44
158	0x00000032	7e-44
159	0x00000032	7e-44
160	0x00000032	7e-44
161	0x3ad04dca	0.0015892324
162	0x3b649df6	0.003488419
163	0x3721e3bd	9.649372e-06
164	0x37f1db3a	2.8831524e-05
165	0x3b1490b5	0.002266926
166	0x37b76839	2.1863832e-05
167	0x3dd732d8	0.105077446
168	0x00000032	7e-44
169	0x00000032	7e-44
170	0x00000032	7e-44
171	0x00000032	7e-44
172	0x00000032	7e-44
173	0x00000032	7e-44
174	0x00000032	7e-44
175	0x00000000	0.0
176	0x00000000	0.0
177	0x00000000	0.0
178	0x00000000	0.0
179	0x00000000	0.0
180	0x00000000	0.0
181	0x00000000	0.0
182	0x3bddf737	0.006773855
183	0x3c48cc4f	0.012255742
184	0x3884bb9a	6.329194e-05
185	0x38265e1e	3.9665138e-05
186	0x3c37a883	0.01120961
187	0x38a8331c	8.020384e-05
188	0x3e81d184	0.2535516
189	0x3af40233	0.0018616378
190	0x3b06333b	0.0020477313
191	0x36c1c670	5.7749494e-06
192	0x37a2e696	1.941928e-05
193	0x3af604f2	0.0018769784
194	0x374fd034	1.23866375e-05
195	0x3dab718f	0.08371269
196	0x38460891	4.7214857e-05
197	0x367e7b9c	3.79209e-06
198	0x3326d6b6	3.8845165e-08
199	0x347a866a	2.3331964e-07
200	0x37e6a3c5	2.7494398e-05
201	0x342b37fc	1.5945983e-07
202	0x3947f6ed	0.00019070106
203	0x00000000	0.0
204	0x00000000	0.0
205	0x00000000	0.0
206	0x00000000	0.0
207	0x00000000	0.0
208	0x00000000	0.0
209	0x00000000	0.0
210	0x3b15880f	0.0022816693
211	0x3aaa689c	0.0013001147
212	0x36702d4e	3.5789158e-06
213	0x37985e0e	1.816361e-05
214	0x3ac1aebd	0.0014776808
215	0x371f6394	9.500323e-06
216	0x3daf574d	0.08561573
217	0x00000032	7e-44
218	0x00000032	7e-44
219	0x00000032	7e-44
220	0x00000032	7e-44
221	0x00000032	7e-44
222	0x00000032	7e-44
223	0x00000032	7e-44

square_avg f4 [32]
0	0x3936e0c3	0.00017440603
1	0x3b8ba023	0.004261033
2	0x00000032	7e-44
3	0x00000000	0.0
4	0x00000032	7e-44
5	0x3478c58c	2.3168667e-07
6	0x3c353b85	0.011061554
7	0x00000032	7e-44
8	0x00000032	7e-44
9	0x00000032	7e-44
10	0x00000032	7e-44
11	0x00000032	7e-44
12	0x3a3a3621	0.0007103403
13	0x3aab5eb7	0.0013074492
14	0x00000032	7e-44
15	0x00000032	7e-44
16	0x00000032	7e-44
17	0x3b3540bd	0.0027656995
18	0x3b3a9d03	0.0028474934
19	0x3cd87159	0.026421236
20	0x00000032	7e-44
21	0x3bd28376	0.006424363
22	0x00000032	7e-44
23	0x3bec215d	0.0072061257
24	0x00000032	7e-44
25	0x00000000	0.0
26	0x3ce9c436	0.028535943
27	0x3bbfa71e	0.0058487793
28	0x387b3542	5.9892664e-05
29	0x00000000	0.0
30	0x3ba36fbf	0.0049876864
31	0x00000032	7e-44

square_avg f4 [32, 32]
0	0x00000032	7e-44
1	0x00000032	7e-44
2	0x00000032	7e-44
3	0x00000000	0.0
4	0x00000032	7e-44
5	0x00000032	7e-44
6	0x00000032	7e-44
7	0x00000032	7e-44
8	0x00000032	7e-44
9	0x00000000	0.0
10	0x00000032	7e-44
11	0x00000000	0.0
12	0x00000032	7e-44
13	0x00000032	7e-44
14	0x00000000	0.0
15	0x00000032	7e-44
16	0x00000000	0.0
17	0x00000032	7e-44
18	0x00000032	7e-44
19	0x00000032	7e-44
20	0x00000032	7e-44
21	0x00000032	7e-44
22	0x00000032	7e-44
23	0x00000032	7e-44
24	0x00000032	7e-44
25	0x00000000	0.0
26	0x00000032	7e-44
27	0x00000032	7e-44
28	0x00000032	7e-44
29	0x00000000	0.0
30	0x00000032	7e-44
31	0x00000032	7e-44
32	0x00000032	7e-44
33	0x00000032	7e-44
34	0x00000032	7e-44
35	0x00000000	0.0
36	0x00000032	7e-44
37	0x00000032	7e-44
38	0x00000032	7e-44
39	0x00000032	7e-44
40	0x00000032	7e-44
41	0x00000032	7e-44
42	0x00000032	7e-44
43	0x00000032	7e-44
44	0x00000032	7e-44
45	0x00000032	7e-44
46	0x00000032	7e-44
47	0x00000032	7e-44
48	0x00000000	0.0
49	0x00000032	7e-44
50	0x00000032	7e-44
51	0x00000032	7e-44
52	0x00000032	7e-44
53	0x00000032	7e-44
54	0x00000032	7e-44
55	0x00000032	7e-44
56	0x00000032	7e-44
57	0x00000000	0.0
58	0x00000032	7e-44
59	0x00000032	7e-44
60	0x00000032	7e-44
61	0x00000000	0.0
62	0x00000032	7e-44
63	0x00000032	7e-44
64	0x00000032	7e-44
65	0x00000032	7e-44
66	0x00000000	0.0
67	0x00000000	0.0
68	0x00000000	0.0
69	0x00000032	7e-44
70	0x00000032	7e-44
71	0x00000000	0.0
72	0x00000000	0.0
73	0x00000000	0.0
74	0x00000000	0.0
75	0x00000000	0.0
76	0x00000032	7e-44
77	0x00000032	7e-44
78	0x00000000	0.0
79	0x00000032	7e-44
80	0x00000000	0.0
81	0x00000032	7e-44
82	0x00000032	7e-44
83	0x00000032	7e-44
84	0x00000032	7e-44
85	0x00000032	7e-44
86	0x00000000	0.0
87	0x00000032	7e-44
88	0x00000032	7e-44
89	0x00000000	0.0
90	0x00000032	7e-44
91	0x00000032	7e-44
92	0x00000032	7e-44
93	0x00000000	0.0
94	0x00000032	7e-44
95	0x00000000	0.0
96	0x00000032	7e-44
97	0x00000032	7e-44
98	0x00000032	7e-44
99	0x00000000	0.0
100	0x00000032	7e-44
101	0x15ac8d23	6.969292e-26
102	0x00000032	7e-44
103	0x00000032	7e-44
104	0x00000032	7e-44
105	0x00000032	7e-44
106	0x00000032	7e-44
107	0x00000032	7e-44
108	0x337249fb	5.64123e-08
109	0x00000032	7e-44
110	0x00000032	7e-44
111	0x00000032	7e-44
112	0x00000032	7e-44
113	0x35a4c225	1.2275456e-06
114	0x00000032	7e-44
115	0x3679b2eb	3.7208035e-06
116	0x00000032	7e-44
117	0x2bc71caa	1.4147756e-12
118	0x00000032	7e-44
119	0x32da4216	2.5408593e-08
120	0x00000032	7e-44
121	0x00000000	0.0
122	0x343e9fbf	1.7753244e-07
123	0x354de1cb	7.6697023e-07
124	0x2897539d	1.6800629e-14
125	0x00000000	0.0
126	0x338661a1	6.25762e-08
127	0x00000032	7e-44
128	0x00000032	7e-44
129	0x317cbb9b	3.6777468e-09
130	0x00000032	7e-44
131	0x00000000	0.0
132	0x00000032	7e-44
133	0x00000032	7e-44
134	0x368508e5	3.9647443e-06
135	0x00000032	7e-44
136	0x00000032	7e-44
137	0x00000032	7e-44
138	0x00000032	7e-44
139	0x00000032	7e-44
140	0x36b124de	5.279303e-06
141	0x00000032	7e-44
142	0x00000032	7e-44
143	0x00000032	7e-44
144	0x00000000	0.0
145	0x3770c9f4	1.4352136e-05
146	0x2e16980b	3.4241093e-11
147	0x380e8ac3	3.398467e-05
148	0x00000032	7e-44
149	0x3764e99e	1.3644252e-05
150	0x00000032	7e-44
151	0x00000032	7e-44
152	0x00000032	7e-44
153	0x00000000	0.0
154	0x3870c1de	5.7401012e-05
155	0x00000032	7e-44
156	0x00000032	7e-44
157	0x00000000	0.0
158	0x319c54ad	4.549824e-09
159	0x00000032	7e-44
160	0x3431d74e	1.6562737e-07
161	0x38af2bdb	8.352819e-05
162	0x00000032	7e-44
163	0x00000000	0.0
164	0x00000032	7e-44
165	0x2d0b3aba	7.914275e-12
166	0x38d7d663	0.000102919315
167	0x00000032	7e-44
168	0x00000032	7e-44
169	0x00000032	7e-44
170	0x00000032	7e-44
171	0x00000032	7e-44
172	0x38f0b598	0.00011477916
173	0x38fa3bbf	0.000119320575
174	0x00000032	7e-44
175	0x00000032	7e-44
176	0x00000000	0.0
177	0x3a6d2a0a	0.0009047097
178	0x341b79e7	1.4479848e-07
179	0x3b41fd9e	0.002960063
180	0x00000032	7e-44
181	0x398dc24a	0.00027038372
182	0x00000032	7e-44
183	0x361aef7f	2.3087193e-06
184	0x00000032	7e-44
185	0x00000000	0.0
186	0x39afcd86	0.00033531728
187	0x301b07c5	5.639971e-10
188	0x29872006	6.0007595e-14
189	0x00000000	0.0
190	0x3229f528	9.892837e-09
191	0x00000032	7e-44
192	0x00000032	7e-44
193	0x00000032	7e-44
194	0x00000032	7e-44
195	0x00000000	0.0
196	0x00000032	7e-44
197	0x00000032	7e-44
198	0x00000032	7e-44
199	0x00000032	7e-44
200	0x00000032	7e-44
201	0x00000032	7e-44
202	0x00000000	0.0
203	0x00000032	7e-44
204	0x00000032	7e-44
205	0x00000032	7e-44
206	0x00000032	7e-44
207	0x00000032	7e-44
208	0x00000000	0.0
209	0x00000032	7e-44
210	0x00000032	7e-44
211	0x00000032	7e-44
212	0x00000032	7e-44
213	0x00000032	7e-44
214	0x00000032	7e-44
215	0x00000032	7e-44
216	0x00000032	7e-44
217	0x00000000	0.0
218	0x00000032	7e-44
219	0x00000032	7e-44
220	0x00000032	7e-44
221	0x00000000	0.0
222	0x00000032	7e-44
223	0x00000032	7e-44
224	0x00000032	7e-44
225	0x38005b58	3.060265e-05
226	0x00000000	0.0
227	0x00000000	0.0
228	0x00000032	7e-44
229	0x2eaa3b62	7.7412535e-11
230	0x3511033e	5.402143e-07
231	0x00000032	7e-44
232	0x00000032	7e-44
233	0x00000032	7e-44
234	0x00000000	0.0
235	0x00000032	7e-44
236	0x38d09371	9.945676e-05
237	0x1d98b86d	4.0424757e-21
238	0x00000032	7e-44
239	0x00000032	7e-44
240	0x00000000	0.0
241	0x2ffab18f	4.5600898e-10
242	0x00000032	7e-44
243	0x344a2a01	1.8827997e-07
244	0x00000032	7e-44
245	0x38b3055c	8.5363834e-05
246	0x00000032	7e-44
247	0x00000032	7e-44
248	0x00000032	7e-44
249	0x00000000	0.0
250	0x39ebe207	0.00044991096
251	0x00000032	7e-44
252	0x327a2fcf	1.4562786e-08
253	0x00000000	0.0
254	0x37ca9f6b	2.4154511e-05
255	0x00000032	7e-44

square_avg f4 [32]
0	0x00000032	7e-44
1	0x00000032	7e-44
2	0x00000032	7e-44
3	0x368c5cdd	4.183136e-06
4	0x36c30951	5.8125374e-06
5	0x392bfd76	0.00016402252
6	0x00000032	7e-44
7	0x37ba6e65	2.2224334e-05
8	0x00000032	7e-44
9	0x00000032	7e-44
10	0x00000032	7e-44
11	0x35268711	6.2036366e-07
12	0x3a681d7b	0.00088544906
13	0x3aea2a4d	0.001786539
14	0x00000032	7e-44
15	0x38a781b8	7.9873425e-05
16	0x39080739	0.00012972661
17	0x38c03723	9.1655435e-05
18	0x00000032	7e-44
19	0x375bfd43	1.3112384e-05
20	0x00000032	7e-44
21	0x00000032	7e-44
22	0x00000032	7e-44
23	0x00000032	7e-44
24	0x00000032	7e-44
25	0x00000032	7e-44
26	0x00000032	7e-44
27	0x00000032	7e-44
28	0x00000032	7e-44
29	0x00000032	7e-44
30	0x00000032	7e-44
31	0x3a7232cc	0.00092391367

square_avg f4 [3, 32]
0	0x00000032	7e-44
1	0x00000032	7e-44
2	0x00000032	7e-44
3	0x3494358c	2.760611e-07
4	0x3896215d	7.158772e-05
5	0x3c28d0df	0.010303705
6	0x00000032	7e-44
7	0x38b69cdd	8.707654e-05
8	0x00000032	7e-44
9	0x00000032	7e-44
10	0x00000032	7e-44
11	0x362c99fe	2.5719633e-06
12	0x3ba58041	0.0050506894
13	0x3c569ca3	0.013098869
14	0x00000032	7e-44
15	0x3aa39de8	0.0012482973
16	0x39762def	0.000234775
17	0x38cb8ff0	9.706605e-05
18	0x00000032	7e-44
19	0x368f6699	4.273676e-06
20	0x00000032	7e-44
21	0x00000032	7e-44
22	0x00000032	7e-44
23	0x00000032	7e-44
24	0x00000032	7e-44
25	0x00000032	7e-44
26	0x00000032	7e-44
27	0x00000032	7e-44
28	0x00000032	7e-44
29	0x00000000	0.0
30	0x00000032	7e-44
31	0x3d2fd7c4	0.04293038
32	0x00000032	7e-44
33	0x00000032	7e-44
34	0x00000032	7e-44
35	0x357dfe63	9.4620026e-07
36	0x382a3713	4.058245e-05
37	0x3c323856	0.010877689
38	0x00000032	7e-44
39	0x39a11ce4	0.00030729838
40	0x00000032	7e-44
41	0x00000032	7e-44
42	0x00000032	7e-44
43	0x3556a2be	7.9958033e-07
44	0x3cbd8ee0	0.023139417
45	0x3c6efd94	0.014586825
46	0x00000032	7e-44
47	0x3b06138a	0.0020458424
48	0x3a8dd4ac	0.0010820827
49	0x36b3dddb	5.360443e-06
50	0x00000032	7e-44
51	0x365682c0	3.1964591e-06
52	0x00000032	7e-44
53	0x00000032	7e-44
54	0x00000032	7e-44
55	0x00000032	7e-44
56	0x00000032	7e-44
57	0x00000032	7e-44
58	0x00000032	7e-44
59	0x00000032	7e-44
60	0x00000032	7e-44
61	0x00000000	0.0
62	0x00000032	7e-44
63	0x3dc1349a	0.09433861
64	0x00000000	0.0
65	0x00000000	0.0
66	0x00000032	7e-44
67	0x3697881c	4.515996e-06
68	0x369460d7	4.4220174e-06
69	0x3c0a68ab	0.008447806
70	0x00000032	7e-44
71	0x3a32512c	0.00068022567
72	0x00000032	7e-44
73	0x00000032	7e-44
74	0x00000032	7e-44
75	0x360923aa	2.043535e-06
76	0x3d0b1fa7	0.033965733
77	0x3cadbab3	0.02120719
78	0x00000032	7e-44
79	0x36a29509	4.845326e-06
80	0x392f274b	0.00016703938
81	0x37333cdd	1.0683402e-05
82	0x00000032	7e-44
83	0x38194395	3.6540983e-05
84	0x00000032	7e-44
85	0x00000032	7e-44
86	0x00000032	7e-44
87	0x00000032	7e-44
88	0x00000032	7e-44
89	0x00000032	7e-44
90	0x00000032	7e-44
91	0x00000032	7e-44
92	0x00000032	7e-44
93	0x00000032	7e-44
94	0x00000032	7e-44
95	0x3dec15b9	0.11527581

square_avg f4 [3]
0	0x3a54f4cc	0.0008123636
1	0x3a87f7a5	0.0010373486
2	0x3aa0dd2b	0.0012272944
