train1.pt (torch_old, 13266 bytes, 12 tensors)

linear1.weight f4 [32, 7]
00000000: 1f71 043e e3aa 70c0 1003 c940 8ada 0dc2
00000010: 2abd 25bf 051e 38c0 8ce4 1a3d 01a6 ddbe
00000020: 0ce7 a53d eb7d 2bc0 2bd7 b041 691d 383f
00000030: 8e4d c73f 2edc d0be d0f8 2c3b 3b68 963d
00000040: 1e38 ae3d e8f2 76be aef9 9d3e a3c6 813e
00000050: a065 d2be 8e35 333e 8183 85be e026 f03c
00000060: d830 f4bd d788 b0be 6dcc bd3e 3618 37be
00000070: 62ff 333e 7d24 5abe 9b35 3abe 2094 7c3c
00000080: 5037 183d 126a 003f d494 4abd 9c6a 9540
00000090: 3276 0c40 8bbc f140 77c1 5abf 620d 2bbf
000000a0: 1a2f febe eb34 90bf 8510 28be 8308 83be
000000b0: e1b7 95c1 45a1 dd3f 8d9b 3cbe f60b 6840
000000c0: 6b3e c03e 97f2 99bd 6a51 18bf 208e 58bc
000000d0: d40c 28be e206 fb3d 6e75 00be c7ad e4bd
000000e0: 1131 4c3e 9c73 ca3c 4f7d a4be 8dc6 bebd
000000f0: c5c0 f4be 6a7b c23e 2ddf 60be 2740 e8be
00000100: 68dc 90be 0848 30bd 143a c3bd c0c6 27bc
00000110: 3836 a5bc 2ebd f0bd dc98 3bbd dba7 f4be
00000120: fb93 5bbe 7559 cebe 3395 0a3e 771c e13e
00000130: c316 41be e6d0 21be a296 24be 75bb 16be
00000140: d513 60be 18de 113d bc25 aa3e 3030 25bd
00000150: 9e73 21bf eaed 57bf bc97 60c1 fdb3 07c2
00000160: 03a2 103d 220d 973f 577c 9e3c cae2 bbbf
00000170: 2803 91bf 4f3b d0c0 aa60 efc0 d8c6 96bd
00000180: 163e 5140 da38 0fc0 9de2 b13d b297 aebe
00000190: 95e6 abbd 9397 df3d 182c 063d 4652 d03e
000001a0: c413 7abd 0f41 c53f e307 7c3d ab6b e6c1
000001b0: 8a61 3cbe ee30 b3bd bee5 9bc0 21ae 0dbf
000001c0: 298c 9cbe 3f07 0c3e 4066 ab3e 7451 473d
000001d0: c66e 533e deb8 99be 7aa5 6bbe 7af0 3dc0
000001e0: 14bf 2c3e 03bd 32c2 be5d 54bf c48c 593c
000001f0: 4aff e4be 049d 0ebd 9ac2 0940 2ec1 b5bf
00000200: 1276 0941 ef08 06c2 534b dcbf fc69 7ec0
00000210: 408e 423e 735d 82c1 e0b4 433f b1cc e1c1
00000220: f384 cfbf bd33 14bf 4f2e d6bf e5ae e0bc
00000230: d5ac dac0 ac31 983d 2988 7a3f cac3 acbf
00000240: ca73 86bf f31f 243f 3201 a7be ab0d db3f
00000250: f158 11c0 7dc3 d841 cf5c 06c1 3d80 39bf
00000260: add9 3240 87f9 3cbf 47dc d2bf 5780 c63e
00000270: 3041 b23d 0e30 dcbf 999b 14bf a7b7 bb3e
00000280: acde 65be ca65 f33f d3c6 0d40 81ca d43e
00000290: 3f17 e741 6e07 fabd 99cb 2d3f 4f5a ae3d
000002a0: a973 82c0 0faa ff3f 81c2 bcc0 7171 a340
000002b0: a358 ef3f bd4e 0741 c28e 47c0 c561 0bbe
000002c0: 70d8 cb3c b813 e23d d902 88be 887e 9abe
000002d0: 9294 2f3e 08c3 62bd 58d4 acbe 15dd 21c1
000002e0: b54c 7e41 4d36 15c2 4015 eabe c526 4c3f
000002f0: 9fd8 4d3e 54f8 ec3f a912 f53f 0480 ce41
00000300: 7b8e c941 ed0a fb3d b151 b7c0 de0a 58be
00000310: e3d3 5840 cf4b 78be a2ee 7442 60a1 1c40
00000320: 1a6d 3f3e 26ba b13f 41cf 423d 00d4 2a3b
00000330: 9237 03be 0062 a3bc 30d9 643d 9123 76be
00000340: d0c1 863d 2477 8abd 1cd0 f73f ba0f 9bbf
00000350: adfa d241 a4ff c5c1 554f bbbe 7826 46c0
00000360: a4f1 9e3d 9c60 13c0 17a4 96bf 3b12 c13d
00000370: 6e09 bbbe 2dba d93e c567 4dbf 7e6e 9abf
0.12933777 -3.76043 6.281624 -35.463417 -0.64741766 -2.8768322 0.037815616 -0.43290713
0.08100709 -2.6795604 22.105062 0.71919876 1.5570543 -0.40792984 0.002639342 0.07344099
0.08506797 -0.24116099 0.30854553 0.2534686 -0.4109316 0.17500898 -0.26076892 0.029315412
-0.11923379 -0.344794 0.37070027 -0.1788033 0.1757789 -0.21302982 -0.18184511 0.015416175
0.037162125 0.5016185 -0.04945834 4.669264 2.194714 7.5542655 -0.85451454 -0.66817296
-0.4964531 -1.1266149 -0.16412552 -0.2559243 -18.714785 1.731484 -0.18418713 3.62573
0.3754762 -0.075169735 -0.5949923 -0.013217479 -0.16411144 0.12257172 -0.12544796 -0.11165958
0.19940592 0.02471333 -0.32126853 -0.09315214 -0.4780332 0.37984782 -0.21960135 -0.45361444
-0.28293157 -0.043037444 -0.09532562 -0.010240257 -0.020167455 -0.11754833 -0.045800075 -0.47784314
-0.21443169 -0.40302625 0.13533477 0.4396703 -0.18856339 -0.15802345 -0.16073087 -0.14719947
-0.21882565 0.035612196 0.33231914 -0.04032916 -0.6306704 -0.84347403 -14.037045 -33.92577
0.035310756 1.1800883 0.0193464 -1.4678586 -1.1329088 -6.50724 -7.48055 -0.07362145
3.2694144 -2.237845 0.08685801 -0.3410011 -0.083935894 0.10917582 0.032756895 0.4068777
-0.061054006 1.5410479 0.06153096 -28.802572 -0.18396583 -0.08749567 -4.8717947 -0.55343825
-0.30575684 0.13674639 0.33476448 0.048661664 0.20647725 -0.30023855 -0.23012343 -2.9678025
0.16869766 -44.68458 -0.8295554 0.01327819 -0.4472602 -0.03481771 2.1525025 -1.4199579
8.591326 -33.508724 -1.7210487 -3.9752188 0.18999577 -16.29563 0.7644787 -28.224947
-1.6212448 -0.57891446 -1.6732882 -0.027427146 -6.8335977 0.07431349 0.97864014 -1.349725
-1.0504086 0.6411125 -0.326181 1.7113546 -2.2710536 27.095453 -8.397658 -0.724613
2.7945359 -0.7381825 -1.6473473 0.3876979 0.0870384 -1.7202165 -0.58049923 0.36663553
-0.22448224 1.9015439 2.2152603 0.41560748 28.88635 -0.12208448 0.6788879 0.08513319
-4.0766187 1.9973773 -5.898743 5.107598 1.8698925 8.456723 -3.1180882 -0.13611515
0.024883479 0.11038917 -0.26564673 -0.3017466 0.17146519 -0.055361778 -0.33755755 -10.116475
15.893727 -37.30303 -0.45719337 0.7974666 0.20102166 1.8513284 1.914632 25.812508
25.19457 0.12257943 -5.728722 -0.21097896 3.3879325 -0.24247669 61.23304 2.4473495
0.18693963 1.3884933 0.047560934 0.0026066303 -0.12814167 -0.019944191 0.05587119 -0.24037005
0.065799356 -0.067610055 1.9360385 -1.2114174 26.3724 -24.749825 -0.36583963 -3.096098
0.07760933 -2.3027716 -1.1768826 0.09427305 -0.36530632 0.42524853 -0.80236465 -1.206497

linear1.bias f4 [32]
00000000: a22a d03f 1d84 1a3e 24ed d9be 2991 b4be
00000010: 7bcc babe db1f 8bc0 bbe0 8abf be41 2cbe
00000020: 53cf bdbe 80be 04be 42db 86be 3e9b 22be
00000030: 34ba 953e b125 f33f 13a2 49be cc5d c4bf
00000040: 49cc c8be 8766 363f 6de2 bcbf adc3 5740
00000050: 1400 a2be 4d05 d03f f076 f4be 058b 83c0
00000060: 1342 a7bf 9e14 08be 5450 0c40 906c cebf
00000070: 41d8 03bf ac87 babe e1c5 463e 18f7 02bf
1.626301 0.1508946 -0.42563736 -0.35266998 -0.3648413 -4.3476386 -1.0849832 -0.16821954
-0.37072238 -0.12963295 -0.26339155 -0.15879533 0.29243624 1.8995878 -0.19690733 -1.5341125
-0.39218357 0.71250194 -1.47566 3.371318 -0.31640685 1.6251618 -0.47746992 -4.11072
-1.3067039 -0.13289115 2.1924028 -1.6126881 -0.5150185 -0.36431634 0.19411422 -0.51158285

linear2.weight f4 [32, 32]
00000000: 5eae 28be 4e41 4bbe 5d15 11be fa9f e13d
00000010: 6426 43bd f91f 41be 1bb3 e6bd 1adf 07bd
00000020: 247a 9e3c 7309 13be 33b9 933d c7d4 2dbe
00000030: 1e22 62bd 80cd 65bd 840a 29bd 5027 d8bd
00000040: c8b6 813c 44cf eabc 82b0 4fbe 2646 87be
00000050: 0178 85bd cd75 e9bd 16a9 34bd dc9c 91bc
00000060: ac39 6d3d 24f9 50bd a508 cfbd d401 0abe
00000070: 20cb 083b 3a5c cc3d c068 ca3b 11f7 fabd
00000080: fcfb 79be 0a56 86bd 1733 cbbd 9ec6 ed3d
00000090: 6345 c6bd 3cd6 45be aa8f 8ebe bec8 14be
000000a0: c08e a3ba 3883 72bd 6094 8abc 62dc 6b3d
000000b0: d20d 69bd 9252 47bd 40f2 d93c e2c7 1ebd
000000c0: 7244 69bd 7a01 a4bd 7a82 f3bd d81d 813c
000000d0: 22cb 2cbd 4d98 38be 507e 673c ad42 84be
000000e0: 0c8c 963c 11f3 133e 56e9 67be be15 913b
000000f0: e096 7abe 942c 5dbd 70ba ea3b b4ce d9bc
00000100: bbc0 38c0 0366 d7bf 850f 293e fedf 9bbd
00000110: ddd8 bdbd 03a8 1bc0 a8cb 4dc0 2069 f33c
00000120: a61c f43d fcf3 07be 303a efbd 5616 be3d
00000130: 1e86 893f bc35 6dc0 0c1d 89bd d4cb 9c3f
00000140: 2cd6 f7bd 76d0 d43f 74dd 68c0 d36d 20c0
00000150: 2865 63be 74cf e4be bc1f 703d 7e30 473e
00000160: cb23 aec0 268a 8f3d 77da a0bf 2408 8dbf
00000170: d452 d3be a0ea 453d 6181 aac0 26aa b73d
00000180: 846a d3bf c6d8 863e 2f4c 09be c8b0 28bd
00000190: 3daa 203e eb66 a7bf b4eb 0d3f fee6 45bd
000001a0: de2b 533d 008c 85bd 2d4f 88bd 00e3 32ba
000001b0: 05dc 70c0 4b90 f7bf 4e39 c93d 9ca9 703f
000001c0: 8079 cdbc 68b1 2cc0 7263 1fc0 f61d 093b
000001d0: 6295 15be d985 d1bf f027 8dbe ee66 91c0
000001e0: 12d3 b2bf 60f8 9d3b e109 ffbf aa69 02bf
000001f0: 29c8 6bc0 9576 d7bd eaac 9fbf ad8c 77c0
00000200: b099 0dc0 8046 a7be 76f0 043f 6315 a7bd
00000210: 5e03 0e3e aa07 f6bf b119 77be 110d ed3d
00000220: ad6e 263e 8c2f e73c 287c e03d 4008 323d
00000230: fbab 143d 622d dcbf c255 373e 4fb5 5240
00000240: b77b 21be 1f03 d83e 0ad5 e2c0 d5b6 8dbe
00000250: 8b77 b73e bc54 47c0 9c95 913c 5d08 823e
00000260: efc2 b1c0 42b3 fa3d ba9c 3840 3cbe 9cbf
00000270: 75cf 15c0 45aa 2b3e 212b 62c1 71d1 973f
00000280: 7651 5a40 97c4 54bf 905b 343e 542a 3bbd
00000290: a023 a63d 4a70 5bc0 4a34 5e3f 5b0d 103e
000002a0: 4612 2f3e 28c3 ac3c 8c2c a2bc df58 463e
000002b0: 191e 14bf 87d0 62bf da35 473e 1393 0240
000002c0: 6d11 1d3e 4a1f 3340 1078 ddc0 9f6c 1640
000002d0: f7d4 113e d6c0 5340 9711 17bd f8de 4fc0
000002e0: 9fb3 5240 118d 293e ac58 e1c0 8ac0 9abf
000002f0: a3aa 07c1 0f69 0d3e 8341 9fc0 6adc 8e3e
00000300: 8f14 8bbe 2dee 74c0 bf3b 37be 5e1a 14be
00000310: ce68 b13d 4f1d c3be 107b 69c0 a66b 243e
00000320: b4b4 a43c 45f2 9a3d 2a3c 0dbe c8f2 863e
00000330: 689d d6c0 a0b9 e4bf a0c4 efbc b1e7 dcc0
00000340: dd12 dcbd af65 03c1 263c 15c0 3858 85bf
00000350: 7c53 04bd 4c99 34bf 7c53 56be 3cc7 19c0
00000360: f474 12be c0f2 f6bb a241 ed3e ad35 80be
00000370: 56a6 cac0 5328 1c3e 7f70 8cbf dfef 943f
00000380: 8264 af3f f4cc 0f3e 00e5 5abc d0ee 4bbc
00000390: 655a 8e3c 4dc4 f9c0 fc4e 473f fdb6 fc3d
000003a0: 0032 193c 00be f53d aa80 f43d 8458 913d
000003b0: a051 45bf d202 4540 16d9 9cbd 3ae1 af3f
000003c0: e3e0 0d3e 3f84 0fc1 a14b 393f 8235 3ec0
000003d0: d805 83bc ee9b 46bf 3cc9 fa3d b0fb 1cc0
000003e0: 8751 95c0 a060 cebc 0e59 913f 6c5c e4bf
000003f0: 701f 12c1 6021 b5bc e22c 5cbf fae0 19bd
-0.16472766 -0.1984913 -0.14168306 0.11016841 -0.047644034 -0.18859853 -0.112646304 -0.03317175
0.01934535 -0.14359073 0.07213058 -0.169757 -0.055208318 -0.056104183 -0.041269794 -0.10554373
0.015834227 -0.028663285 -0.20282176 -0.26420707 -0.065170296 -0.11399422 -0.044106565 -0.017774992
0.05791633 -0.05101885 -0.10109071 -0.1347726 0.0020873025 0.09978528 0.006177038 -0.122541554
-0.2441253 -0.065593794 -0.09921854 0.11610149 -0.09681203 -0.19320005 -0.27843982 -0.14529702
-0.0012478456 -0.05920717 -0.016916454 0.05758322 -0.056897946 -0.04866273 0.026604772 -0.03876484
-0.05695004 -0.08008094 -0.11890121 0.0157613 -0.04218591 -0.18026848 0.014129236 -0.2583212
0.018377326 0.14448191 -0.22647604 0.0044276407 -0.24471617 -0.05399759 0.0071633384 -0.026587822
-2.8867633 -1.6828007 0.16509826 -0.076110825 -0.09269879 -2.4321296 -3.2155552 0.029713213
0.11919527 -0.13276666 -0.1168102 0.09281604 1.0744054 -3.7064047 -0.066949934 1.2249703
-0.12101397 1.6626117 -3.6385164 -2.5067031 -0.22206557 -0.44689524 0.058624014 0.19452092
-5.4418693 0.070087716 -1.256667 -1.1018109 -0.4127413 0.04831946 -5.3282933 0.08968
-1.6516881 0.2633726 -0.13407968 -0.041184217 0.15689941 -1.3078283 0.5543778 -0.048315994
0.051555507 -0.065208435 -0.066557266 -0.0006823987 -3.763429 -1.934091 0.09825383 0.94008803
-0.02508235 -2.698328 -2.4904447 0.00209224 -0.14607766 -1.6368972 -0.27569532 -4.5438147
-1.3970664 0.0048208684 -1.992489 -0.5094248 -3.6840918 -0.105206646 -1.2474644 -3.8679612
-2.2125053 -0.32670975 0.51929414 -0.08158376 0.13868472 -1.9221089 -0.24130894 0.11574758
0.16253157 0.028220914 0.10961181 0.0434649 0.036296826 -1.720135 0.17903808 3.2923162
-0.1576985 0.4218988 -7.0885057 -0.27678552 0.35833392 -3.1145468 0.017771535 0.25397006
-5.5550456 0.12241222 2.8845658 -1.2245555 -2.3407872 0.16764171 -14.1355295 1.1860791
3.411222 -0.8311247 0.17613053 -0.045694664 0.08112264 -3.4287286 0.86798537 0.14067595
0.17096815 0.021089152 -0.019796632 0.19369839 -0.57858425 -0.8859944 0.19454136 2.0402267
0.15338679 2.7987847 -6.920906 2.3503797 0.14241396 3.3086448 -0.03688201 -3.247984
3.2922132 0.16557719 -7.042074 -1.2090008 -8.479159 0.13809608 -4.976747 0.27902538
-0.27164122 -3.827037 -0.17893885 -0.14463183 0.08662568 -0.38108298 -3.6481361 0.1605669
0.020105697 0.075657405 -0.13792482 0.26357102 -6.7067146 -1.7869148 -0.029268563 -6.9032826
-0.107457854 -8.212325 -2.3317962 -1.0417547 -0.03230618 -0.7054641 -0.20930284 -2.4027853
-0.14302427 -0.0075362623 0.46339136 -0.2504095 -6.3328047 0.15249757 -1.0971831 1.1635703
1.3702548 0.14043027 -0.013360262 -0.012447074 0.017377088 -7.8052125 0.77854896 0.1233959
0.0093503 0.1199913 0.11938603 0.07096961 -0.77077675 3.0782971 -0.07658593 1.3740609
0.13855319 -8.969787 0.72381026 -2.9720159 -0.015993997 -0.7758168 0.12245414 -2.4528618
-4.666202 -0.025192559 1.1355302 -1.7840705 -9.132675 -0.022110641 -0.86005986 -0.03756807

linear2.bias f4 [32]
00000000: 3ec6 3bbe 64ac 27bd 45fa 88c0 abb3 7f40
00000010: 14fe 69bc e2f3 b4c0 cb73 cd3f 82a0 a7be
00000020: 14bc 94be e7f4 9fbe ff31 8ebd 381a 673f
00000030: e642 053e a048 fc3f 9265 74bd 0b2c 0e40
00000040: 9c38 c5c0 d7d8 babe 8dd0 a7c0 a500 8540
00000050: 04e6 5cbf ae11 12c0 0c52 9bbe 39a2 febf
00000060: 772f adc0 2357 38bf 6b69 95bd d267 babe
00000070: 0b91 283f 6235 a3be 68bd eebe 05c7 9040
-0.18337342 -0.04093589 -4.2805505 3.995341 -0.014281768 -5.654771 1.6050962 -0.32739645
-0.29049742 -0.31241533 -0.0694313 0.9027438 0.13013801 1.9709663 -0.059667177 2.2214382
-6.1631603 -0.3649356 -5.244208 4.1563287 -0.86288476 -2.282329 -0.30336034 -1.9893256
-5.412044 -0.7200796 -0.072954975 -0.36407334 0.6584632 -0.31876665 -0.4662888 4.5242944

output.weight f4 [3, 32]
00000000: 5674 143d b2cb 233d 62ca e03e 6e2a 4c3f
00000010: df98 05bf d153 273f ad9c 6abf 8c3f 733f
00000020: aa4c 1d3d 7a3a ad3d 14a8 93bc d7c2 0c3f
00000030: 6857 d23e 0dc4 40bf 8004 e6bb 45e6 273f
00000040: fb7b 5bbe ca1a 003d fa46 c8be 387e 103f
00000050: c9f6 f1be ca55 fe3e 733a 123d 459a ec3e
00000060: a98d 2b40 80a9 cebc ec03 6b3d e806 f03c
00000070: bc92 0abf 80b9 673c 60db 113c 55d2 10bf
00000080: 946a d2bc 2b2b 29be 32c8 5f3f 6507 653f
00000090: 5173 16bf d2bf 2a3f 12a3 36bf e338 6e3f
000000a0: 9ef3 adbd 2865 2a3d 9e89 4ebe ab66 1d3f
000000b0: 8f62 fa3e 6a5a 42bf 4625 0cbd ad10 553f
000000c0: 1bc9 d8be 8036 033a 5f95 d1be 53d0 343f
000000d0: a3cc 06bf f93f e83e 39db f53d 164b 873e
000000e0: 7ef0 5c3f a365 393e 84c8 f9bd c028 2c3e
000000f0: f70b 28bf 67af 1e3e 32f5 49bd f1b0 14bf
00000100: 08a6 eb3c ab94 06be 8a25 b63e 425b 343f
00000110: 3c77 15bf 6c89 313f 7487 db3d 32e5 503f
00000120: beb7 493d 50d3 53bd 04c0 7dbd dddb 213f
00000130: 68d5 4b3f e420 42bf 356c c5bd 3fda 1c3f
00000140: ab38 fdbe 1084 21be d2b6 acbe 6b3d 423f
00000150: 67de 16bf 8ba3 5d3f 9611 233d 7c46 3b3e
00000160: dfab 9b3e 8010 7fbb e332 923d 74c6 bc3d
00000170: 1c15 f8be 9391 abbd cc45 24bd 2b3b 04bf
0.03624376 0.03998918 0.43904406 0.7975224 -0.5218639 0.6536227 -0.9164532 0.9501884
0.03840319 0.08458419 -0.018024482 0.549848 0.4108231 -0.7529915 -0.0070195794 0.6558574
-0.21434014 0.031275548 -0.3911665 0.56442595 -0.47258595 0.49674827 0.035700273 0.46211448
2.6805212 -0.025227308 0.057376787 0.029300168 -0.5413015 0.014143348 0.008902401 -0.5657094
-0.025685586 -0.16520374 0.8741485 0.8946441 -0.5876971 0.66698945 -0.71342576 0.9305555
-0.08493732 0.041600376 -0.20169684 0.61484784 0.4890332 -0.7591921 -0.034215234 0.8322857
-0.4234093 0.00050053746 -0.40934274 0.7063038 -0.52656 0.45361307 0.12004704 0.26424474
0.8630446 0.18105178 -0.121964484 0.1681242 -0.65643257 0.15496598 -0.049306102 -0.5808249
0.028765693 -0.1314265 0.35575515 0.7045175 -0.5838506 0.69350314 0.10719195 0.81599724
0.049247496 -0.051715195 -0.0619507 0.6322611 0.7962251 -0.7583144 -0.096397795 0.6127052
-0.49457297 -0.15773034 -0.3373323 0.75874966 -0.5893311 0.8657767 0.039811693 0.18288606
0.30404565 -0.0038919747 0.07138612 0.092175394 -0.48453605 -0.083773755 -0.040105626 -0.51652783

output.bias f4 [3]
00000000: edd2 dd3e dfde ea3e 7133 b63e
0.43324986 0.45873162 0.35586122

square_avg f4 [32, 7]
00000000: 339d 5e38 6899 a038 21b2 ae35 75d2 d035
00000010: ab93 1036 2a37 4536 7be6 083c fde5 8737
00000020: ec54 a537 57e4 1334 0e9e 7433 13a0 1137
00000030: c451 5334 5671 8938 3200 0000 3200 0000
00000040: 3200 0000 3200 0000 3200 0000 3200 0000
00000050: 3200 0000 0000 0000 0000 0000 0000 0000
00000060: 0000 0000 0000 0000 0000 0000 0000 0000
00000070: 3200 0000 3200 0000 3200 0000 3200 0000
00000080: 3200 0000 3200 0000 3200 0000 9cc8 d936
00000090: 1762 ed36 a7c8 0d33 96d9 fb31 47a7 8533
000000a0: 5c87 8233 0450 aa36 ae79 5d38 5781 7c38
000000b0: 6f98 5835 ece2 9135 86e1 ef37 8d76 b835
000000c0: e4eb a43b 3200 0000 3200 0000 3200 0000
000000d0: 3200 0000 3200 0000 3200 0000 3200 0000
000000e0: 3200 0000 3200 0000 3200 0000 3200 0000
000000f0: 3200 0000 3200 0000 3200 0000 3200 0000
00000100: 3200 0000 3200 0000 3200 0000 3200 0000
00000110: 3200 0000 3200 0000 3200 0000 3200 0000
00000120: 3200 0000 3200 0000 3200 0000 3200 0000
00000130: 0000 0000 3200 0000 3200 0000 3200 0000
00000140: 3200 0000 0000 0000 3200 0000 3200 0000
00000150: c237 4c39 ff48 7d39 d493 4036 e795 5836
00000160: 97e4 1938 3fef 9136 928c 993c 3112 c936
00000170: 9f25 e436 b340 7d33 5477 e532 0918 cd35
00000180: b044 0034 c6d3 3d2a 3200 0000 3200 0000
00000190: 3200 0000 3200 0000 3200 0000 3200 0000
000001a0: 3200 0000 99da 8a37 e04f 2438 2ec7 9034
000001b0: bb9e b533 e3ff e336 450b ab34 7944 0939
000001c0: 3200 0000 3200 0000 3200 0000 3200 0000
000001d0: 3200 0000 0000 0000 3200 0000 042d ba3a
000001e0: dcbd b83a 083d db36 af4f 8537 2972 0c3a
000001f0: b697 c937 e07f a63d e1a5 e038 7bc9 0239
00000200: 944f 1236 8869 4c36 cf7d ef36 687a 8d36
00000210: 8625 463c c529 f737 3fda b538 b529 0236
00000220: 1e7f 1736 7b36 f636 eb21 6136 68cd 2e3c
00000230: 3200 0000 3200 0000 3200 0000 3200 0000
00000240: 3200 0000 3200 0000 3200 0000 2fb2 0037
00000250: 12c6 e135 af78 b733 dcca 9833 7cd0 6734
00000260: 4611 6934 f309 a436 3200 0000 3200 0000
00000270: 3200 0000 3200 0000 3200 0000 3200 0000
00000280: 3200 0000 e399 2139 a8bd 9a39 aa32 0635
00000290: 9810 8c35 6622 2938 d96b d935 bf1e 9d3b
000002a0: c1d4 8936 abe0 a137 2aae 2934 f83b eb31
000002b0: 5d8e fb36 ee31 5434 3200 0000 0000 0000
000002c0: 0000 0000 0000 0000 0000 0000 0000 0000
000002d0: 0000 0000 0000 0000 1f0c ba37 1d7c de37
000002e0: e4e6 5a35 35c7 b735 8872 db35 e67f 0a36
000002f0: 62ee 993b 69f9 5337 fdbb 9337 65f3 a233
00000300: 4a1b 9e33 167c af35 c7fc 1234 6e07 a439
00000310: ee24 123a 95e2 053a a766 5135 f4d8 7436
00000320: 94f2 0739 2d6e 1b37 b116 c03c 0000 0000
00000330: 0000 0000 0000 0000 0000 0000 0000 0000
00000340: 0000 0000 0000 0000 4272 6638 d827 7a38
00000350: 4326 2b35 8e2d 4f35 df7b 3c35 38bb 0436
00000360: 773e 823b 3200 0000 3200 0000 3200 0000
00000370: 3200 0000 3200 0000 3200 0000 3200 0000
5.3075328e-05 7.657969e-05 1.3015853e-06 1.5558459e-06 2.1543626e-06 2.9387397e-06 0.008355732 1.620035e-05
1.9709078e-05 1.3773511e-07 5.6954427e-08 8.679944e-06 1.9680652e-07 6.5537795e-05 7e-44 7e-44
7e-44 7e-44 7e-44 7e-44 7e-44 0.0 0.0 0.0
0.0 0.0 0.0 0.0 7e-44 7e-44 7e-44 7e-44
7e-44 7e-44 7e-44 6.490458e-06 7.0745696e-06 3.3011613e-08 7.329798e-09 6.223723e-08
6.0782185e-08 5.07571e-06 5.280383e-05 6.020194e-05 8.068809e-07 1.0869385e-06 2.8596038e-05 1.3743571e-06
0.005033003 7e-44 7e-44 7e-44 7e-44 7e-44 7e-44 7e-44
7e-44 7e-44 7e-44 7e-44 7e-44 7e-44 7e-44 7e-44
7e-44 7e-44 7e-44 7e-44 7e-44 7e-44 7e-44 7e-44
7e-44 7e-44 7e-44 7e-44 0.0 7e-44 7e-44 7e-44
7e-44 0.0 7e-44 7e-44 0.00019475727 0.00024155153 2.8696277e-06 3.2273763e-06
3.6690933e-05 4.3491887e-06 0.018743787 5.9923846e-06 6.799309e-06 5.8964996e-08 2.6713373e-08 1.5280685e-06
1.1945917e-07 1.6860046e-13 7e-44 7e-44 7e-44 7e-44 7e-44 7e-44
7e-44 1.6552674e-05 3.9175036e-05 2.6967012e-07 8.457342e-08 6.7949163e-06 3.1859432e-07 0.00013090846
7e-44 7e-44 7e-44 7e-44 7e-44 0.0 7e-44 0.001420409
0.0014094668 6.5338136e-06 1.5891941e-05 0.00053575874 2.4031713e-05 0.08129859 0.0001071205 0.00012472823
2.1802016e-06 3.0459796e-06 7.137401e-06 4.2163774e-06 0.012093907 2.9464145e-05 8.671404e-05 1.9395786e-06
2.2574745e-06 7.3377137e-06 3.3547356e-06 0.01066909 7e-44 7e-44 7e-44 7e-44
7e-44 7e-44 7e-44 7.670881e-06 1.6821452e-06 8.543554e-08 7.1149515e-08 2.1589398e-07
2.17061e-07 4.888739e-06 7e-44 7e-44 7e-44 7e-44 7e-44 7e-44
7e-44 0.00015411484 0.00029514474 4.9992616e-07 1.0435642e-06 4.0324776e-05 1.6199148e-06 0.004794925
4.107686e-06 1.9297315e-05 1.5802712e-07 6.846218e-09 7.496956e-06 1.9762203e-07 7e-44 0.0
0.0 0.0 0.0 0.0 0.0 0.0 2.2178572e-05 2.6522257e-05
8.154732e-07 1.3692539e-06 1.6350104e-06 2.063805e-06 0.004697607 1.263465e-05 1.7611304e-05 7.587986e-08
7.362412e-08 1.307463e-06 1.368927e-07 0.00031286053 0.0005574961 0.0005107311 7.8007946e-07 3.6485117e-06
0.0001296497 9.264372e-06 0.02344832 0.0 0.0 0.0 0.0 0.0
0.0 0.0 5.4942684e-05 5.9641752e-05 6.375814e-07 7.71798e-07 7.0215714e-07 1.9778508e-06
0.0039747315 7e-44 7e-44 7e-44 7e-44 7e-44 7e-44 7e-44

square_avg f4 [32]
00000000: 14bb b239 648d 4138 3200 0000 0000 0000
00000010: 3200 0000 18e8 1c37 0b91 5539 3200 0000
00000020: 3200 0000 3200 0000 3200 0000 3200 0000
00000030: 94aa 2d3a 529e a537 3200 0000 297e 8f38
00000040: 3200 0000 4b42 a63b 3a40 f839 dfaa db39
00000050: 3200 0000 4342 3738 3200 0000 262e ca39
00000060: 0187 f137 0000 0000 d5e9 ad39 2663 e037
00000070: cbdb 963a 0000 0000 9760 8239 3200 0000
0.0003409019 4.6146466e-05 7e-44 0.0 7e-44 9.352363e-06 0.00020367296 7e-44
7e-44 7e-44 7e-44 7e-44 0.00066248444 1.9743256e-05 7e-44 6.8422705e-05
7e-44 0.0050738207 0.000473501 0.00041898244 7e-44 4.369231e-05 7e-44 0.00038562826
2.8792305e-05 0.0 0.0003317135 2.674905e-05 0.0011509595 0.0 0.00024867497 7e-44

square_avg f4 [32, 32]
00000000: 3200 0000 3200 0000 3200 0000 0000 0000
00000010: 3200 0000 3200 0000 3200 0000 3200 0000
00000020: 3200 0000 0000 0000 3200 0000 0000 0000
00000030: 3200 0000 3200 0000 0000 0000 3200 0000
00000040: 0000 0000 3200 0000 3200 0000 3200 0000
00000050: 3200 0000 3200 0000 3200 0000 3200 0000
00000060: 3200 0000 0000 0000 3200 0000 3200 0000
00000070: 3200 0000 0000 0000 3200 0000 3200 0000
00000080: 3200 0000 3200 0000 3200 0000 0000 0000
00000090: 3200 0000 3200 0000 3200 0000 3200 0000
000000a0: 3200 0000 3200 0000 3200 0000 3200 0000
000000b0: 3200 0000 3200 0000 3200 0000 3200 0000
000000c0: 0000 0000 3200 0000 3200 0000 3200 0000
000000d0: 3200 0000 3200 0000 3200 0000 3200 0000
000000e0: 3200 0000 0000 0000 3200 0000 3200 0000
000000f0: 3200 0000 0000 0000 3200 0000 3200 0000
00000100: 5cf7 0f2f 8cf6 ff2d 0000 0000 0000 0000
00000110: 0000 0000 9eaf 3c2c fd30 2c30 0000 0000
00000120: 0000 0000 0000 0000 0000 0000 0000 0000
00000130: 3890 f930 28a3 072a 0000 0000 8ef9 d630
00000140: 0000 0000 6d54 c032 1d0b 382e 28f1 ba2d
00000150: 3200 0000 3200 0000 0000 0000 e869 010e
00000160: 3200 0000 0000 0000 3200 0000 0832 972b
00000170: 3200 0000 0000 0000 63b7 4828 0000 0000
00000180: 82b0 6f34 08ad d836 3200 0000 0000 0000
00000190: 3200 0000 8c0c 1334 5389 7737 3200 0000
000001a0: 3200 0000 3200 0000 3200 0000 3200 0000
000001b0: 81c3 c534 d17d 6733 3200 0000 6f37 4a36
000001c0: 3200 0000 918a 3837 ffab 0e34 e64f 8736
000001d0: 3200 0000 f993 8634 3200 0000 91c3 7c34
000001e0: f030 491a 0000 0000 f6c1 6425 00be f836
000001f0: 15b8 a435 0000 0000 930b ec35 3200 0000
00000200: 79c8 9633 fa08 8d35 3200 0000 0000 0000
00000210: 3200 0000 8f46 e334 afde c036 3200 0000
00000220: 3200 0000 3200 0000 3200 0000 3200 0000
00000230: 9cdf 1b36 3f72 6135 3200 0000 abf0 b436
00000240: 0000 0000 ce5e 1e38 7b78 0a2f 9c9e b337
00000250: 3200 0000 e072 c333 3200 0000 bd1b 4f36
00000260: 1ece 2532 0000 0000 2d79 bd33 98e7 9435
00000270: 1a6a 942c 0000 0000 9eb1 c72a 3200 0000
00000280: 9af4 0e38 5c18 9736 3200 0000 0000 0000
00000290: 3200 0000 5f06 6334 8661 9b37 3200 0000
000002a0: 3200 0000 3200 0000 3200 0000 3200 0000
000002b0: e1b7 6038 a371 c437 3200 0000 8bf4 ec36
000002c0: 0000 0000 4887 7539 a4de 9235 6098 d239
000002d0: 3200 0000 82d8 e035 3200 0000 0b8b 6135
000002e0: b2fd 1137 0000 0000 745a e236 2f2c b735
000002f0: 3200 0000 0000 0000 a069 3d36 3200 0000
00000300: 5f62 fe08 330e 9f30 3200 0000 0000 0000
00000310: 3200 0000 5273 a231 db1c 4230 3200 0000
00000320: 3200 0000 3200 0000 0000 0000 3200 0000
00000330: e5bf 8427 3200 0000 3200 0000 75bd a72e
00000340: 0000 0000 09d8 4d31 3200 0000 3200 0000
00000350: 3200 0000 3200 0000 3200 0000 3a60 fb2f
00000360: 3200 0000 0000 0000 3200 0000 721a 2735
00000370: fda4 2e32 0000 0000 efe6 c831 3200 0000
00000380: d1de bd39 c455 e01a 0000 0000 0000 0000
00000390: 3200 0000 c6c8 032e 9b9e ef36 3200 0000
000003a0: 3200 0000 3200 0000 0000 0000 3200 0000
000003b0: abde 5139 c6d2 8135 3200 0000 c67a 2836
000003c0: 0000 0000 dc72 7d36 4e12 5939 11a1 db2e
000003d0: 3200 0000 19d5 9336 3200 0000 c7de 942f
000003e0: 3200 0000 0000 0000 f962 ba39 6941 8830
000003f0: 43e1 cd35 0000 0000 dae1 4139 3200 0000
7e-44 7e-44 7e-44 0.0 7e-44 7e-44 7e-44 7e-44
7e-44 0.0 7e-44 0.0 7e-44 7e-44 0.0 7e-44
0.0 7e-44 7e-44 7e-44 7e-44 7e-44 7e-44 7e-44
7e-44 0.0 7e-44 7e-44 7e-44 0.0 7e-44 7e-44
7e-44 7e-44 7e-44 0.0 7e-44 7e-44 7e-44 7e-44
7e-44 7e-44 7e-44 7e-44 7e-44 7e-44 7e-44 7e-44
0.0 7e-44 7e-44 7e-44 7e-44 7e-44 7e-44 7e-44
7e-44 0.0 7e-44 7e-44 7e-44 0.0 7e-44 7e-44
1.3093654e-10 2.9099632e-11 0.0 0.0 0.0 2.6813894e-12 6.264285e-10 0.0
0.0 0.0 0.0 0.0 1.8158124e-09 1.2047015e-13 0.0 1.5641477e-09
0.0 2.2390134e-08 4.1846627e-11 2.1252847e-11 7e-44 7e-44 0.0 1.595147e-30
7e-44 0.0 7e-44 1.0743082e-12 7e-44 0.0 1.1141996e-14 0.0
2.2322823e-07 6.457445e-06 7e-44 0.0 7e-44 1.3695006e-07 1.4754321e-05 7e-44
7e-44 7e-44 7e-44 7e-44 3.6836357e-07 5.3898308e-08 7e-44 3.0132612e-06
7e-44 1.0999517e-05 1.3287352e-07 4.032615e-06 7e-44 2.506711e-07 7e-44 2.3540476e-07
4.1605357e-23 0.0 1.9841564e-16 7.413095e-06 1.2272527e-06 0.0 1.7586739e-06 7e-44
7.021385e-08 1.0507931e-06 7e-44 0.0 7e-44 4.2333383e-07 5.7479697e-06 7e-44
7e-44 7e-44 7e-44 7e-44 2.3226958e-06 8.398528e-07 7e-44 5.3924355e-06
0.0 3.775843e-05 1.259383e-10 2.1412321e-05 7e-44 9.101291e-08 7e-44 3.086155e-06
9.65113e-09 0.0 8.82304e-08 1.1094262e-06 4.2181926e-12 0.0 3.5472748e-13 7e-44
3.408324e-05 4.5029865e-06 7e-44 0.0 7e-44 2.114334e-07 1.8522853e-05 7e-44
7e-44 7e-44 7e-44 7e-44 5.3577012e-05 2.3417937e-05 7e-44 7.0618166e-06
0.0 0.00023415417 1.0942645e-06 0.0004016785 7e-44 1.6752313e-06 7e-44 8.4021366e-07
8.7017415e-06 0.0 6.745855e-06 1.3647422e-06 7e-44 0.0 2.8224676e-06 7e-44
1.5310196e-33 1.1572808e-09 7e-44 0.0 7e-44 4.727931e-09 7.0617795e-10 7e-44
7e-44 7e-44 0.0 7e-44 3.6845412e-15 7e-44 7e-44 7.627935e-11
0.0 2.9954228e-09 7e-44 7e-44 7e-44 7e-44 7e-44 4.5725007e-10
7e-44 0.0 7e-44 6.225083e-07 1.0165647e-08 0.0 5.84702e-09 7e-44
0.000362149 9.278279e-23 0.0 0.0 7e-44 2.9964274e-11 7.141219e-06 7e-44
7e-44 7e-44 0.0 7e-44 0.00020014743 9.672592e-07 7e-44 2.5105414e-06
0.0 3.7766795e-06 0.00020701552 9.987578e-11 7e-44 4.405749e-06 7e-44 2.7079336e-10
7e-44 0.0 0.00035550425 9.913893e-10 1.533925e-06 0.0 0.0001849005 7e-44

square_avg f4 [32]
00000000: 3200 0000 3200 0000 f732 2331 fdbc 0b38
00000010: 6277 1f37 571c 3238 0cec 0d35 5f7b 9b37
00000020: 3200 0000 3200 0000 3200 0000 c2a0 5436
00000030: 8807 1235 33f6 dc38 3200 0000 3f84 4936
00000040: 53de d834 3200 0000 3b80 bf38 6166 8c37
00000050: 9cda 0e37 7849 1635 3200 0000 7f9e 8832
00000060: 3200 0000 3200 0000 3200 0000 3200 0000
00000070: eb84 8d36 3200 0000 3200 0000 1bc6 4238
7e-44 7e-44 2.3748592e-09 3.331619e-05 9.5049345e-06 4.24649e-05 5.2870087e-07 1.8534889e-05
7e-44 7e-44 7e-44 3.1684035e-06 5.44002e-07 0.00010536276 7e-44 3.0028311e-06
4.0394897e-07 7e-44 9.1314745e-05 1.6736974e-05 8.5147585e-06 5.5986266e-07 7e-44 1.590456e-08
7e-44 7e-44 7e-44 7e-44 4.217601e-06 7e-44 7e-44 4.6437704e-05

square_avg f4 [3, 32]
00000000: 3200 0000 3200 0000 25ab f62f ab0f 5438
00000010: b13b 3637 a54e 3b3b 7715 0c34 425c 6c39
00000020: 3200 0000 3200 0000 3200 0000 3f74 4937
00000030: bfb9 4631 ca54 0b3c 3200 0000 2e25 2b36
00000040: efa8 8036 3200 0000 d3c8 933b 4042 8e37
00000050: aba8 8237 18fc 5d34 3200 0000 6056 2f2b
00000060: 3200 0000 3200 0000 3200 0000 3200 0000
00000070: 45c7 ae33 0000 0000 3200 0000 e774 123a
00000080: 3200 0000 3200 0000 16a5 662e 041d f737
00000090: 39ef 8e37 e154 1a3a 02c0 0131 6df7 3e39
000000a0: 3200 0000 3200 0000 3200 0000 ba8f 4936
000000b0: dc58 1436 cf53 2d3b 3200 0000 af29 9635
000000c0: 616f 9d33 3200 0000 5586 f839 ec08 7f37
000000d0: 9284 5937 0bba d433 3200 0000 cd8a b22d
000000e0: 3200 0000 3200 0000 3200 0000 3200 0000
000000f0: 7803 4338 0000 0000 3200 0000 73cc 6739
00000100: 0000 0000 0000 0000 dac6 9030 bfa1 1939
00000110: b4f4 c138 462f 553b 0644 4133 f41b 4236
00000120: 3200 0000 3200 0000 3200 0000 562e 8436
00000130: 7c8c 8236 947e 253c 3200 0000 7eaf 7636
00000140: b437 8c35 0000 0000 93ce 9538 5296 b738
00000150: 2209 2a38 ec43 b634 3200 0000 dd60 e735
00000160: 3200 0000 3200 0000 3200 0000 3200 0000
00000170: b8ee a037 3200 0000 3200 0000 b6a3 d939
7e-44 7e-44 4.4868745e-10 5.055933e-05 1.0861943e-05 0.0028580811 1.3046325e-07 0.00022541083
7e-44 7e-44 7e-44 1.2007599e-05 2.8918377e-09 0.008504102 7e-44 2.5502627e-06
3.8343637e-06 7e-44 0.004510024 1.695857e-05 1.557575e-05 2.067394e-07 7e-44 6.229236e-13
7e-44 7e-44 7e-44 7e-44 8.138753e-08 0.0 7e-44 0.0005586878
7e-44 7e-44 5.244257e-11 2.9458206e-05 1.7039116e-05 0.0005887282 1.8881114e-09 0.00018211985
7e-44 7e-44 7e-44 3.0034994e-06 2.2105442e-06 0.002644766 7e-44 1.1188002e-06
7.331142e-08 7e-44 0.0004740233 1.5201262e-05 1.2965074e-05 9.90586e-08 7e-44 2.0297897e-11
7e-44 7e-44 7e-44 7e-44 4.6494853e-05 0.0 7e-44 0.0002210604
0.0 0.0 1.0533896e-09 0.00014651472 9.248537e-05 0.0032529398 4.499818e-08 2.8924524e-06
7e-44 7e-44 7e-44 3.9393008e-06 3.8906564e-06 0.010100979 7e-44 3.6759006e-06
1.0447025e-06 0.0 7.143351e-05 8.754119e-05 4.0539664e-05 3.394956e-07 7e-44 1.7239032e-06
7e-44 7e-44 7e-44 7e-44 1.9184648e-05 7e-44 7e-44 0.0004151144

square_avg f4 [3]
00000000: c102 8f3a b28d 7239 3417 8138
0.0010910855 0.00023131704 6.155521e-05
